autoencoder_model.pth (torch, 23480 bytes, 8 tensors)

encoder.0.weight f4 [32, 60]
000000 55 bb f9 bc 22 3a b7 3f cb 88 c8 3f fc de 8b 3e
       -0.030484835 1.4314616 1.5666746 0.2731856
000010 b4 18 27 c0 c6 9b 84 bd 0a 18 7c 3e a9 41 53 be
       -2.6108828 -0.06475024 0.24618545 -0.20630516
000020 77 02 34 be f0 0f 89 be 46 d0 22 3c a2 4a a8 bf
       -0.17579065 -0.26769972 0.009937352 -1.3147776
000030 f2 ba 9f bc ac 02 56 bc 7a 59 3a bd 44 c1 06 be
       -0.019498322 -0.01306216 -0.045495488 -0.13159662
000040 c5 97 dd bd d0 75 a0 3d 92 55 82 3a b7 0c f6 bd
       -0.10819963 0.07834971 0.0009943715 -0.12014144
000050 c8 c9 66 be 8e ab 06 be d2 83 01 be 71 d8 3c 3f
       -0.22537911 -0.1315138 -0.12647942 0.73767763
000060 92 de f3 3a 07 12 ac 3d 7e a0 d5 3e de 02 f3 3d
       0.001860576 0.08401876 0.41724008 0.11865781
000070 8e 9b 2a bf 5d 6d 8b be e5 46 76 3e 03 d5 1b bd
       -0.6664361 -0.27231875 0.24050482 -0.03804494
000080 2c 6f 88 be 75 81 b7 3d 95 89 bf 3d 11 96 04 bf
       -0.26647317 0.08960239 0.093524136 -0.51791483
000090 56 d8 ec bc 33 ce a3 bd 78 ba 4c bd 68 ec 98 bc
       -0.02891175 -0.07998314 -0.049982518 -0.018667415
0000a0 09 2c 79 bd 80 da 43 be ca 88 00 bc 70 c6 13 be
       -0.06083301 -0.1912632 -0.007845113 -0.14431167
0000b0 0f ac 16 3d 78 68 79 3d 8a 4c 59 3d 2f 9f 6e be
       0.03678518 0.060890645 0.05305151 -0.23302911
0000c0 6b 38 13 bd 1c d8 77 bf 7a 52 a3 bf f4 2f 45 be
       -0.035942476 -0.9681413 -1.2759545 -0.19256574
0000d0 f0 5f f8 3f d4 ed 8e bd ea 39 66 be eb 85 76 bc
       1.9404278 -0.06978956 -0.2248303 -0.015046577
0000e0 06 6c 73 3e a7 ce 80 bd 17 17 57 bd 40 b2 d0 3f
       0.23771676 -0.06289416 -0.052512255 1.6304398
0000f0 dd 2f 5c be c5 f3 16 c1 b9 3e 53 c1 bc 5a 79 41
       -0.21502633 -9.434514 -13.202813 15.584652
000100 12 96 77 3f 7b 2b ac bf 38 be 51 c1 f2 83 a6 40
       0.96713364 -1.3450769 -13.10894 5.2036066
000110 ed 44 a7 c1 3d df c4 be 2d e6 96 bd 8d f4 10 c0
       -20.908655 -0.38451567 -0.07368121 -2.2649262
000120 c6 a4 b8 be dc 90 7b bf 99 dc 6a be 5e 2e aa c0
       -0.36063212 -0.9826791 -0.22935714 -5.31816
000130 55 d7 f0 c0 d7 3c 27 40 be bc 5e 40 ed be 5f 41
       -7.5262856 2.6130884 3.48027 13.984113
000140 86 e0 34 41 2b de 28 be ac 9e 9b bb 16 46 1e 40
       11.304815 -0.16491 -0.00474914 2.4730277
000150 bb f8 d5 3d 94 56 b9 3f cf 9a 7d 40 dc 21 08 c1
       0.10447832 1.4479547 3.9625738 -8.508266
000160 7a f0 af bc 6c f5 c2 be 4e c9 2f 3f 17 39 d2 c0
       -0.021476973 -0.38077867 0.6866654 -6.569469
000170 99 02 58 bf ff 6c 0e be 2a 2b 0f bd 3d 35 0c 40
       -0.84378964 -0.13908766 -0.034953274 2.1907494
000180 b0 00 f6 3c 7c 4b cc 40 86 20 39 41 f7 39 6e c1
       0.030029625 6.3842144 11.57044 -14.889152
000190 c9 02 b0 c1 4d ec 2d 40 1b ec 17 41 a2 96 2e c1
       -22.00136 2.7175477 9.495143 -10.911776
0001a0 33 23 76 c1 83 d1 07 3e a7 2a 18 be 0e 98 a7 bf
       -15.383594 0.13263516 -0.1486002 -1.3093278
0001b0 41 58 3e 3e 32 3e 67 bf 9c aa 0e 3e a1 ea cb c0
       0.18588354 -0.9032928 0.1393227 -6.372391
0001c0 6b 7c c7 c0 d0 74 0e c1 06 1a d1 40 1f 31 38 c1
       -6.2339377 -8.903519 6.5344267 -11.511992
0001d0 6e 36 a0 40 e8 c1 43 3d fa eb 1b be 97 f4 a6 bf
       5.0066442 0.047792345 -0.15226737 -1.3043393
0001e0 6c 70 a7 3c d3 ca b4 3e dd 33 ec bd d3 7f 21 40
       0.02043935 0.35310993 -0.1153333 2.5234268
0001f0 5e 40 c2 c0 17 52 07 c0 7a 72 06 c1 ca 2e 33 40
       -6.0703573 -2.1143854 -8.402948 2.7997308
000200 04 e2 32 41 66 6b 01 be ec 3c 1c 3e 82 75 f1 c0
       11.18018 -0.12638626 0.15257615 -7.545594
000210 b3 41 ad bc 25 db 4f 40 52 10 58 bf 8b 80 67 bf
       -0.021149492 3.2477505 -0.843999 -0.90430516
000220 d8 d8 32 40 7d 47 22 3e b6 a8 e7 3f 0c 44 90 be
       2.794485 0.15847583 1.8098361 -0.28176916
000230 7f e0 f6 c1 02 64 82 3b 7b 01 ea 3b 09 2e 77 3f
       -30.859617 0.003979207 0.0071412898 0.9655462
000240 8f ac cb 3b b1 01 93 be 37 66 ba bf 93 6c 86 40
       0.006215639 -0.28712228 -1.4562443 4.2007537
000250 53 86 02 c1 a8 3c 48 40 e6 51 47 41 6a ba 69 40
       -8.157794 3.1287022 12.457495 3.6520028
000260 ae 63 8b 40 a3 7d 8f bf c1 3e 66 3f ce 76 da 40
       4.355918 -1.1210216 0.89939505 6.8270025
000270 21 ec 8f 3b df 46 e8 40 b3 da 50 40 41 93 fd c0
       0.0043921624 7.2586513 3.2633483 -7.9242253
000280 fb 2b 23 40 bf 44 3a 40 07 aa e1 40 71 a2 55 3f
       2.5495594 2.910446 7.0520053 0.8345099
000290 0f 2d c0 c1 91 4e 96 3e ff b6 b3 3e 5d 7a 47 bf
       -24.022001 0.29356816 0.35100552 -0.77921087
0002a0 af f7 85 bd a8 5e 0b 40 42 fd 28 40 f0 10 ce 3f
       -0.065413825 2.1776524 2.6404576 1.6098919
0002b0 c9 6d 3e c1 54 4b 51 40 e6 91 88 c0 64 ce b1 3f
       -11.901803 3.2702227 -4.26781 1.389111
0002c0 ec 6c 4e 40 cf 01 97 3e 8b 79 2c 3f 53 b0 6d 40
       3.225398 0.29493567 0.6737296 3.713887
0002d0 d7 4a 28 3c 16 36 97 c0 25 b3 d0 c0 18 9e bb 40
       0.010271749 -4.7253523 -6.521868 5.8630486
0002e0 63 29 dd c0 85 a5 27 c0 50 6d b0 40 d0 03 00 c1
       -6.911302 -2.6194775 5.513344 -8.000931
0002f0 b6 41 99 c1 8a 73 50 be 4b 90 06 be 23 07 0a 3f
       -19.157085 -0.20356575 -0.13140981 0.5391714
000300 d1 fc 45 3d 14 29 12 c1 4e 9f 89 c1 22 ac 24 41
       0.048336808 -9.135029 -17.202785 10.292025
000310 cc 28 2d 40 42 af 31 3e 48 7d 9f 40 be 3a 55 41
       2.705615 0.17352012 4.984043 13.326841
000320 16 13 8f 41 84 fd a9 3e f8 0d 6b 3e 33 26 98 c0
       17.88432 0.3320123 0.22954547 -4.754663
000330 e4 70 12 bc 0f 6c 85 bf 8f 4f ab bf e6 e5 6f bf
       -0.008938048 -1.0423602 -1.3383654 -0.9371017
000340 ef 7c b7 40 23 ef 63 c0 33 ed 01 41 54 5c 16 c1
       5.7340007 -3.5614707 8.12041 -9.397541
000350 d6 7f 81 c1 52 65 4a bf e7 9b 0e 3f b0 05 7c c0
       -16.18742 -0.7906085 0.5570664 -3.9378471
000360 a8 8e 36 bd cb 9f 2b c0 ce 69 ed c0 cb a7 91 3f
       -0.04456964 -2.681628 -7.4191656 1.1379331
000370 1e 4c d5 40 29 14 82 3e 8b 95 fa be d3 01 04 c0
       6.6655416 0.25406006 -0.48942217 -2.0626113
000380 eb 99 3d c1 3b e6 9d 3e f8 51 2e 3f 54 fa 8e 3f
       -11.850078 0.30839714 0.68093824 1.1170144
000390 a6 68 fb 3a c1 60 8a c0 ef 92 c0 c0 a9 c0 8c 40
       0.0019180968 -4.324311 -6.017936 4.398518
0003a0 91 73 c2 c0 1d a8 34 c0 d9 84 07 c1 38 51 6e c1
       -6.076607 -2.8227608 -8.4699335 -14.894829
0003b0 cb a5 08 41 9b 4a a9 3e 61 88 01 3f be b8 d1 c0
       8.540477 0.33064732 0.5059872 -6.5538015
0003c0 9e 75 d9 3a 22 e7 15 40 4e 12 11 40 cd f4 28 40
       0.0016590839 2.3422322 2.2667422 2.6399415
0003d0 e2 43 72 c1 93 36 db bf 57 c3 3f bf 3b f5 43 3f
       -15.141573 -1.712603 -0.7490744 0.76546067
0003e0 d1 45 5e 3f d9 88 1e 3d af 9e b7 3e f7 2f 2a 3f
       0.8682528 0.038704727 0.35863253 0.6647944
0003f0 b8 f8 bb bc 30 53 58 40 fa 5a 80 c0 4e a0 37 3f
       -0.022945747 3.3800774 -4.0111055 0.7172898

encoder.0.bias f4 [32]
000000 ce 90 39 be 47 13 36 c0 e5 f7 bc 3f d4 34 6f bf
       -0.18121645 -2.8449266 1.4763151 -0.93439984
000010 55 53 2e 40 37 d9 cf 3f c2 8e ea 3d 44 36 15 bf
       2.7238362 1.6238164 0.1145301 -0.5828593
000020 84 28 af 3e 35 23 3b 3f b6 8a 88 be 9f 1d 9e bd
       0.34210598 0.73100597 -0.26668328 -0.077204935
000030 04 4f a6 be 2b cd 28 bf 5a ea 3b 3b 83 e9 4a be
       -0.3248216 -0.6593806 0.002867362 -0.1981564
000040 eb a0 6f be 30 c0 18 bf db 12 87 3d 25 53 27 bc
       -0.23401229 -0.59668255 0.06595393 -0.010212694
000050 55 17 01 3e 88 63 01 40 3d 2e 82 be cc 53 e7 be
       0.12606557 2.0217 -0.25425902 -0.4518112
000060 bc 85 62 c0 b1 6c 6f c0 38 bd e7 3f ff 33 c1 3f
       -3.5394125 -3.741009 1.810462 1.5093993
000070 43 4d 83 c0 fe f0 11 bf c5 13 10 be f3 ef 84 be
       -4.1031814 -0.5700835 -0.14070041 -0.25964317

encoder.2.weight f4 [16, 32]
000000 26 e5 cf 3d 9f ee 25 be 40 4c fa 3c 63 24 ae bd
       0.101511285 -0.16204308 0.030553937 -0.08503034
000010 e5 66 4d 3d cf 8b bc bc 0c 74 88 bd e0 e7 a7 bd
       0.050146956 -0.023015885 -0.06662759 -0.081985235
000020 9a ad d6 bd 6b f6 38 be 5f 29 4d 3d 77 47 48 be
       -0.104823306 -0.18062751 0.050088283 -0.19558512
000030 40 c3 d1 bb 8e a7 65 be 7d af 03 be 58 6d 83 bc
       -0.0064014494 -0.22427198 -0.12859912 -0.01604335
000040 3b 37 6e bd 1c ee 41 be 62 10 08 be 3b e1 f5 3b
       -0.05815814 -0.18938488 -0.132875 0.007503656
000050 23 52 26 be 9a 98 90 be a8 62 0d be 70 1b 39 3d
       -0.1624227 -0.28241426 -0.13807166 0.045192182
000060 6e 32 87 bd 20 43 50 be c3 ab 86 be a7 43 32 be
       -0.066014156 -0.20338106 -0.2630292 -0.1740862
000070 49 1e 01 be eb 00 01 be 8e 1d 53 bc 09 08 1b be
       -0.12609209 -0.12598006 -0.012885464 -0.15139784
000080 54 64 ae bb b4 e0 90 3b eb 70 32 bd 05 b8 27 bd
       -0.0053220186 0.004421318 -0.04356472 -0.04094698
000090 48 d5 b7 3b f0 19 ec 3b 94 95 61 3e a7 8f 83 ba
       0.005610142 0.0072052404 0.22029716 -0.0010037319
0000a0 05 6b 0d 3c ca 73 91 3a f1 1c 8b bf 51 d7 e6 3c
       0.0086314725 0.001109713 -1.0868207 0.028178843
0000b0 80 c2 45 3d 68 a7 88 3c 5f 34 94 bb 2c 1e 60 3d
       0.048281193 0.016681388 -0.0045228447 0.054716274
0000c0 3b c2 43 3d 6f 37 48 bc 9a f4 0e be 7b 25 07 3f
       0.047792654 -0.012220248 -0.13960496 0.52791566
0000d0 8d 1e 8e 3b 10 e9 02 3b 5f e3 b5 be 5d 49 91 3b
       0.004337138 0.0019975342 -0.35525033 0.0044337944
0000e0 88 e6 b4 3d 37 6d 82 bd da 89 98 bb c3 cd 66 3c
       0.08833033 -0.06368487 -0.004655105 0.014087143
0000f0 cb 10 5d 3d 4f 24 ab 3c 7c 63 44 be 00 d5 59 bb
       0.053971093 0.020891337 -0.19178575 -0.003323853
000100 70 df fc 3a 5e 01 a5 3d 83 5d c1 3b a8 c7 4b 3b
       0.0019292664 0.080569014 0.00590104 0.0031094346
000110 8d 71 3c bd 1f 94 9b bc 46 2c e0 bc 15 39 12 3c
       -0.046006728 -0.018991528 -0.027364861 0.008924742
000120 05 54 a8 bd 39 14 9c bc b8 d4 42 3b bb db 6f 3d
       -0.082191505 -0.019052612 0.002972884 0.05855916
000130 e1 56 a0 3d 51 e3 74 3a 38 f2 b4 bd c7 53 28 3e
       0.07829071 0.0009341734 -0.08835262 0.16438209
000140 d5 1a af bd a4 b8 26 3f fc 26 3d 3d 72 d7 2e 3c
       -0.0855004 0.6512549 0.046179757 0.010671483
000150 a5 ac 4a 3d 50 5e 5c bb bf 41 4b 3e ce 61 d7 3c
       0.049481053 -0.003362555 0.19849299 0.026291754
000160 1d 48 2a 3c 40 c6 02 3c 20 d2 51 3d 90 a8 1f 3c
       0.01039317 0.007981837 0.05122578 0.009744778
000170 c1 10 cf bb f9 fb 10 3d 5a 3c d1 bd db 40 39 3d
       -0.006319136 0.03539655 -0.10216589 0.045227867
000180 23 8f 6d 3b 06 db 72 bd ec b1 90 be 8e d1 5c be
       0.0036248646 -0.05929091 -0.28260744 -0.21564314
000190 98 b5 c0 3b df 78 27 3e 0e ed b6 3f 85 26 1d bb
       0.0058810227 0.16354702 1.4291093 -0.0023979258
0001a0 9d 9b fc 3d 8d f6 93 3d 3c 21 86 bd e7 41 01 3e
       0.123343684 0.0722476 -0.06549308 0.12622796
0001b0 be 35 c3 be fe 7b 24 3e 41 37 6d 3d 6f c6 56 3e
       -0.3812694 0.16062924 0.057914022 0.20974134
0001c0 a6 cb 0f bd 93 51 54 bd 9a 66 86 3d 98 fa 6c bd
       -0.035106324 -0.051835608 0.065625384 -0.057856172
0001d0 9f 7b bb 3e bd 8d fd 3d 1d 80 dd be a5 47 a9 be
       0.36617753 0.1238055 -0.43261805 -0.33062473
0001e0 35 70 1a 3f f7 b5 ed be d2 bb 87 be fe 7c 6d 3e
       0.60327464 -0.4642789 -0.26510483 0.23192212
0001f0 0a ba a5 3e e3 27 bf 3e 64 ed ca be 85 f0 88 bd
       0.323685 0.3733512 -0.3963424 -0.066865005
000200 50 51 16 be d0 30 aa bc 95 5a 17 bd 90 1e d2 bd
       -0.14679456 -0.020775229 -0.03695162 -0.102597356
000210 50 9b 82 3d 53 f1 0a be d7 05 01 be 5a 86 26 be
       0.0637728 -0.1356862 -0.12599884 -0.16262189
000220 29 ac 73 3d bf d9 a2 bd 76 b1 ef 3d b8 de 39 bd
       0.059490357 -0.07951688 0.1170377 -0.045378417
000230 be 0e 67 bd 54 93 d2 bd 5b e9 49 be ba fc cb 3d
       -0.056410544 -0.10282007 -0.19717924 0.09960313
000240 0d d6 99 bd fd 9b bd 3c c5 2e 2a be da fe dd bd
       -0.0751153 0.02314567 -0.16619404 -0.10839625
000250 c8 be 43 be af 37 b7 3d bf b9 08 be 84 81 0b be
       -0.19115746 0.08946168 -0.13352107 -0.13623625
000260 c9 64 0b be 51 31 ce bd 7c 04 ca bd 65 23 e6 bd
       -0.13612665 -0.10068 -0.098641366 -0.1123722
000270 0b 46 a9 bd 72 0c 13 be 88 ab 67 bd 60 8c 38 bc
       -0.08265313 -0.14360216 -0.05656007 -0.011263937
000280 08 38 de b8 e9 cb bd be e3 73 4c 3c bf fe e3 3a
       -0.000105962215 -0.37069634 0.012478801 0.0017394646
000290 a5 55 4d bd e3 64 1c bd df a6 67 bd 60 21 70 3d
       -0.050130505 -0.03818215 -0.056555625 0.05862558
0002a0 6f b6 d4 be 1a 2c c0 bc 47 38 ca 3a b6 aa ee 3d
       -0.41545436 -0.02345853 0.0015428149 0.11653654
0002b0 45 af a6 bd 64 94 e7 bc d6 45 cd 3e 6a f9 1c 3e
       -0.08138899 -0.028269 0.40092343 0.15329519
0002c0 23 59 e1 bd 93 cb d2 3c b3 48 30 3e f3 15 ba 3d
       -0.110033296 0.025731837 0.17215233 0.09086218
0002d0 56 3f 71 3c 2d 4e 02 bc c1 b9 b6 be 8c 87 6b bd
       0.014724573 -0.007953209 -0.35688594 -0.057502314
0002e0 72 07 5f be f4 f2 93 3c 7a 46 85 3d d0 45 73 3d
       -0.21780184 0.018060185 0.06507583 0.05939275
0002f0 25 bc 4d bc 8b 6f 29 3f 6b c2 07 bd bc 8a 65 3e
       -0.012557064 0.66185826 -0.033144396 0.22416204
000300 ea e4 42 bb c8 7e fe 3d 68 32 15 bb df 5e 33 bc
       -0.0029738494 0.12426525 -0.002276564 -0.010947912
000310 e1 44 19 3e 6c 7e a0 bd da 1f dc 3c 21 8c 37 bd
       0.14967681 -0.07836613 0.026870657 -0.04481137
000320 50 cc 5e 3e 50 9d 93 bd fd 7d 65 bc d7 73 4b bd
       0.21757627 -0.07207739 -0.014007089 -0.04967102
000330 25 3f c9 be 39 e4 8d bd 1b d3 07 be 43 5e 0c 3e
       -0.39305988 -0.06928296 -0.13264124 0.13707833
000340 af 94 64 bb 84 63 dd bb 88 ce 14 be 93 4c ed bc
       -0.0034878661 -0.006756248 -0.1453191 -0.028967177
000350 cf 2f 25 3f 3c 21 6b bc 22 b5 a3 be 69 2d 45 bd
       0.64526075 -0.014351185 -0.3197413 -0.04813901
000360 e5 09 60 3c 22 fc bb 3c 01 36 e7 3d 2f 3b 00 be
       0.013674234 0.022947375 0.11289597 -0.12522577
000370 88 93 e2 3a 26 1f e3 3d f5 3e 26 3f de b4 f9 bd
       0.0017286399 0.110899255 0.64939815 -0.12192701
000380 cf 17 aa 3d 12 0e 55 3e b4 af bc 3e 88 d0 04 3f
       0.083053224 0.20806149 0.368528 0.51880693
000390 da ce f0 3c 85 e8 f3 3e 9a cc 15 c0 69 87 2a be
       0.02939551 0.47638336 -2.340613 -0.16653217
0003a0 30 d3 67 3e 15 2c c2 3e 22 d7 15 3e 91 10 8c bd
       0.22639155 0.37924257 0.14632848 -0.06839097
0003b0 25 92 4b 3d 32 fa 76 3e 91 ad 66 be bd 70 15 be
       0.04969992 0.2411888 -0.22527148 -0.14593787
0003c0 8c 24 70 3e 65 7b 04 be 82 ec f1 bd bc 43 2b be
       0.23451442 -0.12937696 -0.118126884 -0.16725057
0003d0 31 d4 9a bd 8f 53 e4 3e 80 ec fe bd 05 54 92 3d
       -0.075600035 0.44595 -0.124474525 0.07144932
0003e0 d9 a0 e2 be 64 1e f7 3e 73 1f 77 bf e4 97 f8 3e
       -0.44263342 0.48265374 -0.9653236 0.48553383
0003f0 61 86 03 bf 15 5c 0b bd 4e e6 52 be 54 f2 1e be
       -0.5137692 -0.034023363 -0.20595667 -0.15522128

encoder.2.bias f4 [16]
000000 35 50 ad bd 64 ac 34 c0 34 73 6e bf a1 05 98 3f
       -0.08462564 -2.823022 -0.93144536 1.1876718
000010 ba 2b 1f be d8 32 48 c0 f0 07 6b 40 3c 7e c7 3d
       -0.15544024 -3.1281033 3.6723595 0.09740874
000020 8b 5c d7 bf 01 73 03 c0 27 25 65 3f f7 db e6 bd
       -1.6825117 -2.0538943 0.89509815 -0.11272424
000030 db 44 06 be fe 6a e2 bf 28 dc d9 c0 82 ed 62 bf
       -0.13112204 -1.7688901 -6.8081245 -0.8864366

decoder.0.weight f4 [32, 16]
000000 08 6f 05 3d 5b c8 8b be 32 9e ca 3c c5 e3 65 bd
       0.03257659 -0.27301297 0.024733637 -0.05612542
000010 a0 24 7d 3d ee ba b7 be 67 7d f0 bd 29 42 54 bd
       0.061802506 -0.35884804 -0.117426686 -0.051820908
000020 73 74 8a be c0 0c a1 be 1a 01 2c be cc 22 7d be
       -0.2704197 -0.3145504 -0.16797295 -0.24720305
000030 7c 79 38 be 39 b5 02 bb e3 c2 1a be 51 f2 88 bd
       -0.18015093 -0.0019944443 -0.15113406 -0.06686843
000040 e9 5d cc 3d a9 a2 31 bd 24 40 73 3f ee fc 1d 3e
       0.099788494 -0.043368015 0.95019746 0.15428516
000050 d4 31 71 bc d4 68 19 3f 01 f4 d8 be 5f 6f 14 bf
       -0.014721353 0.5992558 -0.4237366 -0.5798244
000060 46 4d 9b 3e 8f 54 a7 3d ac 9f 6a 3e 84 98 d9 bd
       0.30332392 0.08170425 0.22912472 -0.10624793
000070 7f 7c 59 bd d9 94 de 3c 1a 2e 15 3f ad 78 24 3e
       -0.053097244 0.027170585 0.5827347 0.16061659
000080 14 35 43 3e bf e7 a7 3d 23 6c b0 3d f7 37 82 3d
       0.19063216 0.08198499 0.086143754 0.06358331
000090 8b 89 f4 3d 7c f3 34 be 86 a7 86 3f 42 a3 67 3f
       0.11940297 -0.17671007 1.0519874 0.90483487
0000a0 56 5d 51 bf c3 cb 42 3e b9 e8 bc 3e dc bc 90 be
       -0.81783044 0.19023041 0.36896303 -0.28269088
0000b0 99 9b 99 3e ea 4c 96 be f1 f7 60 3f 25 d4 a6 3e
       0.30001524 -0.29355556 0.8787833 0.32583728
0000c0 b6 7d aa 3d 4a a9 ce bd 0a 81 45 3c 71 07 b3 bd
       0.08324759 -0.10090883 0.012054691 -0.08741654
0000d0 e8 27 e4 bd e3 c2 04 bb c2 27 42 bc af ee ba 3d
       -0.11140424 -0.0020257763 -0.011850299 0.091275565
0000e0 aa 84 94 3d 0e d1 d2 3f 5f a9 d2 3d 79 c6 da bd
       0.07251866 1.6470048 0.10286211 -0.10682387
0000f0 92 4a d7 3d 1a a1 1a 3e 66 9d 82 bd 87 fc ad 3d
       0.1051227 0.15100518 -0.063776776 0.084954314
000100 7e e7 25 3c cf c9 2a bc 7a 93 aa 3c d8 78 cb be
       0.010125993 -0.0104240915 0.020822275 -0.39740634
000110 87 f8 2e 3e e9 52 fe bb bb aa f8 bd e5 c0 0a 3f
       0.17086993 -0.0077613485 -0.12141939 0.54200584
000120 96 10 99 be 73 2b cd 3d e4 5a 54 3e d1 41 46 be
       -0.29895467 0.10018053 0.20737797 -0.19361044
000130 d2 38 f1 bd 8c 61 73 3e 03 ea 3f 3f 39 8e 1f bd
       -0.11778416 0.2376768 0.7496645 -0.038953993
000140 f5 1b 4b 3c c5 56 c1 3b b5 9d 23 3d ec ef c9 bd
       0.012396802 0.0059002363 0.039945323 -0.098602146
000150 c4 b5 56 be 16 00 b1 bc a0 b2 95 3f c8 5a c6 be
       -0.20967776 -0.021606486 1.1695137 -0.38741136
000160 de 7c 60 3e 67 41 1b be 1b 17 50 3f f6 8c 01 3e
       0.21922633 -0.15161668 0.81285256 0.12651429
000170 6e 49 c4 bd be 84 05 3e 8f e6 8a 3e fb 2c bb 3c
       -0.09584318 0.13038918 0.27129027 0.022848597
000180 96 7d 37 be 21 f2 5c be 8a db 7d be 98 3a e6 bb
       -0.17919001 -0.2157674 -0.24790779 -0.007026028
000190 a8 44 16 be d5 b1 56 be 57 37 ee bc 54 61 33 3e
       -0.14674628 -0.20966275 -0.029079122 0.17517596
0001a0 99 3c 50 be f6 5d 5e 3c 36 08 59 be 60 ce 3e 3e
       -0.20335616 0.013572207 -0.21194538 0.18633413
0001b0 c2 4e 6d be 3b 31 6b bd e6 c6 74 be ba 8a e5 3c
       -0.23174575 -0.057419997 -0.23903999 0.028020252
0001c0 a1 0e cb bd 9c 29 cb bd 7d da 9f bc ce 69 52 be
       -0.099148996 -0.09920046 -0.019513363 -0.20548174
0001d0 f6 16 ba bc 97 86 a1 3d 46 66 23 3c f5 f8 d2 bd
       -0.022716027 0.07886999 0.009973114 -0.10301391
0001e0 82 97 18 3e d8 4f db 3e 2f 72 a5 3d df 40 1b bc
       0.14901546 0.42834353 0.080784194 -0.009475916
0001f0 d0 0b 52 be b3 2b 85 3e 15 ff 80 bd 8c e0 ac 3d
       -0.20512319 0.26009902 -0.06298653 0.084412664
000200 90 83 09 3d 67 11 40 3f f8 73 99 bc 11 76 15 bf
       0.033572733 0.75026554 -0.018732056 -0.5838328
000210 64 4c 86 be 6e 77 62 3d f8 28 89 be 0e 96 53 be
       -0.26230156 0.05528968 -0.2678907 -0.2066271
000220 66 fe 93 3e b6 29 85 3d dc 2b e7 3e 7a f9 1f bd
       0.28905028 0.06502096 0.4515065 -0.03905628
000230 d7 88 4d 3d 21 e3 c9 bb 7d f6 24 3f 63 da 85 3e
       0.05017933 -0.006161109 0.6443861 0.26143178
000240 f5 9b 15 3e 8c 87 0d be 7e 93 8d 3c 05 11 1e bf
       0.14610274 -0.13821238 0.017282244 -0.6174472
000250 a0 85 e8 bd d2 a7 d2 3c 86 e2 28 be 89 f6 93 3f
       -0.11353612 0.025714789 -0.16492662 1.1559612
000260 4d 83 e8 be 79 b9 73 3d 64 6e bc be 46 28 6a 3d
       -0.45412675 0.059503052 -0.3680297 0.057167314
000270 ce ea 60 be 1c 92 c2 3d 1c a2 6d 3f 29 34 4c 3e
       -0.21964571 0.095005244 0.92825484 0.19941773
000280 7f c6 01 be e3 b6 c3 3f 40 73 35 bc 91 2a 00 be
       -0.12673377 1.5290188 -0.011074841 -0.12516238
000290 49 8a 1e 3d 9c 70 e4 3c c6 55 81 3d 68 9e 0b 3d
       0.038706098 0.027885728 0.06315188 0.034086615
0002a0 1f 60 bc bd 69 61 6b 3d c1 16 e8 3c 2b 84 4b bd
       -0.09198021 0.057465944 0.028331162 -0.049686592
0002b0 24 a8 94 bd bc ef 1e 3d e1 44 d8 3d 23 49 10 be
       -0.07258633 0.038802847 0.105600126 -0.140904
0002c0 e8 02 30 bb 25 09 e7 3c 60 40 96 3d 30 8a 43 3f
       -0.00268572 0.028202603 0.07336497 0.7638273
0002d0 cb 17 b3 bc 3d 14 69 be 7f c0 1c bd 14 38 58 3f
       -0.021861931 -0.22761627 -0.038269516 0.8446057
0002e0 99 0a 4a bf e1 56 b6 bd 68 f8 0f bf 67 46 4a 3e
       -0.7892242 -0.089032896 -0.5623841 0.19753419
0002f0 66 bb f0 bd 73 17 c4 3d d5 f5 4c 3e 01 84 03 3f
       -0.117544934 0.09574785 0.20015652 0.51373297
000300 f5 cd 9a 3b 9f 3c 09 3f d9 27 85 3f ad dc 24 be
       0.004724259 0.53608125 1.0402786 -0.16099806
000310 38 f8 23 3d f8 18 57 3d 0a 38 17 3e 86 6d 9c 3d
       0.04003164 0.052514046 0.14767471 0.076380774
000320 cb d5 15 be a2 ed 92 bd cb e4 c5 3d 4e 09 4e 3e
       -0.14632337 -0.07174231 0.096627794 0.20120737
000330 25 cb 15 3e 50 51 ba 3e f5 96 b0 bd 9c 8a f2 3e
       0.14628275 0.36390162 -0.08622543 0.47371376
000340 8d dd bf 3d e5 6f 17 3e ae 96 36 3e c8 f3 93 3f
       0.09368429 0.14788778 0.17830917 1.1558771
000350 da 65 2a 3e cb ea 1d 3e a9 0e a0 3d 48 53 18 bf
       0.16640416 0.15421598 0.07815296 -0.5950208
000360 d0 47 8a 3f bd 57 7b 3e 2f 2e 51 3c 68 0b 6f bd
       1.0803165 0.24545188 0.012767359 -0.058360487
000370 3b 8f 95 3d 80 22 a8 be 5a 78 9e be 17 d6 96 be
       0.0730271 -0.3283882 -0.30951196 -0.29460213
000380 0a de 76 3d 30 65 84 bd e0 d8 10 bd d8 1d 57 3e
       0.060270347 -0.064646125 -0.035363078 0.21007478
000390 1a 02 68 3e f7 6d e0 3f 1d 22 4f 3e c9 a6 21 3e
       0.22657052 1.7533559 0.20227857 0.1578628
0003a0 c0 50 19 be 3f f7 09 be e7 0b b6 bd 0b 7a 1b be
       -0.1497221 -0.13473223 -0.08888989 -0.15183274
0003b0 e4 4f 9f bd 03 71 88 3e 19 85 b4 bd 87 31 fc bd
       -0.0777891 0.2664872 -0.08814449 -0.12314134
0003c0 69 34 f3 3c 34 3a 87 3c 95 ef 7e 3e b7 53 a2 be
       0.029688077 0.016507246 0.24896081 -0.31704494
0003d0 20 4c 10 be 25 43 4a bd 3d 22 3b 3f 98 a0 a0 3e
       -0.1409154 -0.04938044 0.7309912 0.31372523
0003e0 ea 5f 88 bd 98 2d 5a 3d 32 04 b3 bd b6 f4 9f bd
       -0.06658919 0.053266138 -0.087410346 -0.07810347
0003f0 f2 0f 4f be ce dd 34 3d fb 8f 40 3b 05 3d ee 3e
       -0.20220926 0.044156842 0.0029382694 0.4653093

decoder.0.bias f4 [32]
000000 ed c4 71 bd e2 7b d9 42 50 88 0d 43 54 cf 25 43
       -0.059025694 108.74196 141.53247 165.80988
000010 f4 9b 44 43 3f ed 9b 43 3e 1d 98 be 88 8d ab c3
       196.60919 311.8535 -0.2970981 -343.1057
000020 9c e3 8f c2 de 67 7a c3 f3 53 6a 3e f6 0b 11 c1
       -71.94455 -250.40573 0.22883587 -9.06542
000030 d9 39 62 3e 77 fd e1 42 82 1f 5f 42 5a 5d 93 43
       0.2209238 112.99505 55.78077 294.7293
000040 3f 14 55 c1 03 09 9a be 00 bc bf bd 60 fa 23 c2
       -13.317443 -0.30085 -0.0936203 -40.994507
000050 0c 92 96 be 6a 1e 23 43 81 97 74 c3 85 4e 70 c3
       -0.294083 163.1188 -244.59181 -240.30672
000060 9a 09 f0 c2 0c db 48 43 96 63 3d c2 bb 0c 95 c1
       -120.01875 200.85565 -47.34725 -18.631216
000070 b2 65 90 41 73 cf 31 c3 a0 2f a9 42 26 f5 9e c3
       18.049656 -177.81035 84.59302 -317.91522

decoder.2.weight f4 [60, 32]
000000 7e 8d df 3d a0 36 73 3e c1 a5 6f 3d 34 d1 aa bd
       0.10915659 0.23751307 0.058507685 -0.083406836
000010 92 25 69 3c fe d5 88 bd e9 a4 a1 bd ac 6c d5 3b
       0.014230149 -0.06681441 -0.07892782 0.006513199
000020 a6 b6 5e bd 2c 47 a0 bd 55 36 09 be 3f ae 1e bc
       -0.054373406 -0.07826075 -0.13399632 -0.009685098
000030 83 39 3e bd fd 7c 06 3e db 3b 7d 3f 47 d5 41 3b
       -0.046441566 0.13133617 0.9891946 0.0029576586
000040 6f c8 00 bd e5 5f 31 3e 4a be 11 be fd 03 2d bc
       -0.03144115 0.17321737 -0.14232746 -0.010560033
000050 ad b9 81 be c4 bd 15 be 2d 07 e3 bd 85 73 3a be
       -0.25336972 -0.14623171 -0.11085353 -0.1820813
000060 d6 9c 4c bc ec 6a 32 3d a0 ca 42 3f 33 98 3b 3d
       -0.0124885645 0.043559 0.7609043 0.045799445
000070 f2 7d a2 3a b3 d2 02 be 68 17 c6 3d 51 e1 91 bd
       0.0012397154 -0.12775688 0.09672433 -0.07123054
000080 5f 7b ff bd e4 22 8a 3a 7b 1c 28 3b 3d c1 79 3a
       -0.12474703 0.0010538963 0.0025651741 0.0009527391
000090 4d 57 16 ba 6a eb 7d 3a 22 ee 58 3e dc 3f 5a ba
       -0.0005735055 0.00096862635 0.2118459 -0.0008325556
0000a0 a7 d9 b9 ba c8 5b f3 ba 0a 4a 37 3a b5 91 99 ba
       -0.0014179245 -0.0018566782 0.00069919287 -0.0011716398
0000b0 0f e9 e4 ba ba 7f a9 3a 38 e8 36 3b b3 52 9f 3a
       -0.0017464476 0.0012931742 0.002790941 0.0012155384
0000c0 9a 3b 43 3a cf c9 54 bd b3 69 a5 3d 39 be de 3a
       0.0007447541 -0.051950272 0.08076801 0.0016993947
0000d0 92 05 33 3e c6 5f bb 3a 65 19 5e bb 4f 2a 79 bb
       0.17482594 0.001429551 -0.0033889648 -0.0038019603
0000e0 6f 7a a3 3a 50 c3 87 3b e3 95 e3 ba e5 86 ab 3a
       0.0012472401 0.004143156 -0.0017363395 0.0013086466
0000f0 de e6 d7 39 d0 18 b2 ba 29 b4 af 39 88 00 89 bb
       0.00041180005 -0.0013587717 0.0003351283 -0.0041809715
000100 4a b0 0b 3e fd 7e bf 3a db 5a 41 3b 77 72 a3 3a
       0.13641468 0.0014609989 0.0029503617 0.0012470026
000110 80 11 4c ba fd 16 ad 3a 12 30 ed bd f3 f7 9f ba
       -0.000778459 0.0013205704 -0.11581434 -0.0012204632
000120 0b f4 f0 ba 5c 84 0a bb 38 9c 6c 3a 3b ae b1 ba
       -0.0018383277 -0.0021136021 0.0009025964 -0.0013555953
000130 68 49 fe ba 5f 39 ab 3a 4c f2 50 3b 10 e4 a9 3a
       -0.0019400539 0.0013063363 0.0031882701 0.0012961645
000140 e8 06 24 3a 1b 87 2f be b6 54 e5 3c 80 a0 e6 3a
       0.00062571326 -0.17141382 0.027994495 0.001759544
000150 54 3d dc 3d 28 78 f6 3a fd 02 82 bb fd 12 8f bb
       0.10753885 0.001880412 -0.0039676414 -0.0043662773
000160 65 24 9c 3a 6c 80 98 3b 20 c5 0d bb 6b c6 bf 3a
       0.0011912702 0.004653981 -0.0021632388 0.0014631277
000170 e8 e1 c6 39 e4 d9 e0 ba 54 dc 0b 3a be ef 96 bb
       0.00037933816 -0.001715478 0.00053352606 -0.004606216
000180 c6 5b 0b 3e a8 20 24 bb 79 ff 26 bb c1 58 cf ba
       0.13609228 -0.0025043879 -0.0025481863 -0.0015819297
000190 70 77 b1 3a b4 a1 e4 ba d4 87 1a be e4 cd 19 3b
       0.0013539623 -0.0017443211 -0.15090877 0.0023468668
0001a0 bd 35 34 3b d6 88 08 3b a7 00 c8 ba f0 5d ba 3a
       0.002749785 0.0020833514 -0.0015258983 0.0014218669
0001b0 c0 d4 0b 3b 2b 44 eb 38 bc 90 12 bb 1f 49 1a ba
       0.0021336526 0.000112183705 -0.00223641 -0.00058855297
0001c0 b2 9a 8e 38 12 97 14 3d 35 66 d8 bd 8f db 86 ba
       6.799902e-05 0.036276884 -0.105663694 -0.0010288822
0001d0 7d 62 ac 3d 84 ed f2 ba 49 ef 72 3b d9 7c 67 3b
       0.08417223 -0.001853392 0.0037068895 0.0035322218
0001e0 b4 08 9a b9 ce 94 81 bb fe dc fe 3a 74 03 a2 ba
       -0.00029379653 -0.0039545065 0.0019444523 -0.0012360648
0001f0 49 a4 93 b9 45 39 cc 3a 71 ca 53 ba 23 dc 61 3b
       -0.00028160427 0.0015581032 -0.00080791774 0.0034463487
000200 2b 40 81 3d b0 7a bd b8 70 4f 58 ba 07 24 9e 39
       0.06311067 -9.0350746e-05 -0.0008251583 0.0003016295
000210 4c 26 c0 b8 b5 8c 86 3a 7d a0 66 3d 5b df 30 39
       -9.162407e-05 0.0010265323 0.056305397 0.00016867874
000220 82 99 8d 39 d4 5a d5 39 e2 99 a6 39 69 e2 8f 3a
       0.00027007988 0.00040694198 0.0003177664 0.001097751
000230 1e a6 b9 b9 0a 46 94 b9 f3 9b 8c b9 d0 8e a4 39
       -0.00035409717 -0.00028280943 -0.00026819072 0.0003138692
000240 95 3f 01 3a 9d 8a cc bd ac 73 15 be 96 d8 6c 3a
       0.0004930434 -0.09987376 -0.14594907 0.00090349594
000250 e3 93 17 3e af 17 25 3a e0 01 6a b9 c1 03 d0 b9
       0.14802508 0.00062977796 -0.00022316677 -0.00039675648
000260 d3 cd 90 38 dd 2c c7 36 ab f8 7c 3a 82 5d 9d 38
       6.904793e-05 5.935885e-06 0.00096500915 7.5037606e-05
000270 ce fe dc b8 5f 01 44 b9 82 bb 70 ba a8 f2 ef b9
       -0.000105378786 -0.00018692527 -0.0009183214 -0.00045766425
000280 5d 46 f2 bd c2 bd a6 ba fb 91 b8 3a 11 05 e4 ba
       -0.11829827 -0.0012721347 0.0014081592 -0.001739653
000290 e1 6f ec 39 1b 70 d4 ba 1c 7a 8d be 24 1f 7a 3a
       0.00045096784 -0.0016207726 -0.27632225 0.00095413835
0002a0 b1 4b 44 3a 9a 85 38 b9 88 5c 0f bb ba 0a a7 ba
       0.00074880855 -0.00017597378 -0.0021875221 -0.0012744286
0002b0 3f e5 b8 b9 6f 9e 1c 3b 62 b0 72 ba 4b f4 97 39
       -0.00035266016 0.0023898145 -0.00092578505 0.00028982977
0002c0 73 20 1a 3b db a3 45 bd 5e 69 e1 bd 1a e4 de 39
       0.0023517876 -0.048251968 -0.11006425 0.0004251309
0002d0 08 22 bd 3c b5 e5 cc ba d0 b9 de b9 77 69 61 ba
       0.023087516 -0.0015632423 -0.0004248158 -0.00085987843
0002e0 6f 44 99 3a 5c 46 04 3b 09 82 05 3b 89 64 92 b5
       0.0011693368 0.002018354 0.0020371696 -1.0907107e-06
0002f0 a2 f5 de 3a c8 f6 4b ba 5f 0e 1c 3b 7a ca d8 ba
       0.001701046 -0.0007780609 0.0023812277 -0.0016539835
000300 e1 e9 21 bc 5a 58 e8 b9 58 fa 3e 3b 62 68 d2 ba
       -0.009882421 -0.00044316315 0.0029140916 -0.0016052837
000310 f5 fe bd 39 4c f4 2c bb 12 3a 6c 3d 5d b7 9f 38
       0.00036238847 -0.002639073 0.057672568 7.615865e-05
000320 3b b2 d1 38 ad 97 75 ba 01 3b d5 ba 20 0f e5 ba
       9.9990946e-05 -0.000936861 -0.0016268195 -0.0017475821
000330 1f 27 74 b9 db df 6a 3b 3f ba 71 ba db 39 48 3b
       -0.00023284227 0.0035838995 -0.0009221173 0.0030552063
000340 b5 7a bd 3a ca 94 97 bc 68 47 d2 3d 26 7d eb 39
       0.0014456125 -0.018503565 0.10267526 0.00044915936
000350 01 a5 34 3e 08 35 13 3a 4e b1 c7 ba b7 67 1d bb
       0.17641069 0.0005615507 -0.0015235336 -0.0024018118
000360 0e 77 12 3a 04 4a 8d 3a bc bc d8 3a ee 55 87 39
       0.00055871985 0.0010779505 0.0016535739 0.0002581323
000370 d6 99 ff 3a b6 4d 2c bb e7 6e b4 3a e2 8a d4 ba
       0.0019500803 -0.0026291437 0.0013765962 -0.0016215707
000380 f8 81 86 3d cb 91 23 ba be d6 82 3a 32 e5 0d 3b
       0.06567758 -0.00062396814 0.0009982211 0.0021651504
000390 67 92 ab b9 95 cc 13 ba e9 ce a3 3d be 53 95 39
       -0.0003272474 -0.000563809 0.07998449 0.00028481887
0003a0 f1 dd 91 ba d4 15 75 ba 7e e4 27 3b d6 fe c0 ba
       -0.0011128766 -0.0009349261 0.002561837 -0.0014724385
0003b0 a0 27 fd 3a bd d4 33 bb 2a 37 8b 3b 14 d2 a8 bb
       0.0019314177 -0.0027440034 0.0042485194 -0.0051519964
0003c0 14 c5 54 bb c5 16 72 3d a2 be 25 3d e6 f5 34 39
       -0.00324661 0.059103746 0.040465005 0.00017257742
0003d0 a5 3f 5c 3d e6 db 05 3b 03 da 9a 3a 69 13 9b 3a
       0.053771634 0.002042526 0.001181424 0.0011831346
0003e0 f7 86 a1 39 bf 6c 3d ba 4c 00 b8 bb 43 8c af 39
       0.0003080887 -0.0007225982 -0.0056152698 0.00033483104
0003f0 d7 05 20 bb 5c af 61 3b 8d 98 46 bb 0b fc b1 3a
       -0.0024417543 0.0034436798 -0.003030333 0.0013579143

decoder.2.bias f4 [60]
000000 e0 58 8d c1 7c 65 43 43 1a a8 3c 43 bb 03 3a c2
       -17.668396 195.39642 188.65665 -46.503643
000010 9c 45 85 41 b2 60 22 43 20 d4 1f 43 55 f6 07 41
       16.658989 162.37772 159.82861 8.49764
000020 78 3e ba 41 7d 17 a1 c3 15 f4 9a c3 59 3f 02 43
       23.280502 -322.1835 -309.9069 130.24745
000030 b0 aa dd c1 30 18 4b 43 2c 7d 48 43 61 74 61 c2
       -27.708344 203.09448 200.48895 -56.36365
000040 90 b1 ca 41 24 15 1e 43 d4 18 0e 43 98 19 46 41
       25.3367 158.08258 142.09698 12.381248
000050 bf 42 2b 41 53 56 db 42 77 da 0b c3 3c 95 55 41
       10.703795 109.6686 -139.85338 13.348934
000060 1a ad e4 c0 20 5f 3e 43 3d 37 37 43 8f 9d 20 c2
       -7.1461306 190.37158 183.21577 -40.153866
000070 58 db 96 41 97 08 18 43 5e 6f 0e 43 33 66 36 41
       18.857101 152.03355 142.43503 11.399951
000080 8f 3a a6 41 6b 85 11 43 db 8d 87 43 e0 f8 89 42
       20.778593 145.52116 271.10825 68.986084
000090 6a c4 18 c1 34 76 51 43 49 1f 4e 43 b3 49 80 c2
       -9.547953 209.46173 206.12221 -64.14394
0000a0 00 7f c8 41 e5 10 07 43 94 be 03 43 b0 2a 5f 42
       25.062012 135.066 131.74445 55.791687
0000b0 58 40 0c 42 49 d4 20 43 27 b5 af 43 53 5f 88 43
       35.062836 160.82924 351.41525 272.74472
0000c0 41 48 65 c1 9e 29 49 43 5a 79 43 43 31 de 56 c2
       -14.33014 201.16257 195.47403 -53.716984
0000d0 9f c1 94 41 fd b2 12 43 9d df 19 43 9a 15 10 42
       18.594542 146.69917 153.87349 36.021095
0000e0 ae c6 04 42 fb 17 d3 c2 03 46 3e c3 48 ac 66 43
       33.194023 -105.54684 -190.27348 230.67297
