autoencoder_model.pth (torch, 70302 bytes, 24 tensors)

encoder.0.weight f4 [32, 60]
0.3743008 0.491915 0.5406484 -0.42243972 -0.43487215 -0.7887288 0.33527705 0.11132556
-0.9181839 0.25440913 0.11247946 0.11742384 -0.08091566 0.21132581 0.31280807 -0.24264601
0.17677438 0.4164278 -0.6145343 0.13594203 1.2171042 -0.12507567 0.39062303 0.39095598
-0.08526317 0.6962234 1.2571429 -0.9859901 -1.5672872 1.3021634 0.044325013 -0.28572273
-0.785902 0.3162251 0.087877996 0.7963243 0.063630484 0.5833892 0.5083208 -0.59715676
-0.25360903 0.5490519 0.23197806 1.1285051 -0.5006509 0.47357097 0.45532903 -0.4085652
-0.038727313 0.58737177 1.0971701 -0.90952647 1.8841814 1.7486547 0.5170864 0.88508934
-1.4960822 0.35389996 0.44156224 0.7579759 -0.05226008 -0.013721635 -0.11762081 1.7985375
1.9415066 1.7719328 -0.2840706 2.5526955 -3.5594168 0.48370057 -0.15515518 0.4340618
0.32532734 0.85866195 -0.6049656 0.1376409 -1.8390507 -1.7398604 -3.7098508 -1.7201039
5.3597174 0.14348087 -0.27839515 -0.46882883 0.003819423 0.26593682 0.0782056 1.4830421
4.4241743 -2.3485951 -1.5566671 -0.6855937 4.966324 0.33125234 0.008640956 -0.5402408
0.054272056 0.6435925 2.3052363 0.762269 2.2336483 -0.14134364 -0.47588518 0.11964291
-0.005459769 0.07825337 0.43343344 -0.51175237 0.12389375 -0.2188066 -0.510891 1.9255174
3.3705823 -0.84676176 0.21020398 1.2428737 -3.6622136 0.23595668 0.035835247 0.37920296
-0.035621274 -0.76813227 -0.8597929 0.5104999 -3.7015703 0.2770934 -3.4983387 1.1463653
1.0139385 1.1245298 0.81126076 1.764406 -0.04027178 0.82218945 1.7775002 -1.9756433
-2.38224 1.8833524 0.049549203 -4.0661592 5.0987725 0.15484655 0.1583718 -0.1605284
0.07829601 -1.7403604 -2.1059623 1.7863339 2.9513464 -1.9464281 -2.8417745 3.822706
2.1245563 0.07680343 0.09556945 1.4458663 0.08798294 -1.0968322 1.8124058 1.1944098
2.1775935 3.6409798 -2.5594933 2.9186592 0.00022943963 -0.014096646 0.5137371 -0.25151262
-0.026336156 -0.7318075 -0.9891107 0.5045847 1.0642666 -4.879869 0.20976776 2.7321165
-2.6503365 -0.51315093 -0.8005788 0.78807425 0.20240094 0.19308342 0.11727612 -0.20240185
0.7015992 -0.78065044 0.13137491 -0.52389014 1.0598588 0.07864799 0.07291194 0.055910826
0.33100182 -0.030205231 -0.22575517 0.15230106 -0.0608042 0.75481015 0.27753946 1.0830204
-1.2546208 -0.15706374 0.33114487 -0.034034166 -0.0052539716 0.7504332 1.1407092 -0.9693092
-1.1723737 1.4825081 0.8189314 -0.47518244 -1.1485189 -0.034372974 0.017138867 0.6873821
-0.027666736 0.054140415 -0.19740778 0.039775822 -0.6492291 0.14642249 -0.499048 0.7000259
0.13742028 0.21478441 0.0066623176 0.009928645 0.07778661 0.380836 0.562052 -0.67293566
0.16663639 1.456609 -0.18656807 0.7704725 -0.32987747 0.062816426 0.15628211 -0.091005094
0.14878564 -0.5774273 -0.48687544 -1.4034461 1.3794461 -1.6340506 -0.93656623 -2.9710526
-0.3343816 0.067960314 0.007838154 -0.7379822 0.06873972 -1.163462 -0.34006295 -0.45928687
00000000: 5ba4 bf3e 48dc fb3e ef67 0a3f 054a d8be
00000010: 90a7 debe 21ea 49bf 6fa9 ab3e a8fe e33d
00000020: 1a0e 6bbf ea41 823e a25b e63d e97b f03d
00000030: 1cb7 a5bd cb65 583e 6128 a03e 3278 78be
00000040: 5804 353e 0636 d53e 1f52 1dbf 6334 0b3e
00000050: 12ca 9b3f d613 00be beff c73e 622b c83e
00000060: 759e aebd b23b 323f 0fea a03f d969 7cbf
00000070: de9c c8bf 4aad a63f 258e 353d 404a 92be
00000080: e030 49bf 42e8 a13e 61f9 b33d e9db 4b3f
00000090: b350 823d ff58 153f 5021 023f 44df 18bf
000000a0: 0bd9 81be aa8e 0c3f a88b 6d3e db72 903f
000000b0: a82a 00bf e577 f23e e320 e93e 752f d1be
000000c0: 88a0 1ebd ff5d 163f 1270 8c3f bad6 68bf
000000d0: db2c f13f ebd3 df3f c65f 043f 3795 623f
000000e0: 9f7f bfbf 6032 b53e 7214 e23e b50a 423f
000000f0: aa0e 56bd b5d0 60bc 2ee3 f0bd 7a36 e63f
00000100: 4a83 f83f b2ce e23f b471 91be 5d5f 2340
00000110: 7ccd 63c0 9aa7 f73e 00e1 1ebe 593d de3e
00000120: 4e91 a63e 45d1 5b3f 07df 1abf bcf1 0c3e
00000130: 0366 ebbf bfb3 debf 326e 6dc0 5d2c dcbf
00000140: ce82 ab40 a6ec 123e cf89 8ebe 550a f0be
00000150: 494f 7a3b df28 883e 422a a03d 53d4 bd3f
00000160: d692 8d40 624f 16c0 de40 c7bf 1283 2fbf
00000170: 20ec 9e40 e899 a93e cc92 0d3c 394d 0abf
00000180: 604c 5e3d 7ac2 243f fe88 1340 1024 433f
00000190: 18f4 0e40 63bc 10be 39a7 f3be 5807 f53d
000001a0: dde7 b2bb 4e43 a03d fdea dd3e 3402 03bf
000001b0: 02bc fd3d d60e 60be c1c9 02bf 5b77 f63f
000001c0: 9fb7 5740 61c5 58bf b63f 573e 7c16 9f3f
000001d0: b561 6ac0 a19e 713e fbc7 123d e426 c23e
000001e0: 9de7 11bd 51a4 44bf 631b 5cbf 1fb0 023f
000001f0: 87e6 6cc0 30df 8d3e c8e4 5fc0 19bc 923f
00000200: bdc8 813f 98f0 8f3f c9ae 4f3f 0ed8 e13f
00000210: 06f4 24bd 027b 523f 2085 e33f e1e1 fcbf
00000220: 9f76 18c0 b111 f13f 1bf4 4a3d fa1d 82c0
00000230: 2529 a340 1890 1e3e 382c 223e 8f61 24be
00000240: a959 a03d 21c4 debf 16c8 06c0 97a6 e43f
00000250: dce2 3c40 8e24 f9bf a2df 35c0 37a7 7440
00000260: bbf8 0740 1e4b 9d3d eab9 c33d 2612 b93f
00000270: 6630 b43d ff64 8cbf eafc e73f 6ce2 983f
00000280: b15d 0b40 d005 6940 bdce 23c0 50cb 3a40
00000290: bb95 7039 9ef5 66bc 4684 033f 43c6 80be
000002a0: ecbe d7bc bc57 3bbf 5c36 7dbf 772c 013f
000002b0: e339 883f e327 9cc0 5ccd 563e ffda 2e40
000002c0: 1d9f 29c0 dc5d 03bf bbf2 4cbf 3cbf 493f
000002d0: 3142 4f3e a9b7 453e 762e f03d 6e42 4fbe
000002e0: 019c 333f b5d8 47bf 2587 063e aa1d 06bf
000002f0: 74a9 873f 3312 a13d db52 953d c002 653d
00000300: 1279 a93e f670 f7bc 5d2c 67be cff4 1b3e
00000310: d30d 79bd 3d3b 413f a719 8e3e 6aa0 8a3f
00000320: 6a97 a0bf 51d5 20be d28b a93e 6967 0bbd
00000330: 8229 acbb 641c 403f c202 923f a624 78bf
00000340: 5710 96bf d3c2 bd3f 7da5 513f 1d4b f3be
00000350: ab02 93bf adca 0cbd cf66 8c3c 46f8 2f3f
00000360: 5aa5 e2bc 57c2 5d3d 4425 4abe f9eb 223d
00000370: e133 26bf c7ef 153e 3883 ffbe e634 333f
00000380: e7b7 0c3e 72f0 5b3e 924f da3b c1ab 223c
00000390: 964e 9f3d f0fc c23e a4e2 0f3f 8345 2cbf
000003a0: bba2 2a3e 2a72 ba3f b30b 3fbe b03d 453f
000003b0: b3e5 a8be e6a5 803d 6b08 203e e160 babd
000003c0: 435b 183e 47d2 13bf bd47 f9be 1fa4 b3bf
000003d0: b191 b03f 9228 d1bf cec2 6fbf ba25 3ec0
000003e0: 1134 abbe c72e 8b3d 9a6b 003c 67ec 3cbf
000003f0: 69c7 8c3d 53ec 94bf bb1c aebe a627 ebbe

encoder.0.bias f4 [32]
0.17718841 0.62978613 -0.30908513 0.15028915 -0.85163987 -0.0066554025 0.22137056 -0.80383474
0.19683927 -0.12642205 0.51151437 0.021347502 -0.06602729 0.090199105 -0.021775465 -0.4431234
0.33179003 0.29722065 -0.20368652 -0.5995414 -0.5478322 0.0516801 -0.2947043 0.2133856
0.59308237 -0.0020166107 -0.00529164 -0.93238807 -0.46402678 -0.37232566 0.2908004 0.9303656
00000000: e170 353e aa39 213f 6840 9ebe 66e5 193e
00000010: 1205 5abf 9015 dabb f7ae 623e 1dc8 4dbf
00000020: 3c90 493e c874 01be 9bf2 023f f5e0 ae3c
00000030: 5139 87bd 4fba b83d 7662 b2bc 12e1 e2be
00000040: 62e0 a93e 4e2d 983e 3393 50be 8c7b 19bf
00000050: bb3e 0cbf 83ae 533d 7be3 96be c181 5a3e
00000060: 3fd4 173f 1d29 04bb 7e65 adbb fcb0 6ebf
00000070: eb94 edbe 78a1 bebe cae3 943e 712c 6e3f

encoder.2.weight f4 [16, 32]
0.3435984 -0.036333103 -0.050531603 0.09329548 0.30780932 0.13103952 -0.18636984 0.38473755
0.20589282 -0.26909047 0.14098229 -0.26668733 0.11886416 0.12198812 -0.029931376 0.1037034
-0.0056543397 -0.5076686 -0.11982675 0.3481184 -0.004814532 -0.22252077 0.32480022 0.14581402
-0.016701732 0.15823607 0.07269346 0.52323407 0.3481509 0.1769186 0.26086247 0.30013135
0.2154617 0.0019400087 0.19896986 0.32729483 0.42773202 -0.029584257 0.2280753 0.3761095
-0.37017387 0.25767404 0.15952107 0.13343833 0.032834977 -0.26581445 0.16091053 0.09047774
0.49237207 0.02054568 -0.25951573 0.04878741 0.28560546 -0.35115728 -0.24691433 0.012174678
0.0319597 0.09100871 -0.09577359 0.07650678 0.38168848 -0.06517155 -0.14821677 -0.14736126
0.023113204 -0.12686454 0.0017519739 -0.11615538 0.02204486 -0.1422571 0.039223876 -0.12551352
-0.1145277 0.07040788 -0.0115305595 -0.13338768 0.021995785 -0.1594066 -0.20162994 -0.18762396
0.07890531 0.03674881 0.051997986 0.020783924 0.120158665 -0.13764326 -0.08634039 0.040557466
-0.07968401 -0.18546301 0.03735753 0.10534037 0.085067295 0.07742852 0.08250556 -0.17849736
-0.1399421 0.2665553 0.49722418 -0.26766253 0.038305357 0.11634338 -0.094981484 0.20973538
0.26640406 0.08075755 -0.11751275 0.3648204 0.13054612 0.3047864 0.042928986 0.0072774957
-0.10806108 -0.28785565 0.01367869 0.44447118 0.38036093 0.010970128 0.32838458 -0.1078343
0.32211134 0.0069362447 0.12979366 0.16197962 0.3936929 0.3506088 -0.17531583 -0.08595002
-0.14878482 -0.18024616 -0.26282963 -0.06022404 0.38481468 -0.0075321645 0.15977694 0.28881907
-0.10016742 0.24780867 -0.0066252765 0.17228152 -0.051460005 0.41099182 -0.0919441 0.5543445
-0.056189474 -0.10918987 0.40769204 0.103081584 0.19173242 -0.26717645 0.028417286 -0.17878903
-0.059784513 -0.07649938 -0.13446537 0.22398499 -0.17365319 0.09213631 0.01209855 -0.05650825
0.27828628 -0.10800377 0.7011639 0.05475474 0.09981789 0.13002576 -0.3538599 0.13608861
-0.32796007 -0.009470212 0.27120078 -0.22015825 -0.057195865 0.33954164 -0.030815747 0.4156977
-0.0723203 0.19116442 0.32561862 -0.10781353 0.040355325 0.21392316 -0.24038322 -0.02531239
0.10736275 0.08297759 -0.058347374 -0.08208264 0.16864403 -0.14546852 0.07064571 0.4797379
-0.058173086 -0.5393824 0.33324143 -0.046088472 0.21670124 -0.15953057 0.1631926 0.29418278
-0.055690754 -0.12771057 -0.29207134 -0.07097298 0.051353518 -0.26749596 0.006092166 -0.060048327
-0.0068424037 0.25552487 0.095266014 0.47649768 0.3038941 0.085685186 0.15472746 0.0745333
0.19139837 -0.025613219 0.14678156 0.31264594 -0.04464141 0.19159903 0.18933903 0.48119023
-0.016612634 0.122609235 0.1625717 -0.47447416 0.01108113 0.10347653 0.07345784 -0.14282152
0.08028482 -0.09836035 0.19437934 -0.10140696 0.08503286 0.030155057 0.04419342 0.72037274
-0.11777683 0.44436422 -0.6824473 0.13511936 -0.08295247 -0.11509094 0.19979014 0.542354
0.37187773 -0.19010057 0.14213134 -0.08912701 -0.17603324 0.24683854 0.03657534 0.046429474
00000000: 21ec af3e 05d2 14bd 3afa 4ebd b311 bf3d
00000010: 2f99 9d3e 392f 063e bcd7 3ebe 52fc c43e
00000020: 91d5 523e 3ac6 89be a95d 103e 3e8b 88be
00000030: 0d6f f33d e8d4 f93d a532 f5bc 7362 d43d
00000040: 0a48 b9bb 92f6 01bf ba67 f5bd 933c b23e
00000050: 39c3 9dbb 7cdc 63be 374c a63e 4550 153e
00000060: 12d2 88bc a308 223e 4fe0 943d abf2 053f
00000070: d640 b23e 262a 353e c48f 853e d1aa 993e
00000080: fea1 5c3e e447 fe3a c1be 4b3e 3093 a73e
00000090: b1ff da3e af5a f2bc 928c 693e 6d91 c03e
000000a0: 6e87 bdbe daed 833e 7e59 233e 0fa4 083e
000000b0: f87d 063d d518 88be bbc5 243e 654c b93d
000000c0: 3118 fc3e 6a4f a83c 3fdf 84be 4fd5 473d
000000d0: e13a 923e e3ca b3be 1cd7 7cbe 4d78 473c
000000e0: 2de8 023d c662 ba3d f224 c4bd 96af 9c3d
000000f0: ac6c c33e a978 85bd 23c6 17be dfe5 16be
00000100: e757 bd3c c7e8 01be 7da2 e53a dfe2 edbd
00000110: 6c97 b43c d8ab 11be 37a9 203d 9e86 00be
00000120: 808d eabd 0232 903d acea 3cbc c896 08be
00000130: 8130 b43c 7c3b 23be 1478 4ebe 7f20 40be
00000140: 1b99 a13d ec85 163d d7fb 543d 0c43 aa3c
00000150: bf15 f63d 5bf2 0cbe 3bd3 b0bd 961f 263d
00000160: 5f31 a3bd 04ea 3dbe 3604 193d b1bc d73d
00000170: c337 ae3d d892 9e3d adf8 a83d 03c8 36be
00000180: fb4c 0fbe f079 883e 2b94 fe3e 100b 89be
00000190: 14e6 1c3d 7045 ee3d a785 c2bd dfc4 563e
000001a0: 1d66 883e 3764 a53d 86aa f0bd bdc9 ba3e
000001b0: e2ad 053e f70c 9c3e 4ed6 2f3d 0f78 ee3b
000001c0: 214f ddbd d161 93be 961c 603c ba91 e33e
000001d0: abbe c23e 0dbc 333c 0622 a83e 3bd8 dcbd
000001e0: c7eb a43e 7049 e33b a1e8 043e fcdd 253e
000001f0: 1e92 c93e ff82 b33e fe85 33be 9006 b0bd
00000200: 0c5b 18be 7392 38be 9b91 86be 7cad 76bd
00000210: 6e06 c53e 60d0 f6bb 919c 233e 18e0 933e
00000220: 9424 cdbd 8ec1 7d3e d918 d9bb 916a 303e
00000230: bac7 52bd 856d d23e 304d bcbd 85e9 0d3f
00000240: ef26 66bd f09e dfbd 03bd d03e 701c d33d
00000250: 8155 443e 5acb 88be 5ecb e83c 7914 37be
00000260: 9be0 74bd b5ab 9cbd 4ab1 09be 525c 653e
00000270: 24d2 31be f6b1 bc3d ff38 463c 3275 67bd
00000280: 8a7b 8e3e 1531 ddbd 7a7f 333f 8246 603d
00000290: 526d cc3d 7925 053e 202d b5be d05a 0b3e
000002a0: 62ea a7be f328 1bbc d4da 8a3e 2a71 61be
000002b0: 3646 6abd 67d8 ad3e 4e71 fcbc 54d6 d43e
000002c0: aa1c 94bd 9bc0 433e 7cb7 a63e 57cd dcbd
000002d0: a04b 253d ac0e 5b3e 0527 76be ee5b cfbc
000002e0: 00e1 db3d 28f0 a93d a8fd 6ebd f11a a8bd
000002f0: 05b1 2c3e b3f5 14be b3ae 903d 35a0 f53e
00000300: e746 6ebd f714 0abf 9f9e aa3e 44c7 3cbd
00000310: eee6 5d3e fb5b 23be f61b 273e 209f 963e
00000320: fd1b 64bd 8fc6 02be 608a 95be 485a 91bd
00000330: 1158 523d 3bf5 88be cba0 c73b 3cf5 75bd
00000340: 3e36 e0bb 28d4 823e d41a c33d 81f7 f33e
00000350: 0298 9b3e b77b af3d e070 1e3e eaa4 983d
00000360: effd 433e d0d2 d1bc e84d 163e 2113 a03e
00000370: e9d9 36bd 8932 443e 17e2 413e 915e f63e
00000380: 3817 88bc 8d1a fb3d 3279 263e 47ee f2be
00000390: a18d 353c 81eb d33d 1071 963d ce3f 12be
000003a0: 5e6c a43d 2771 c9bd 610b 473e 74ae cfbd
000003b0: b525 ae3d bd07 f73c 2904 353d 596a 383f
000003c0: fb34 f1bd b583 e33e deb4 2ebf bb5c 0a3e
000003d0: fce2 a9bd ccb4 ebbd c995 4c3e b6d7 0a3f
000003e0: c266 be3e b9a9 42be e18a 113e 3988 b6bd
000003f0: 0f42 34be 3ec3 7c3e 06d0 153d d52c 3e3d

encoder.2.bias f4 [16]
-0.1633657 -0.5674262 0.13411964 -0.77421886 -0.5743207 0.32405955 -0.83693326 0.0923551
0.0960154 -0.46636897 -0.578654 0.621243 0.26304767 -0.60017383 0.5779227 -0.19219074
00000000: 5749 27be d842 11bf a956 093e 3533 46bf
00000010: ae06 13bf 22eb a53e 4241 56bf ac24 bd3d
00000020: b9a3 c43d eac7 eebe ab22 14bf c809 1f3f
00000030: 2fae 863e fea4 19bf bef2 133f a6cd 44be

decoder.0.weight f4 [32, 16]
-0.08205379 0.22550523 -0.11084835 -0.27200523 0.18713938 0.02464701 -0.021557786 -0.4042152
0.1133351 -0.15389282 -0.04229766 0.060350437 0.25028732 0.3898437 0.34107175 -0.19382547
0.09134603 -0.27329445 -0.20280218 0.09379987 0.24150835 0.41227645 0.18898237 -0.76319265
-0.19327945 0.107177846 -0.10018602 0.19386598 0.5870783 -0.041118935 -0.06366309 0.17767055
0.3117009 0.26535287 -0.043151207 0.36099747 -0.18049721 -0.1254507 0.39480498 0.08860538
0.18715431 0.045061916 -0.15793309 0.44455877 -0.26117292 -0.09585512 -0.1490775 -0.008379481
0.13166791 0.35719302 -0.1082106 0.014040462 -0.17703268 0.006716895 -0.3056993 -0.10269918
-0.18089919 0.14901276 0.042374235 0.1795815 0.5219095 0.23449112 -0.4431397 0.15832555
-0.10162363 -0.46616042 0.06685362 -0.0053908597 -0.19706766 0.09866141 -0.0014738876 0.22530724
-0.035719432 0.2668842 0.16932039 0.2593576 0.21581376 -0.25588033 0.19871835 -0.051998958
-0.043406427 -0.34218666 -0.15159693 0.43453002 0.16995975 0.39122593 -0.0250265 0.40031773
0.079514846 0.17592232 0.03225645 -0.25138736 0.12838966 0.40627712 -0.2839695 -0.019736584
0.17299336 -0.00206842 0.0699906 0.0072462833 0.4835225 -0.24166352 -0.12299186 0.5272686
0.11707663 0.4041879 -0.09170189 -0.43433437 0.12746942 0.32332155 0.6095446 0.24807306
0.1876555 0.28510654 0.18189038 -0.52167356 -0.109205365 0.30927986 -0.23628777 -0.21695158
0.037766326 0.10079349 -0.40296733 0.31995675 -0.097600505 0.17394845 0.5185294 0.16636936
0.1669317 0.061442353 0.004911936 -0.24473491 -0.26073802 -0.26512843 -0.043327328 -0.22500712
0.20790663 -0.24375282 -0.3171714 -0.015552981 -0.08693354 -0.3106433 0.06414567 0.17034028
0.3944805 -0.015590406 -0.041896556 0.32830527 -0.10267958 0.38880572 -0.45142904 0.48425236
-0.15257612 -0.16540118 -0.38298786 0.123248115 0.17858568 -0.08431257 0.038880873 0.2048475
-0.16735737 -0.07674508 -0.100298814 0.09657229 -0.16411868 -0.29059047 -0.009175027 -0.11860669
0.017415391 -0.0064830687 -0.08948231 -0.10316659 -0.0775511 0.06104734 -0.23178107 -0.25094563
0.051915713 0.110341795 -0.029211454 -0.4726143 -0.25751817 0.3511794 0.11473217 0.45873094
-0.118595235 0.19429079 0.50569373 0.08845199 0.15756363 0.26628292 -0.34892008 0.090172105
0.0004957245 -0.41863355 -0.036985684 -0.22093137 -0.42252445 0.062985644 0.005392243 -0.12947614
-0.17871608 0.417547 -0.027757209 0.2586575 -0.091408506 0.15123929 0.09586216 -0.18099804
0.3736651 0.18710569 0.12595163 0.110001646 0.025711467 0.3553211 0.22204262 -0.603034
-0.15286025 0.41184542 0.047229774 -0.16106828 -0.3381545 0.4052343 -0.107591294 0.1188807
-0.14699142 0.029394401 -0.16431214 -0.027775677 -0.20827423 -0.11164913 -0.09892547 0.14871608
-0.10813539 -0.17601931 0.1508119 -0.20932695 -0.08080804 -0.10183122 -0.2112396 -0.02174039
-0.33828923 0.27225828 0.13535671 0.46354374 0.34328687 0.09946948 0.19612496 0.15840472
0.031030495 -0.29806253 0.04023349 0.3312585 -0.09203143 0.42743874 -0.18697067 0.120056644
00000000: d10b a8bd d8ea 663e 7604 e3bd 4544 8bbe
00000010: 77a1 3f3e 87e8 c93c f499 b0bc 4bf5 cebe
00000020: 3c1c e83d 1496 1dbe 5040 2dbd 0532 773d
00000030: a925 803e 9899 c73e f5a0 ae3e 2f7a 46be
00000040: a113 bb3d 40ed 8bbe 60ab 4fbe 251a c03d
00000050: f74d 773e e615 d33e 9884 413e 9860 43bf
00000060: 0ceb 45be 0f80 db3d 542e cdbd ce84 463e
00000070: c34a 163f 546c 28bd cb61 82bd 45ef 353e
00000080: 4397 9f3e 55dc 873e 52bf 30bd a9d4 b83e
00000090: 43d4 38be 2676 00be e123 ca3e bd76 b53d
000000a0: 61a5 3f3e d892 383d 36b9 21be 359d e33e
000000b0: 75b8 85be b04f c4bd c6a7 18be 174a 09bc
000000c0: f4d3 063e 01e2 b63e 859d ddbd f709 663c
000000d0: 0e48 35be 6619 dc3b 9e84 9cbe f353 d2bd
000000e0: a33d 39be cd96 183e 9b90 2d3d 36e4 373e
000000f0: dc9b 053f 711e 703e 35e3 e2be 1820 223e
00000100: 0d20 d0bd 94ac eebe 8dea 883d cfa5 b0bb
00000110: 1bcc 49be fe0e ca3d 762f c1ba f1b6 663e
00000120: 8a4e 12bd 0ca5 883e 5362 2d3e 85ca 843e
00000130: 48fe 5c3e bf02 83be d37c 4b3e dcfc 54bd
00000140: f0ca 31bd 1733 afbe 3a3c 1bbe b87a de3e
00000150: ee09 2e3e c44e c83e 6004 cdbc 72f6 cc3e
00000160: aed8 a23d fb24 343e 571f 043d d8b5 80be
00000170: 9478 033e 8e03 d03e 7364 91be 9eae a1bc
00000180: 2c25 313e 548e 07bb 3b57 8f3d 3b72 ed3b
00000190: 4390 f73e a476 77be 28e3 fbbd 13fb 063f
000001a0: dfc5 ef3d b7f1 ce3e 33ce bbbd 1361 debe
000001b0: 5887 023e 678a a53e 1d0b 1c3f dd06 7e3e
000001c0: c328 403e 7cf9 913e 7941 3a3e 668c 05bf
000001d0: 10a7 dfbd ee59 9e3e 6cf5 71be 8e28 5ebe
000001e0: ddb0 1a3d d16c ce3d bc51 cebe 5fd1 a33e
000001f0: c6e2 c7bd 8b1f 323e 58be 043f bb5c 2a3e
00000200: 25f0 2a3e faaa 7b3d 4ef4 a03b ca9b 7abe
00000210: 747f 85be eabe 87be ff77 31bd 4468 66be
00000220: 7ae5 543e 579a 79be 4a64 a2be eed1 7ebc
00000230: 360a b2bd a30c 9fbe ce5e 833d af6d 2e3e
00000240: 59f9 c93e e76e 7fbc b99b 2bbd a117 a83e
00000250: ac49 d2bd 8b11 c73e b521 e7be edef f73e
00000260: ea3c 1cbe ed5e 29be fc16 c4be 8269 fc3d
00000270: 2adf 363e 12ac acbd 8d41 1f3d 8bc3 513e
00000280: bb5f 2bbe 862c 9dbd 7769 cdbd b1c7 c53d
00000290: ba0e 28be 46c8 94be da52 16bc 10e8 f2bd
000002a0: b9aa 8e3c ec6f d4bb 8042 b7bd 0149 d3bd
000002b0: 1cd3 9ebd c70c 7a3d 0458 6dbe f27b 80be
000002c0: 92a5 543d e1fa e13d dc4c efbc 80fa f1be
000002d0: 6cd9 83be c9cd b33e b3f8 ea3d c8de ea3e
000002e0: 0fe2 f2bd 2af4 463e 2575 013f 5126 b53d
000002f0: 5c58 213e 3c56 883e a7a5 b2be 27ac b83d
00000300: 82f3 013a 2357 d6be 4d7e 17bd d53b 62be
00000310: 2055 d8be 9efe 803d 6ab1 b03b 6595 04be
00000320: 5901 37be b8c8 d53e 1663 e3bc c16e 843e
00000330: 6234 bbbd 79de 1a3e 6153 c43d 8d57 39be
00000340: 0851 bf3e a298 3f3e 77f9 003e 8b48 e13d
00000350: dba0 d23c a6ec b53e 245f 633e 7060 1abf
00000360: 6687 1cbe 67dd d23e 0274 413d 15ef 24be
00000370: 9622 adbe df7a cf3e d358 dcbd b977 f33d
00000380: eb84 16be 87cc f03c 7141 28be d189 e3bc
00000390: d745 55be 4da8 e4bd 7099 cabd 0749 183e
000003a0: 1676 ddbd 683e 34be 6f6e 1a3e ce59 56be
000003b0: b07e a5bd e38c d0bd 324f 58be e718 b2bc
000003c0: 3f34 adbe 7065 8b3e f39a 0a3e 9b55 ed3e
000003d0: 4cc3 af3e a8b6 cb3d fbd4 483e d934 223e
000003e0: aa33 fe3c a79b 98be dfcb 243d b79a a93e
000003f0: f97a bcbd 40d9 da3e 3d75 3fbe 42e0 f53d

decoder.0.bias f4 [32]
29.660206 -24.872604 -8.446085 -20.54162 23.384794 50.36976 -11.989364 23.507116
0.02882343 -28.273863 0.1832129 29.307686 -6.0346956 -35.719955 -0.06968617 -3.5867376
-22.21675 -51.75562 36.040924 -135.93248 -23.546099 -0.24032433 -0.11627275 -9.985724
43.103622 -18.3246 -38.145042 -0.1801981 0.1521856 10.427917 -0.122394286 69.19077
00000000: 1a48 ed41 18fb c6c1 2a23 07c1 3d55 a4c1
00000010: 0f14 bb41 a27a 4942 6fd4 3fc1 930e bc41
00000020: 1d1f ec3c df30 e2c1 2a9c 3b3e 2476 ea41
00000030: 3a1c c1c0 3ce1 0ec2 9fb7 8ebd 1c8d 65c0
00000040: e7bb b1c1 c105 4fc2 e829 1042 b7ee 07c3
00000050: 695e bcc1 9517 76be 6820 eebd 87c5 1fc1
00000060: 1c6a 2c42 c898 92c1 8694 18c2 da85 38be
00000070: 8bd6 1b3e bfd8 2641 dba9 fabd ad61 8a42

decoder.2.weight f4 [60, 32]
0.015629373 -0.45683548 -0.061085045 0.18466663 0.035407215 0.04323439 -0.07109863 -0.061909266
0.17640264 -0.34616688 -0.015545784 0.50318676 -0.024953179 0.1616017 0.035103098 0.08228558
-0.0014658518 -0.032570776 0.0013823474 0.0197136 0.3580037 -0.013421064 0.13908222 0.42538846
0.022219565 -0.31676322 0.577326 0.057016723 -0.033229098 -0.25853837 0.017362343 0.04074814
0.0055279136 -0.0065064947 -0.0064094975 0.0013905182 0.0039135907 0.0025121637 -0.007372884 -0.004638605
0.06840465 0.0044380706 -0.07689421 0.0010540419 0.0025957562 -0.0075072874 -0.00884298 -0.0122859
0.010447092 0.0039639585 0.00657097 0.0021501181 -0.0062267776 -0.016574455 -0.124037735 0.00455921
0.0035718672 -0.008205491 0.0024766293 -0.033913024 -0.057438675 0.022138476 0.053707723 0.0051550646
0.006904567 0.009545187 -0.0057545574 0.00016080918 0.0030714644 0.0020002534 -0.002772074 0.0032554844
0.06007342 0.000594651 -0.1347292 0.00035367676 0.002589743 0.0023341614 -0.002417276 0.005813129
-0.008423388 -0.014599599 0.011076899 0.002096184 0.0007023472 -0.2064892 -0.015118404 0.0063782637
0.0032326754 0.006038013 -0.009229893 -0.08967242 -0.091173045 -0.02694846 -0.033384122 0.004499802
-0.0012089877 0.0040241024 -0.0070720306 -0.0063370746 -0.00096719124 -0.0011695046 -0.0002481549 0.0011824587
-0.12513325 0.0064206906 -0.0007351342 0.007267303 0.00043977867 0.005940168 0.09286594 0.0040838937
-0.004419516 -0.0032281762 -0.0048268526 0.00022048198 0.007066148 0.08186713 -0.08959815 0.008806327
-0.001864194 0.0031812268 -0.016642855 0.031499866 -0.05274209 -0.006713142 -0.01851696 -0.0038001032
-0.004026004 -0.004152181 -0.02336363 -0.0035599642 0.0012066981 0.0007706619 -0.00942852 -0.004942261
0.11958004 0.01426617 -0.03246663 0.01418104 0.0005857423 -0.0039283107 0.108009756 -0.015846407
0.015305912 0.00610547 0.0015681834 0.0001679612 -0.0033689002 0.0045630606 -0.0027450942 0.019953033
0.00014406758 -0.009207701 -0.019089442 0.0013362961 -0.09749476 0.03555782 -0.0070717772 -4.3362954e-05
0.009947756 0.00054745283 0.0029767598 0.00045870565 0.0011340675 0.001706008 -0.0024820298 -0.000200922
-0.08552874 7.883046e-05 -0.0469513 -0.005727547 0.0031702835 0.0037038305 0.057460833 0.0026988997
-0.0064519807 -0.0029767319 0.004408817 0.0029086398 0.0022495375 0.08742437 0.11429686 -0.002370407
0.0020210797 0.0051586293 0.0015369366 0.12447442 -0.10708374 -0.015822064 -0.013905401 0.0014363782
0.01189795 0.0034354702 0.027749939 0.011101096 0.0015703957 0.0020002273 0.0061253333 0.0058882935
0.042607147 -0.018787693 -0.102327265 -0.026006876 0.0027182554 0.0048498386 -0.0006963732 0.016566304
-0.017052617 -0.006442126 0.0087238755 0.002636166 0.0002743569 -0.112561725 0.020360367 -0.02625178
0.00237421 0.011294221 0.02993603 0.08683391 0.059188653 -0.048635524 -0.034554552 0.0026135521
-0.003985929 -0.009580883 -0.008550086 -0.0019438348 0.0006698148 0.0017178984 -0.0044664117 -0.005377495
-0.19444449 0.006878318 0.012289613 0.008897925 -0.00054762413 -0.010110959 -0.020826347 -0.015797343
0.016309517 0.00902027 -0.0026504942 -0.0006934306 -0.004970688 0.11479178 0.054495044 0.008162556
-0.00020289115 -0.012152762 -0.0022299218 0.11609189 -0.010217378 0.04086558 0.07036576 0.0023379778
00000000: 2c09 803c 57e6 e9be 5034 7abd 4019 3d3e
00000010: 2807 113d 8b16 313d 299c 91bd 9294 7dbd
00000020: e5a2 343e c93c b1be beb3 7ebc d9d0 003f
00000030: 9c6a ccbc eb7a 253e 44c8 0f3d 5885 a83d
00000040: d321 c0ba ef68 05bd e22f b53a 6a7e a13c
00000050: 434c b73e 06e4 5bbc 926b 0e3e 84cc d93e
00000060: ce05 b63c ca2e a2be a3cb 133f 5e8a 693d
00000070: 3c1b 08bd 245f 84be 793b 8e3c 86e7 263d
00000080: 8023 b53b 6f34 d5bb c306 d2bb 0c42 b63a
00000090: 943d 803b 1da3 243b 3c98 f1bb 70ff 97bb
000000a0: bd17 8c3d 3c6d 913b b67a 9dbd c727 8a3a
000000b0: 901d 2a3b b1ff f5bb 25e2 10bc cd4a 49bc
000000c0: 482a 2b3c 18e4 813b 4b51 d73b ffe8 0c3b
000000d0: ff09 ccbb 27c7 87bc 7f07 febd 6d65 953b
000000e0: fd15 6a3b 5370 06bc f24e 223b 62e8 0abd
000000f0: d144 6bbd c05b b53c a1fc 5b3d d1eb a83b
00000100: b53f e23b 6a63 1c3c ba90 bcbb e39e 2839
00000110: 9f4a 493b af16 033b afab 35bb f759 553b
00000120: 8c0f 763d 5ae2 1b3a 74f6 09be b16d b939
00000130: adb8 293b bbf8 183b 296b 1ebb 0f7c be3b
00000140: 4002 0abc 2833 6fbc e27b 353c 2260 093b
00000150: b91d 383a e871 53be 2fb3 77bc c100 d13b
00000160: 4bdb 533b 86da c53b fa38 17bc 2ca6 b7bd
00000170: efb8 babd 04c3 dcbc cabd 08bd 1373 933b
00000180: e576 9eba 9edc 833b 7ebc e7bb 3ca7 cfbb
00000190: 1b8b 7dba 104a 99ba c91a 82b9 bbfc 9a3a
000001a0: ee22 00be a864 d23b 05b6 40ba 8e22 ee3b
000001b0: 1892 e639 bea5 c23b 7f30 be3d 2fd2 853b
000001c0: 96d1 90bb cf8f 53bb 932a 9ebb 2e31 6739
000001d0: 258b e73b f4a9 a73d 3c7f b7bd 6a48 103c
000001e0: f957 f4ba 217c 503b 9956 88bc 0106 013d
000001f0: 1708 58bd ebf9 dbbb e1b0 97bc 270b 79bb
00000200: 92ec 83bb 050f 88bb 1565 bfbc 4a4e 69bb
00000210: 122a 9e3a 3f06 4a3a 147a 1abc b1f2 a1bb
00000220: 61e6 f43d a7bc 693c bbfb 04bd 9857 683c
00000230: 808c 193a 0fb9 80bb 3834 dd3d 53d0 81bc
00000240: a6c5 7a3c 6510 c83b 818b cd3a be1e 3039
00000250: c4c8 5cbb ba85 953b 0ae7 33bb 8b74 a33c
00000260: d910 1739 e6db 16bc 7661 9cbc a826 af3a
00000270: 55ab c7bd 14a5 113d 5eba e7bb 9ee0 35b8
00000280: eafb 223c f082 0f3a be15 433b 6e7e f039
00000290: fea4 943a 219c df3a 8da9 22bb 97ae 52b9
000002a0: b129 afbd c851 a538 0250 40bd 26ae bbbb
000002b0: 88c4 4f3b f7bb 723b 0d5c 6b3d 06e0 303b
000002c0: 236b d3bb 4615 43bb d677 903b e19e 3e3b
000002d0: fa6c 133b 8c0b b33d 7914 ea3d d558 1bbb
000002e0: 1774 043b b809 a93b 0973 c93a 72ec fe3d
000002f0: b84e dbbd 469d 81bc 7bd3 63bc db44 bc3a
00000300: 9fef 423c a025 613b d753 e33c 5fe1 353c
00000310: bcd5 cd3a 3f16 033b 05b7 c83b 96f2 c03b
00000320: d584 2e3d a6e8 99bc f590 d1bd 5f0c d5bc
00000330: c224 323b 65eb 9e3b d08c 36ba 0fb6 873c
00000340: eeb1 8bbc 7818 d3bb 96ee 0e3c 87c3 2c3b
00000350: 8fd7 8f39 c386 e6bd c9ca a63c f90d d7bc
00000360: a298 1b3b 650b 393c 683c f53c fad5 b13d
00000370: cd6f 723d 0b36 47bd 1389 0dbd 2148 2b3b
00000380: 659c 82bb 23f9 1cbc a915 0cbc 46c8 feba
00000390: 8396 2f3a 1b2b e13a fa5a 92bb b335 b0bb
000003a0: 751c 47be 8363 e13b 5f5a 493c 9ac8 113c
000003b0: 6f8e 0fba 70a8 25bc 049c aabc 6e69 81bc
000003c0: 899b 853c c1c9 133c eab3 2dbb 57c7 35ba
000003d0: 27e1 a2bb f417 eb3d 3236 5f3d 3ebc 053c
000003e0: 2ebf 54b9 611c 47bc e123 12bb 96c1 ed3d
000003f0: ca66 27bc ab62 273d ec1b 903d c238 193b

decoder.2.bias f4 [60]
0.16427985 13.342497 14.109014 -3.9244285 1.6101253 7.9908376 5.701681 0.8811932
1.2213867 -57.63657 -63.415764 2.253221 1.4341224 12.680738 10.371252 -0.6151709
2.6960578 8.978747 9.70673 4.658567 3.4681613 7.575739 0.45919636 1.3981884
-2.2128737 10.7250595 9.607577 1.4780232 2.5596178 8.791464 9.366712 1.3072098
0.73720753 72.47852 17.825203 -4.6985383 -0.29662374 10.403957 13.162602 -4.367152
0.83840925 7.070473 5.2083454 1.6429704 -1.035998 29.03688 26.877638 -1.8614175
0.59731764 10.790641 13.758006 -4.6423903 0.5556321 7.90339 8.592462 4.957696
2.4634137 -65.59982 -59.51418 13.053702
00000000: fa38 283e de7a 5541 85be 6141 d629 7bc0
00000010: 9618 ce3f f1b4 ff40 2c74 b640 e195 613f
00000020: 6656 9c3f d98b 66c2 bea9 7dc2 c634 1040
00000030: 5391 b73f 4ee4 4a41 a6f0 2541 d77b 1dbf
00000040: 368c 2c40 f3a8 0f41 c44e 1b41 fb12 9540
00000050: 5bf6 5d40 746c f240 c91b eb3e d6f7 b23f
00000060: b99f 0dc0 d899 2b41 a3b8 1941 dd2f bd3f
00000070: c7d0 2340 d6a9 0c41 0dde 1541 a752 a73f
00000080: a2b9 3c3f 01f5 9042 049a 8e41 6d5a 96c0
00000090: 11df 97be 9c76 2641 059a 5241 b6bf 8bc0
000000a0: fda1 563f 5141 e240 c4aa a640 db4c d23f
000000b0: 959b 84bf 884b e841 6705 d741 ee42 eebf
000000c0: cfe9 183f 77a6 2c41 cb20 5c41 768e 94c0
000000d0: e83d 0e3f 92e8 fc40 b97a 0941 72a5 9e40
000000e0: 92a8 1d40 1c33 83c2 850e 6ec2 f7db 5041

exp_avg f4 [32, 60]
-485315.56 -5606.2627 -6161.803 -6220.9067 -4571.719 -5623.209 -6120.8574 -6203.079
-4627.5947 -1.1318202e+06 -1.1327452e+06 -10784.233 -337786.44 -7466.895 -6845.6055 -3124.0537
-3983.4302 -3717.6216 -5472.832 -9372.7705 -5198.456 -1.8867844e+06 -390626.0 -16836.188
-187792.27 -4999.5557 -5924.1655 -7206.6997 -4822.742 -6121.504 -6410.9683 -5369.1113
-4363.6455 -923840.9 -1.3681831e+06 -7593.7285 -589948.75 -5390.5327 -6088.965 -6590.5225
-4652.088 -5800.9863 -6238.5366 -5905.2725 -4519.908 -1.0564389e+06 -1.2204884e+06 -10322.733
-200206.34 -8098.128 -7068.6387 -2058.7651 -3811.8723 -3027.06 -5298.1387 -10534.977
-5346.043 -2.1593805e+06 -135085.44 -18871.742 193813.83 1950.0608 2400.061 3123.7622
1977.0073 2638.0796 2637.1895 1970.5171 1772.5996 326469.44 601749.75 3725.586
84071.33 3282.4111 2882.643 894.6084 1554.944 1282.113 2142.97 4216.4834
2211.7087 863706.9 68100.945 7699.9336 12425.908 2727.2944 2676.439 1814.958
1736.9838 1847.8729 2355.9448 3289.6333 2020.6731 641761.75 288588.72 5116.1665
136254.0 2703.5767 2671.712 1860.9678 1741.3484 1872.5114 2368.866 3248.424
2008.9795 631584.3 299425.8 6037.8223 87162.38 2816.1582 2721.1553 1686.7988
1876.8611 1314.897 2709.5461 4168.9907 1669.9673 810038.5 251765.47 7802.077
462085.5 8711.514 8268.098 4717.5747 5088.287 5132.1914 6948.6025 10700.504
6260.9663 2.121618e+06 688144.0 18884.562 427359.53 7587.8545 7862.85 6600.4287
5451.674 6237.7637 7364.8794 8844.585 5893.4688 1.6760191e+06 1.138573e+06 14851.088
533918.9 6272.174 7361.033 8760.307 5936.919 7447.506 7917.4844 6832.7236
5396.012 1.1860672e+06 1.6552922e+06 11743.424 576934.75 7136.7334 7698.4585 7353.5723
5596.9507 6695.3267 7537.607 8090.495 5739.098 1.4952841e+06 1.3188638e+06 13420.385
318396.2 8757.4 8262.793 4604.9 5060.448 5159.814 6842.2485 10656.607
6363.076 2.120133e+06 663144.94 18277.854 -244221.84 -3558.5405 -3425.2373 -2095.7583
-2133.2146 -2226.9985 -2916.1643 -4312.7227 -2592.2705 -849954.4 -317755.56 -7606.255
-145393.53 -3454.847 -3383.5356 -2262.4617 -2177.854 -2306.1177 -2961.4731 -4174.5923
-2551.8364 -815482.6 -357605.38 -7694.394 -206787.25 -1618.3883 -2687.4927 -5284.4883
-2831.4497 -4040.5625 -3689.0579 -1282.8604 -1901.4331 -116040.4 -1.0810248e+06 -1773.5275
-270692.62 -3437.8062 -3377.3257 -2290.912 -2183.3418 -2326.8784 -2972.496 -4145.595
-2541.0981 -808422.4 -364409.2 -7513.842 -90943.03 -4388.3706 -3700.744 -666.3299
-1967.7137 -1192.708 -2749.5098 -6035.4565 -2724.878 -1.2462389e+06 25717.227 -10823.922
-653100.1 -12860.539 -12443.667 -7849.771 -7865.4277 -8205.658 -10725.785 -15621.582
-9392.289 -3.0695185e+06 -1.2075045e+06 -29138.223 -597330.6 -12475.839 -12303.551 -8492.14
00000000: 72f8 ecc8 1a32 afc5 6d8e c0c5 4167 c2c5
00000010: c1dd 8ec5 acb9 afc5 dc46 bfc5 a2d8 c1c5
00000020: c29c 90c5 6229 8ac9 4a46 8ac9 ef80 28c6
00000030: 4eef a4c8 2957 e9c5 d8ec d5c5 dc40 43c5
00000040: e2f6 78c5 f259 68c5 a806 abc5 1573 12c6
00000050: a673 a2c5 0352 e6c9 40bc bec8 6088 83c6
00000060: 1164 37c8 723c 9cc5 5321 b9c5 9935 e1c5
00000070: f0b5 96c5 084c bfc5 bf57 c8c5 e4c8 a7c5
00000080: 2a5d 88c5 0e8c 61c9 b903 a7c9 d44d edc5
00000090: cc07 10c9 4374 a8c5 b847 bec5 2ef4 cdc5
000000a0: b460 91c5 e447 b5c5 4bf4 c2c5 2e8a b8c5
000000b0: 443f 8dc5 b7f5 80c9 43fc 94c9 ef4a 21c6
000000c0: 9683 43c8 0611 fdc5 1ce5 dcc5 3eac 00c5
000000d0: f53d 6ec5 f630 3dc5 1c91 a5c5 e89b 24c6
000000e0: 5810 a7c5 52cc 03ca 5ceb 03c8 7c6f 93c6
000000f0: 7545 3d48 f2c1 f344 fa00 1645 323c 4345
00000100: 3c20 f744 46e1 2445 08d3 2445 8c50 f644
00000110: 3093 dd44 ae68 9f48 5ce9 1249 60d9 6845
00000120: aa33 a447 9426 4d45 4a2a 3445 f0a6 5f44
00000130: 355e c244 9e43 a044 85ef 0545 dec3 8345
00000140: 573b 0a45 aedd 5249 7902 8547 789f f045
00000150: a227 4246 b674 2a45 0647 2745 a8de e244
00000160: 7b1f d944 effb e644 1e3f 1345 229a 4d45
00000170: 8a95 fc44 1cae 1c49 97e9 8c48 55e1 9f45
00000180: 800f 0548 3af9 2845 64fb 2645 f89e e844
00000190: 26ab d944 5d10 ea44 db0d 1445 c906 4b45
000001a0: 581f fb44 0532 1a49 3a34 9248 94ae bc45
000001b0: 313d aa47 8802 3045 7c12 2a45 90d9 d244
000001c0: 8e9b ea44 b45c a444 bd58 2945 ed47 8245
000001d0: f4be d044 68c3 4549 5edd 7548 9ed0 f345
000001e0: b0a0 e148 0e1e 0846 6430 0146 996c 9345
000001f0: 4c02 9f45 8861 a045 d224 d945 0432 2746
00000200: bba7 c345 487e 014a 0001 2849 2089 9346
00000210: f1ab d048 d61e ed45 cdb6 f545 6e43 ce45
00000220: 645d aa45 1cee c245 0927 e645 5732 0a46
00000230: c02b b845 9997 cc49 68fc 8a49 5a0c 6846
00000240: ee59 0249 6401 c445 4408 e645 3ae1 0846
00000250: 5a87 b945 0cbc e845 e06b f745 ca85 d545
00000260: 19a0 a845 9ac8 9049 e20f ca49 b27d 3746
00000270: 6cda 0c49 de05 df45 ab93 f045 94cc e545
00000280: 9be7 ae45 9d3a d145 db8c eb45 f6d3 fc45
00000290: c958 b345 a187 b649 7efe a049 8ab1 5146
000002a0: 8677 9b48 9ad5 0846 2c1b 0146 33e7 8f45
000002b0: 9623 9e45 833e a145 fdd1 d545 6e82 2646
000002c0: 9cd8 c645 1467 014a 8fe6 2149 b5cb 8e46
000002d0: 767f 6ec8 a668 5ec5 cc13 56c5 22fc 02c5
000002e0: 6f53 05c5 fa2f 0bc5 a142 36c5 c8c5 86c5
000002f0: 5404 22c5 2682 4fc9 7227 9bc8 0ab2 edc5
00000300: 62fc 0dc8 8ded 57c5 9278 53c5 6367 0dc5
00000310: aa1d 08c5 e221 10c5 9217 39c5 bd74 82c5
00000320: 627d 1fc5 aa17 47c9 ac9c aec8 2773 f0c5
00000330: d0f0 49c8 6d4c cac4 e2f7 27c5 e823 a5c5
00000340: 32f7 30c5 0089 7cc5 ed90 66c5 885b a0c4
00000350: dcad edc4 33a4 e2c7 06f6 83c9 e1b0 ddc4
00000360: 942c 84c8 e6dc 56c5 3615 53c5 982e 0fc5
00000370: 7875 08c5 0e6e 11c5 f0c7 39c5 c38c 81c5
00000380: 92d1 1ec5 665e 45c9 26ef b1c8 bcce eac5
00000390: 849f b1c7 f722 89c5 e74b 67c5 1d95 26c4
000003a0: d7f6 f5c4 a816 95c4 28d8 2bc5 a79b bcc5
000003b0: 0c4e 2ac5 f720 98c9 74ea c846 b01f 29c6
000003c0: c272 1fc9 28f2 48c6 ab6e 42c6 2b4e f5c5
000003d0: 6ccb f5c5 a236 00c6 2497 27c6 5416 74c6
000003e0: 28c1 12c6 3a59 3bca 8466 93c9 72a4 e3c6
000003f0: 2ad5 11c9 5bef 42c6 343e 40c6 8fb0 04c6

exp_avg_sq f4 [32, 60]
2.3553124e+11 3.1429406e+07 3.7966492e+07 3.86985e+07 2.089927e+07 3.1619408e+07 3.7462484e+07 3.8478496e+07
2.1413276e+07 1.2809176e+12 1.2830149e+12 1.162935e+08 1.14095555e+11 5.575472e+07 4.6862604e+07 9.759626e+06
1.5867705e+07 1.3820678e+07 2.9951386e+07 8.784514e+07 2.7023348e+07 3.5598303e+12 1.5257797e+11 2.8344368e+08
3.5264967e+10 2.4995322e+07 3.5094452e+07 5.193467e+07 2.32573e+07 3.7470484e+07 4.1098532e+07 2.8827372e+07
1.9041246e+07 8.534536e+11 1.8719289e+12 5.7662744e+07 3.4801703e+11 2.9057376e+07 3.707448e+07 4.343456e+07
2.164128e+07 3.3650436e+07 3.8918504e+07 3.4870452e+07 2.0429264e+07 1.116027e+12 1.489587e+12 1.0655738e+08
4.0081924e+10 6.557885e+07 4.9962644e+07 4.238305e+06 1.4529688e+07 9.162618e+06 2.8069362e+07 1.1098143e+08
2.8579368e+07 4.6628156e+12 1.8246892e+10 3.561166e+08 3.7562855e+10 3.802674e+06 5.7603245e+06 9.757626e+06
3.9084255e+06 6.95934e+06 6.95484e+06 3.882925e+06 3.1419155e+06 1.0658339e+11 3.6210747e+11 1.3879679e+07
7.067995e+09 1.0773639e+07 8.309357e+06 800291.56 2.4176562e+06 1.6438338e+06 4.5923095e+06 1.777723e+07
4.891313e+06 7.4597315e+11 4.6375e+09 5.9286764e+07 1.54394e+08 7.437846e+06 7.1633425e+06 3.2939175e+06
3.016914e+06 3.414669e+06 5.5503215e+06 1.082164e+07 4.0829278e+06 4.1184992e+11 8.327685e+10 2.6175338e+07
1.8564336e+10 7.3093445e+06 7.137842e+06 3.4631698e+06 3.0321642e+06 3.5061702e+06 5.6113225e+06 1.0551636e+07
4.035927e+06 3.9887362e+11 8.965031e+10 3.645447e+07 7.5968983e+09 7.9308525e+06 7.4043455e+06 2.8451618e+06
3.5224205e+06 1.7289599e+06 7.341345e+06 1.7379224e+07 2.788661e+06 6.561221e+11 6.338437e+10 6.0870784e+07
2.1351085e+11 7.5884984e+07 6.835689e+07 2.2255288e+07 2.5889334e+07 2.633934e+07 4.8282624e+07 1.1450148e+08
3.9198508e+07 4.5008085e+12 4.735201e+11 3.566286e+08 1.8262662e+11 5.7574744e+07 6.1822796e+07 4.3562564e+07
2.9719384e+07 3.8906504e+07 5.42387e+07 7.822101e+07 3.473045e+07 2.8090402e+12 1.2962533e+12 2.2055485e+08
2.8506892e+11 3.9338508e+07 5.41827e+07 7.674099e+07 3.5246456e+07 5.5462716e+07 6.268681e+07 4.6686604e+07
2.9115376e+07 1.4067485e+12 2.7398334e+12 1.3789778e+08 3.3284525e+11 5.0930656e+07 5.9266764e+07 5.40747e+07
3.1325404e+07 4.482658e+07 5.6814732e+07 6.5454844e+07 3.2937426e+07 2.235724e+12 1.7394134e+12 1.8010632e+08
1.01373215e+11 7.669299e+07 6.826888e+07 2.1205274e+07 2.560733e+07 2.6623344e+07 4.6814604e+07 1.13557464e+08
4.0486524e+07 4.494517e+12 4.3973584e+11 3.3406832e+08 5.9644674e+10 1.2662664e+07 1.1731652e+07 4.391807e+06
4.550309e+06 4.959314e+06 8.50361e+06 1.859924e+07 6.719837e+06 7.2237987e+11 1.0096361e+11 5.7854748e+07
2.1138704e+10 1.1935654e+07 1.1447648e+07 5.118316e+06 4.7428115e+06 5.3178185e+06 8.769613e+06 1.7427226e+07
6.511834e+06 6.649696e+11 1.2788286e+11 5.9202764e+07 4.2760745e+10 2.6191588e+06 7.222343e+06 2.792536e+07
8.0168535e+06 1.6325711e+07 1.3608676e+07 1.6457088e+06 3.6154218e+06 1.3465262e+10 1.1685875e+12 3.1454155e+06
7.3274294e+10 1.1818653e+07 1.1405647e+07 5.248318e+06 4.7668115e+06 5.41432e+06 8.835614e+06 1.7185222e+07
6.4568335e+06 6.535007e+11 1.3278994e+11 5.645473e+07 8.2706985e+09 1.9257248e+07 1.3695677e+07 443990.1
3.871925e+06 1.4224559e+06 7.5598475e+06 3.642647e+07 7.424846e+06 1.5530266e+12 6.613526e+08 1.1715751e+08
4.2653018e+11 1.6538614e+08 1.54842e+08 6.1618796e+07 6.18628e+07 6.733287e+07 1.1503749e+08 2.4402715e+08
8.821314e+07 9.421053e+12 1.4579983e+12 8.4900294e+08 3.56799e+11 1.5564202e+08 1.5136995e+08 7.2116936e+07
00000000: 065b 5b52 8fc9 ef4b a7d4 104c 819f 134c
00000010: e372 9f4b a83c f14b 75e8 0e4c a8c8 124c
00000020: ce5e a34b 521e 9553 d35c 9553 f0cf dd4c
00000030: 0085 d451 f8af 544c 43c4 324c 8aeb 144b
00000040: 391f 724b 06e3 524b cd82 e44b 228d a74c
00000050: fa2b ce4b 9b35 4f54 6c19 0e52 0f28 874d
00000060: 4b5f 0351 fdb2 be4b eddf 054c 741d 464c
00000070: 6a70 b14b 45f0 0e4c 49c7 1c4c 76ef db4b
00000080: ef45 914b ccb5 4653 d4eb d953 46f7 5b4c
00000090: dd0e a252 b0b0 dd4b 8c6d 0d4c 90b0 254c
000000a0: 201c a54b c15d 004c 5a76 144c 2d05 054c
000000b0: e8dc 9b4b 32ec 8153 2769 ad53 f83d cb4c
000000c0: 1a51 1551 d829 7a4c a597 3e4c c257 814a
000000d0: 98b4 5d4b 7acf 0b4b f926 d64b 27ae d34c
000000e0: 140b da4b afb4 8754 2ff3 8750 44cf a94d
000000f0: bbee 0b51 c818 684a 89ca af4a bae3 144b
00000100: 268d 6e4a d861 d44a b03e d44a b4fe 6c4a
00000110: 6ec4 3f4a ec86 c651 939e a852 7fc9 534b
00000120: 86a4 d24f 8764 244b da94 fd4a 3962 4349
00000130: e18f 134a cea9 c849 6b25 8c4a 27a1 874b
00000140: 6245 954a 77af 2d53 5135 8a4f 3b29 624c
00000150: d93d 134d 2cfc e24a 9d9b da4a 760b 494a
00000160: 4823 384a 346a 504a e361 a94a 0820 254b
00000170: bf33 794a 56c8 bf52 7f1d 9b51 b5b3 c74b
00000180: a950 8a50 4110 df4a 64d4 d94a 0760 534a
00000190: 9111 394a e9ff 554a 753e ab4a 5401 214b
000001a0: 5c55 764a 71bd b952 99fc a651 1210 0b4c
000001b0: bc67 e24f c907 f24a 73f6 e14a a7a7 2d4a
000001c0: d2fd 564a ff0d d349 420a e04a cc97 844b
000001d0: d434 2a4a edc3 1853 0c20 6c51 2034 684c
000001e0: f4d8 4652 37bd 904c 6361 824c 5ccb a94b
000001f0: 1b85 c54b 06f4 c84b 002f 384c ed64 da4c
00000200: cb87 154c a3fd 8254 ff7f dc52 c40d aa4d
00000210: 9415 2a52 56a1 5b4c d3d5 6b4c 912d 264c
00000220: acbd e24b a26a 144c 7be7 4e4c da31 954c
00000230: 747c 044c f681 2354 5ce7 9653 6656 524d
00000240: ddbe 8452 8310 164c cbb0 4e4c 305f 924c
00000250: 5e74 064c cf92 534c 9621 6f4c 6318 324c
00000260: f821 de4b 5fc4 a353 b37a 1f54 7382 034d
00000270: 3ffe 9a52 f848 424c b315 624c 5347 4e4c
00000280: 6efe ee4b f5ff 2a4c 23bb 584c bfb0 794c
00000290: e94a fb4b e222 0254 8f7e ca53 45c3 2b4d
000002a0: 84d2 bc51 c047 924c 6a36 824c 8dc8 a14b
000002b0: 515e c34b b81e cb4b 6395 324c fb97 d84c
000002c0: 9f71 1a4c c3ce 8254 99c4 cc52 d34b 9f4d
000002d0: 9831 5e51 8837 414b c402 334b fe06 864a
000002e0: 4add 8a4a a458 974a 3ac1 014b a4e6 8d4b
000002f0: ba12 cd4a 3231 2853 330f bc51 c7b2 5c4c
00000300: e17e 9d50 a61f 364b 60ad 2e4b d832 9c4a
00000310: 37bd 904a 7549 a24a 4dd0 054b 8df5 844b
00000320: b4b9 c64a 47d3 1a53 4d33 ee51 33d7 614c
00000330: d34b 1f51 5bdc 1f4a 8e68 dc4a b80d d54b
00000340: aba7 f44a 4f1c 794b e4a6 4f4b 66e4 c849
00000350: f7aa 5c4a e6a5 4850 9f0a 8853 1efb 3f4a
00000360: e87b 8851 9d56 344b 4f09 2e4b 7c2a a04a
00000370: b778 914a 603b a54a 1ed2 064b e31c 834b
00000380: 030c c54a ad27 1853 2d57 f751 925b 574c
00000390: 6c7c f64f d0eb 924b bdfa 504b c3ca d848
000003a0: d452 6c4a bfa3 ad49 4fb5 e64a baf4 0a4c
000003b0: 9c96 e24a cdcb b453 c2ad 1d4e d175 df4c
000003c0: 5c9e c652 7ab9 1d4d 39ab 134d 9b0e 6b4c
000003d0: e4fc 6b4c 616d 804c a66a db4c f1b8 684d
000003e0: d240 a84c 2818 0955 bcbb a953 076b 4a4e
000003f0: c125 a652 8a6e 144d 8e5b 104d 598d 894c

exp_avg f4 [32]
-42.073383 17.203337 52.00022 -21.671743 -79.12846 6e-45 -24.937841 -73.24546
64.80268 -7.132251 -51.10565 -67.50396 6e-45 -53.485855 6e-45 30.002827
16.53025 100.72489 -27.437618 -113.36428 -79.71722 137.60443 74.26687 75.451935
66.904655 6e-45 6e-45 -8.669916 -43.418587 59.315502 99.89406 1.10168
00000000: 254b 28c2 6fa0 8941 3a00 5042 bb5f adc1
00000010: c641 9ec2 0400 0000 b380 c7c1 ad7d 92c2
00000020: f99a 8142 663b e4c0 306c 4cc2 0702 87c2
00000030: 0400 0000 84f1 55c2 0400 0000 ca05 f041
00000040: f43d 8441 2573 c942 3e80 dbc1 83ba e2c2
00000050: 376f 9fc2 bc9a 0943 a388 9442 64e7 9642
00000060: 2fcf 8542 0400 0000 0400 0000 fab7 0ac1
00000070: a2ac 2dc2 1343 6d42 c2c9 c742 da03 8d3f

exp_avg_sq f4 [32]
1770.1034 295.94803 2704.0144 469.65634 6261.0674 7e-43 621.86475 5364.5713
4199.029 50.867737 2611.728 4556.4556 7e-43 2860.7546 7e-43 900.12756
273.24268 10145.15 752.7868 12851.24 6354.8184 18934.814 5515.452 5692.7007
4475.888 7e-43 7e-43 75.16195 1885.0951 3518.234 9978.156 1.2136259
00000000: 4f43 dd44 59f9 9343 3b00 2945 03d4 ea43
00000010: 8aa8 c345 f401 0000 5877 1b44 92a4 a745
00000020: 3b38 8345 9078 4b42 a63b 2345 a563 8e45
00000030: f401 0000 13cc 3245 f401 0000 2a08 6144
00000040: 109f 8843 9a84 1e46 5b32 3c44 f6cc 4846
00000050: 8c96 c645 a1ed 9346 9e5b ac45 9be5 b145
00000060: 1bdf 8b45 f401 0000 f401 0000 eb52 9642
00000070: 0ba3 eb44 bee3 5b45 a0e8 1b46 1858 9b3f

exp_avg f4 [16, 32]
-3.7513285e+06 -2.1238135e+06 -2.0537784e+06 -1.3522518e+06 -1.5583121e+06 6e-45 -923867.0 -1.8825982e+06
-1.2501264e+06 -670482.56 -3.1126855e+06 -332305.78 6e-45 -3.8303762e+06 6e-45 -2.3765305e+06
-2.8671508e+06 -2.173046e+06 -1.2555616e+06 -3.1716645e+06 -665963.4 -1.5668085e+06 -679613.4 -1.9774825e+06
-380484.56 6e-45 6e-45 -592216.9 -3.3877972e+06 -911812.5 -2.241786e+06 -4.819512e+06
-5.191127e+06 -3.9510145e+06 -3.3035445e+06 -1.2423e+06 -1.6628714e+06 6e-45 -1.9375219e+06 -1.795195e+06
-2.0590722e+06 -835057.7 -5.990208e+06 -439806.75 -6e-45 -5.915302e+06 6e-45 -3.6808602e+06
-3.8792978e+06 -3.633451e+06 -1.2761536e+06 -3.9682655e+06 -1.2564055e+06 -2.1432495e+06 -1.0023771e+06 -3.929805e+06
-780564.25 6e-45 6e-45 -670485.06 -3.961347e+06 -971330.3 -3.1602745e+06 -7.26167e+06
6e-45 6e-45 6e-45 6e-45 6e-45 6e-45 6e-45 6e-45
6e-45 6e-45 6e-45 6e-45 6e-45 6e-45 6e-45 6e-45
6e-45 6e-45 6e-45 6e-45 6e-45 6e-45 6e-45 6e-45
6e-45 6e-45 6e-45 6e-45 6e-45 6e-45 6e-45 6e-45
-4.1763658e+06 -2.5574935e+06 -1.8984829e+06 -1.4097484e+06 -2.1644035e+06 6e-45 -1.3322225e+06 -1.8949552e+06
-882205.5 -832160.6 -4.049076e+06 -181582.88 -6e-45 -3.7709652e+06 6e-45 -3.3448885e+06
-4.400996e+06 -2.571756e+06 -949271.9 -2.2225122e+06 -577898.25 -1.1014245e+06 -172247.1 -2.685179e+06
-820008.44 -6e-45 6e-45 -206466.56 -3.019048e+06 -1.1038682e+06 -2.7449688e+06 -5.5987615e+06
-5.9471475e+06 -4.158974e+06 -3.6692655e+06 -1.6333172e+06 -2.0728998e+06 0.0 -2.064142e+06 -2.284857e+06
-2.240218e+06 -987641.1 -6.4804245e+06 -539481.1 -6e-45 -6.684133e+06 -6e-45 -4.153456e+06
-4.3094595e+06 -3.876696e+06 -1.703045e+06 -4.8536e+06 -1.4296244e+06 -2.4445498e+06 -1.1345282e+06 -4.1504865e+06
-791928.5 -6e-45 -6e-45 -982473.44 -4.655745e+06 -1.280175e+06 -3.691749e+06 -8.2150875e+06
746828.94 341732.03 -114078.805 419601.62 928304.06 -6e-45 68523.07 642358.25
-366536.44 279913.88 258831.44 -155663.6 6e-45 56076.094 6e-45 978990.5
2.1114435e+06 373938.88 -110782.734 -817313.2 -338820.5 -228252.1 -456669.9 244927.55
415860.8 6e-45 6e-45 -527175.0 537972.4 282498.72 541314.2 714808.5
3.4207435e+06 2.6510902e+06 2.8097238e+06 851952.75 731124.1 0.0 1.2300818e+06 1.2813091e+06
1.8284042e+06 561852.6 3.9121605e+06 479925.12 -6e-45 4.4397155e+06 6e-45 2.0005145e+06
1.6707016e+06 2.233558e+06 1.2054798e+06 3.324314e+06 1.0891859e+06 2.0044492e+06 1.0760588e+06 2.4019208e+06
241173.66 -6e-45 -6e-45 926603.25 3.036717e+06 521659.22 2.1008205e+06 4.870889e+06
2.914421e+06 1.812062e+06 2.142955e+06 931370.75 805053.9 -6e-45 732839.5 1.4274928e+06
1.4343572e+06 462060.25 3.041078e+06 473509.38 -6e-45 3.9785632e+06 -6e-45 1.6360548e+06
1.2425222e+06 1.1801115e+06 1.1084315e+06 3.128453e+06 939553.7 1.56344e+06 810222.5 1.3940265e+06
-98008.734 6e-45 6e-45 847407.0 2.6508962e+06 703101.6 1.9802908e+06 3.9068122e+06
00000000: 82f6 64ca 96a0 01ca 93b4 fac9 de11 a5c9
00000010: 4139 bec9 0400 0000 b08d 61c9 32cf e5c9
00000020: 739a 98c9 29b1 23c9 b6fb 3dca 3942 a2c8
00000030: 0400 0000 a1c9 69ca 0400 0000 4a0d 11ca
00000040: 3bff 2eca d8a1 04ca 4d44 99c9 4295 41ca
00000050: b696 22c9 c442 bfc9 d6eb 25c9 5464 f1c9
00000060: 92c8 b9c8 0400 0000 0400 0000 8e95 10c9
00000070: 55c6 4eca 489c 5ec9 e8d3 08ca 7014 93ca
00000080: ae6b 9eca 9a26 71ca e2a1 49ca e0a5 97c9
00000090: bbfc cac9 0400 0000 8f83 ecc9 d823 dbc9
000000a0: 025a fbc9 1bdf 4bc9 80ce b6ca d8bf d6c8
000000b0: 0400 0080 4c85 b4ca 0400 0000 71a9 60ca
000000c0: 07c6 6cca acc4 5dca cdc7 9bc9 2634 72ca
000000d0: ac5e 99c9 46d0 02ca 92b8 74c9 34db 6fca
000000e0: 4491 3ec9 0400 0000 0400 0000 51b1 23c9
000000f0: 0cc8 71ca 2524 6dc9 4ae3 40ca cc9b ddca
00000100: 0400 0000 0400 0000 0400 0000 0400 0000
00000110: 0400 0000 0400 0000 0400 0000 0400 0000
00000120: 0400 0000 0400 0000 0400 0000 0400 0000
00000130: 0400 0000 0400 0000 0400 0000 0400 0000
00000140: 0400 0000 0400 0000 0400 0000 0400 0000
00000150: 0400 0000 0400 0000 0400 0000 0400 0000
00000160: 0400 0000 0400 0000 0400 0000 0400 0000
00000170: 0400 0000 0400 0000 0400 0000 0400 0000
00000180: b7e7 7eca d618 1cca 97bf e7c9 a316 acc9
00000190: ce1a 04ca 0400 0000 f49f a2c9 5a51 e7c9
000001a0: d861 57c9 0a2a 4bc9 d022 77ca b853 31c8
000001b0: 0400 0080 5529 66ca 0400 0000 e227 4cca
000001c0: c84e 86ca b0f7 1cca 7ec1 67c9 c1a6 07ca
000001d0: a416 0dc9 8473 86c9 c635 28c8 ece3 23ca
000001e0: 8732 48c9 0400 0080 0400 0000 a4a0 49c8
000001f0: a044 38ca e2bf 86c9 238a 27ca 53dc aaca
00000200: 177e b5ca f8d7 7dca 46f4 5fca 2a61 c7c9
00000210: 1e0a fdc9 0000 0000 70f8 fbc9 e474 0bca
00000220: 68bb 08ca 921f 71c9 51c4 c5ca 92b5 03c9
00000230: 0400 0080 cafb cbca 0400 0080 c081 7dca
00000240: a783 83ca 609d 6cca 28e4 cfc9 c01e 94ca
00000250: c383 aec9 1734 15ca 027e 8ac9 5a53 7dca
00000260: 8857 41c9 0400 0080 0400 0080 97dc 6fc9
00000270: 0215 8eca 7845 9cc9 9453 61ca 5fb4 faca
00000280: cf54 3649 81dc a648 67cf dec7 34e2 cc48
00000290: 01a3 6249 0400 0080 89d5 8547 64d3 1c49
000002a0: 0ef9 b2c8 3cad 8848 dcc3 7c48 e603 18c8
000002b0: 0400 0000 180c 5b47 0400 0000 e802 6f49
000002c0: 4edf 004a 5c96 b648 5e5f d8c7 138a 47c9
000002d0: 9070 a5c8 06e7 5ec8 bdfb dec8 e32f 6f48
000002e0: 9a0e cb48 0400 0000 0400 0000 70b4 00c9
000002f0: 4657 0349 57f0 8948 2328 0449 8883 2e49
00000300: 1ec9 504a 49cf 214a ef7d 2b4a 0cff 4f49
00000310: 427f 3249 0000 0000 0e28 9649 e968 9c49
00000320: a231 df49 ca2b 0949 82c7 6e4a a456 ea48
00000330: 0400 0080 477d 874a 0400 0000 1434 f449
00000340: 6df1 cb49 5853 084a 3e27 9349 68e6 4a4a
00000350: 0ff5 8449 0aaf f449 d65a 8349 039a 124a
00000360: 6a85 6b48 0400 0080 0400 0080 b438 6249
00000370: b458 394a 67b7 fe48 5239 004a d2a5 944a
00000380: d4e1 314a f032 dd49 accb 024a ac62 6349
00000390: de8b 4449 0400 0080 78ea 3249 2641 ae49
000003a0: aa17 af49 889d e148 d89c 394a ac34 e748
000003b0: 0400 0080 0dd5 724a 0400 0080 b6b6 c749
000003c0: d2ac 9749 7c0e 9049 7c4e 8749 14f2 3e4a
000003d0: 1b62 6549 80d9 be49 e8ce 4549 542b aa49
000003e0: 5e6c bfc7 0400 0000 0400 0000 f0e2 4e49
000003f0: 41cc 214a daa7 2b49 16bc f149 f173 6e4a
