autoencoder_model.pth (torch, 23480 bytes, 8 tensors)

encoder.0.weight f4 [32, 60]
000000 55 bb f9 bc 22 3a b7 3f cb 88 c8 3f fc de 8b 3e
       -0.030484835 1.4314616 1.5666746 0.2731856
000010 b4 18 27 c0 c6 9b 84 bd 0a 18 7c 3e a9 41 53 be
       -2.6108828 -0.06475024 0.24618545 -0.20630516
000020 77 02 34 be f0 0f 89 be 46 d0 22 3c a2 4a a8 bf
       -0.17579065 -0.26769972 0.009937352 -1.3147776
000030 f2 ba 9f bc ac 02 56 bc 7a 59 3a bd 44 c1 06 be
       -0.019498322 -0.01306216 -0.045495488 -0.13159662
000040 c5 97 dd bd d0 75 a0 3d 92 55 82 3a b7 0c f6 bd
       -0.10819963 0.07834971 0.0009943715 -0.12014144
000050 c8 c9 66 be 8e ab 06 be d2 83 01 be 71 d8 3c 3f
       -0.22537911 -0.1315138 -0.12647942 0.73767763
000060 92 de f3 3a 07 12 ac 3d 7e a0 d5 3e de 02 f3 3d
       0.001860576 0.08401876 0.41724008 0.11865781
000070 8e 9b 2a bf 5d 6d 8b be e5 46 76 3e 03 d5 1b bd
       -0.6664361 -0.27231875 0.24050482 -0.03804494
000080 2c 6f 88 be 75 81 b7 3d 95 89 bf 3d 11 96 04 bf
       -0.26647317 0.08960239 0.093524136 -0.51791483
000090 56 d8 ec bc 33 ce a3 bd 78 ba 4c bd 68 ec 98 bc
       -0.02891175 -0.07998314 -0.049982518 -0.018667415
0000a0 09 2c 79 bd 80 da 43 be ca 88 00 bc 70 c6 13 be
       -0.06083301 -0.1912632 -0.007845113 -0.14431167
0000b0 0f ac 16 3d 78 68 79 3d 8a 4c 59 3d 2f 9f 6e be
       0.03678518 0.060890645 0.05305151 -0.23302911
0000c0 6b 38 13 bd 1c d8 77 bf 7a 52 a3 bf f4 2f 45 be
       -0.035942476 -0.9681413 -1.2759545 -0.19256574
0000d0 f0 5f f8 3f d4 ed 8e bd ea 39 66 be eb 85 76 bc
       1.9404278 -0.06978956 -0.2248303 -0.015046577
0000e0 06 6c 73 3e a7 ce 80 bd 17 17 57 bd 40 b2 d0 3f
       0.23771676 -0.06289416 -0.052512255 1.6304398
0000f0 39 69 55 be c8 2b 7b c1 27 48 b0 c1 f4 38 e8 41
       -0.2084092 -15.698189 -22.03523 29.02781
000100 55 b9 ee 40 2e db 6f bf a5 56 bb c1 b5 14 8d 41
       7.4601235 -0.93693817 -23.417307 17.63511
000110 ca 0f 18 c2 ba d0 cc be c3 e3 b8 bd 70 d5 72 c0
       -38.01542 -0.40002996 -0.09027817 -3.7942772
000120 d0 1b a6 be bc 3d 7c 40 21 b7 e5 40 f2 dc 54 c1
       -0.32443094 3.941268 7.1786046 -13.303942
000130 34 ac 54 c1 fb de 47 41 b5 cb 0f 41 eb b3 0d 41
       -13.292042 12.491939 8.987233 8.856425
000140 4a 88 cb 40 dd eb 36 bd 9a 84 67 3c 38 9a 4b 40
       6.360387 -0.04465853 0.014130736 3.1812878
000150 85 b0 c0 3d 5c 7e 63 bf 10 cf ba 3e 27 e1 b9 c0
       0.094086684 -0.88864684 0.364861 -5.8087344
000160 cf b0 f1 3f 5b 2b bf c0 84 f4 90 3e 37 8d 12 40
       1.8882083 -5.9740424 0.2831155 2.289869
000170 da 9a 54 40 04 85 4c be 04 d0 2b bd 25 56 30 40
       3.3219514 -0.19972616 -0.041946426 2.7552578
000180 4d 96 e8 3c 09 c3 52 41 95 d6 af 41 14 db c5 c1
       0.028391981 13.172616 21.979776 -24.731972
000190 5d 85 1b c2 06 e9 82 40 cb be 7c 41 6d e2 80 c1
       -38.880238 4.0909452 15.79658 -16.11056
0001a0 fd 62 9b c1 5a a1 5a 3e 22 dc f5 bd 9b c5 1b c0
       -19.423334 0.21350613 -0.120048776 -2.4339359
0001b0 9f c6 2f 3e 86 43 97 c0 6b 7d b6 c0 85 a3 cf bf
       0.17165612 -4.7269926 -5.70281 -1.6221777
0001c0 e7 4f 62 c1 18 7f 5b c1 77 b7 4e 40 38 bc ac c0
       -14.144507 -13.718529 3.2299478 -5.397976
0001d0 39 d5 e9 3f 87 e4 74 3d b8 74 39 be 7d 26 21 3f
       1.8268195 0.059788253 -0.18110931 0.62949353
0001e0 58 bf df 3c ab 03 4f 40 d2 37 81 40 62 af 07 c0
       0.02731292 3.2345989 4.038064 -2.1200795
0001f0 f3 a6 8b c0 48 ae 80 c0 76 00 90 c1 71 48 83 40
       -4.3641295 -4.0212746 -18.000225 4.102593
000200 80 e5 8e 41 94 8b b6 be 46 1f 89 3c 0c a3 48 c1
       17.86206 -0.35653365 0.016738545 -12.539806
000210 f3 13 da bc 5c 9d 6b 40 4a 4a a1 3f fe 34 85 bf
       -0.02662084 3.6814795 1.2600796 -1.0406797
000220 4d 10 49 41 c6 4e 84 c0 1a 38 08 c1 0b 89 54 c1
       12.56648 -4.134616 -8.513697 -13.283458
000230 a6 9b 0c c2 8f e5 9f 3d 4f 76 38 3e 7b 8b c5 40
       -35.152 0.07807457 0.18013881 6.1732764
000240 2c 00 da 3b e6 62 88 3f 87 b5 0e 3f 5f 96 31 40
       0.0066528525 1.0655181 0.5574574 2.774803
000250 09 83 2c c1 06 1d 50 c0 3f 11 7a 41 74 b6 49 41
       -10.781991 -3.2517715 15.62921 12.607044
000260 b9 8c 24 41 32 46 90 bf ea 26 52 3f 1a b2 98 bf
       10.284356 -1.1271422 0.8209063 -1.1929352
000270 f5 91 cd 3c 4d 6a 24 41 b9 fe f2 40 2d de 46 c1
       0.025094012 10.275952 7.593594 -12.429242
000280 28 fd 32 41 53 60 f5 3d e6 eb 03 41 9e 2d 65 40
       11.186806 0.11981263 8.245092 3.5809093
000290 a7 ec f1 c1 12 2a ab 3e 57 ce 04 3f 84 0e 33 3f
       -30.240553 0.33430535 0.5187735 0.69944024
0002a0 3b 35 86 bd a5 80 99 be 4f c5 90 bf 4e 8a bf 40
       -0.06553122 -0.2998096 -1.1310214 5.985633
0002b0 01 53 37 c1 6b 61 d2 40 7f c9 d2 3f 56 53 1a c0
       -11.457765 6.574392 1.6467742 -2.4113364
0002c0 be 0c b2 bf bc 73 45 3e 28 a6 27 3f c2 b8 61 40
       -1.3910139 0.1928243 0.6548791 3.5269017
0002d0 9e ec 78 3c 0b ee 2a c1 8f ca 72 c1 98 2e 81 41
       0.015193133 -10.683116 -15.174453 16.14775
0002e0 a9 02 5b c1 f0 01 65 40 cb 81 52 41 30 5a 8c c1
       -13.688149 3.5782433 13.156688 -17.544037
0002f0 65 84 7d c1 61 c7 60 be 09 c0 60 be 61 32 7f 3e
       -15.844823 -0.21951057 -0.21948256 0.24921562
000300 38 7a 27 3d fa 8a 2c c1 f4 69 a1 c1 6d 63 45 41
       0.04088804 -10.78393 -20.176735 12.336774
000310 b3 bc 2e 40 64 b1 48 be 97 9e 1c 41 84 ad 90 41
       2.7302673 -0.19598919 9.788718 18.084724
000320 b8 c6 0f 42 70 98 81 3e 0c a5 5c 3e f6 c3 a7 c0
       35.94406 0.25311613 0.21547335 -5.242671
000330 aa 3b 21 3c 36 8d 50 bf 5f a8 6d bf f5 d0 d1 bf
       0.009840885 -0.8146547 -0.9283504 -1.6391894
000340 03 22 ee c0 d4 e3 05 c1 39 7e 8e 41 cf 29 38 c1
       -7.441652 -8.368122 17.811632 -11.510207
000350 1e 35 60 c0 a9 ed 1d bf 95 92 ec 3e fe 8c 01 c0
       -3.503242 -0.61690766 0.46205583 -2.0242305
000360 2c 37 60 bd 7c 08 27 c0 21 fd e2 c0 5e 36 26 3f
       -0.054740116 -2.6098928 -7.0933995 0.6492671
000370 ee 49 17 41 05 0f 19 3f 4e 2e 66 3f aa 22 29 c1
       9.455549 0.59788543 0.89914405 -10.570963
000380 fb 20 5e c1 b0 99 85 3e 97 d0 14 3f 03 65 8f 40
       -13.883052 0.26093817 0.5813078 4.4810805
000390 f5 a6 1f 3c 6a 0e 49 c0 e6 cb 86 c0 bd ed fd 3f
       0.0097443955 -3.1415048 -4.21239 1.9838177
0003a0 4b 08 15 c1 9f d5 bc c0 1a ac d0 c0 2b 58 c3 c1
       -9.314525 -5.901077 -6.5210085 -24.41805
0003b0 e8 e0 0a c0 9b 4d 7d 3e c3 26 02 3f b5 0f 86 c0
       -2.1699772 0.24736635 0.50840396 -4.1894174
0003c0 69 7d af 3b 1d 8b df 3f f8 74 f9 3f 8b 97 84 3e
       0.005355526 1.7464329 1.9488821 0.25896868
0003d0 ab 8c ff c0 fd 50 60 40 57 8a 51 bf b7 5a b6 40
       -7.9859214 3.5049431 -0.81851715 5.6985736
0003e0 33 06 12 bf 66 88 db bd 47 77 df 3e 69 7b 7f 3f
       -0.5704071 -0.10719375 0.4364569 0.99797684
0003f0 18 d2 82 bc 58 a8 75 40 b2 e5 9e bf 5f 58 4a c0
       -0.015969321 3.8384 -1.2413847 -3.1616437

encoder.0.bias f4 [32]
000000 ce 90 39 be 2d ac 3c c0 6b 1f d1 3f 01 33 89 bf
       -0.18121645 -2.9480088 1.6337713 -1.071869
000010 31 04 c1 3f 51 c8 b1 3f 7b 0c bb 3f af 0d 21 bf
       1.5079404 1.3889257 1.4613184 -0.62911505
000020 d3 2b 45 3e 39 e8 d8 bf 3f 49 97 be 9f 1d 9e bd
       0.19254999 -1.6945869 -0.2954807 -0.077204935
000030 28 a7 a5 be b3 ce 1e 40 a0 86 18 be 83 e9 4a be
       -0.32354093 2.481366 -0.14895105 -0.1981564
000040 eb a0 6f be b1 c6 1d bf db 12 87 3d 33 fe 8e be
       -0.23401229 -0.61631304 0.06595393 -0.27928314
000050 90 dc 69 3f ec dd 33 40 3d 2e 82 be be 67 6b 40
       0.91352177 2.81042 -0.25425902 3.678207
000060 a7 fc 73 c0 b0 bf a8 c0 51 e7 57 3f 73 f9 52 3f
       -3.8122957 -5.2733994 0.84337336 0.8241188
000070 40 6a a0 c0 a1 89 54 3e c5 13 10 be 02 3c 07 bf
       -5.01297 0.20755626 -0.14070041 -0.5282594

encoder.2.weight f4 [16, 32]
000000 26 e5 cf 3d 9f ee 25 be 40 4c fa 3c 63 24 ae bd
       0.101511285 -0.16204308 0.030553937 -0.08503034
000010 e5 66 4d 3d cf 8b bc bc 0c 74 88 bd e0 e7 a7 bd
       0.050146956 -0.023015885 -0.06662759 -0.081985235
000020 9a ad d6 bd 6b f6 38 be 5f 29 4d 3d 77 47 48 be
       -0.104823306 -0.18062751 0.050088283 -0.19558512
000030 40 c3 d1 bb 8e a7 65 be 7d af 03 be 58 6d 83 bc
       -0.0064014494 -0.22427198 -0.12859912 -0.01604335
000040 3b 37 6e bd 1c ee 41 be 62 10 08 be 3b e1 f5 3b
       -0.05815814 -0.18938488 -0.132875 0.007503656
000050 23 52 26 be 9a 98 90 be a8 62 0d be 70 1b 39 3d
       -0.1624227 -0.28241426 -0.13807166 0.045192182
000060 6e 32 87 bd 20 43 50 be c3 ab 86 be a7 43 32 be
       -0.066014156 -0.20338106 -0.2630292 -0.1740862
000070 49 1e 01 be eb 00 01 be 8e 1d 53 bc 09 08 1b be
       -0.12609209 -0.12598006 -0.012885464 -0.15139784
000080 54 64 ae bb 1d 8b c3 3c 77 f3 1e bd be a3 10 bd
       -0.0053220186 0.023870045 -0.038806405 -0.035312407
000090 c3 a4 a8 3c d6 c3 a8 39 7c 29 5a 3e 6a b2 dc bb
       0.020586377 0.00032189366 0.21304888 -0.006735136
0000a0 a1 0c b5 3c ba 60 df 39 f8 d1 88 bf 51 d7 e6 3c
       0.022100748 0.0004260594 -1.0689077 0.028178843
0000b0 ef b3 54 3c e0 0a b4 3a d6 8f d2 bc 2c 1e 60 3d
       0.012982353 0.0013736151 -0.025703352 0.054716274
0000c0 3b c2 43 3d 99 3f 3e bc 9a f4 0e be 67 cc 08 3f
       0.047792654 -0.011611843 -0.13960496 0.53436893
0000d0 d2 2d dd 3a 21 8d 10 ba 5f e3 b5 be 4d 03 f5 3c
       0.0016874617 -0.0005514194 -0.35525033 0.0299088
0000e0 2f 64 5d 3d f0 93 17 bd 6a 11 b7 3c 3d 14 59 bc
       0.05405062 -0.03700632 0.02234717 -0.013249454
0000f0 d2 cc 3f 3d db 36 ac 3c 7c 63 44 be 92 6f 08 bc
       0.04682619 0.02102225 -0.19178575 -0.008327382
000100 70 df fc 3a 4f c0 28 3c 8d 04 f9 ba 61 e2 7c bb
       0.0019292664 0.010299756 -0.0018998549 -0.003858708
000110 54 e0 0d bc f4 7d 95 bc 58 0d 98 bc b3 7e c8 3b
       -0.008659441 -0.018248536 -0.01856105 0.0061186193
000120 fa fc 6e bc 43 f2 6b bc 65 06 56 bc bb db 6f 3d
       -0.0145866815 -0.014401021 -0.013063048 0.05855916
000130 48 26 e7 3c 71 25 94 bb cf 88 3e bc c7 53 28 3e
       0.028216496 -0.004521065 -0.011629297 0.16438209
000140 d5 1a af bd bb e2 0b 3f fc 26 3d 3d 2f 9c 3a 39
       -0.0855004 0.5464284 0.046179757 0.00017796525
000150 77 c6 87 3c 08 a6 4e bb bf 41 4b 3e 40 e9 d2 3b
       0.016574128 -0.0031532068 0.19849299 0.006436497
000160 a1 0a 5e 3b 2f cc a8 3b 01 e6 3c 3d 6f 7e ce ba
       0.0033880847 0.0051512937 0.046117786 -0.0015754233
000170 81 a4 cc 3a 69 24 95 3b 5a 3c d1 bd 1b 8c 03 3c
       0.0015612991 0.0045514596 -0.10216589 0.008029009
000180 23 8f 6d 3b 11 b8 a8 bb d5 b7 82 be b0 fa 49 be
       0.0036248646 -0.0051488956 -0.25530878 -0.19724536
000190 67 2f 81 3d 06 ac d4 3d 1f 8e c2 3f 4d 0b 4a bc
       0.063078694 0.10384373 1.5199622 -0.012331796
0001a0 1f 54 c9 3d 2d 90 92 3d 1b 2c 20 3d e7 41 01 3e
       0.09830498 0.071564056 0.039104562 0.12622796
0001b0 be 35 c3 be 56 a2 e6 3d eb 68 20 bb 6f c6 56 3e
       -0.3812694 0.11261432 -0.0024476598 0.20974134
0001c0 a6 cb 0f bd a7 89 04 bd 9a 66 86 3d 19 1e 23 bd
       -0.035106324 -0.032357838 0.065625384 -0.039823625
0001d0 60 db c2 3e 5a 1e 98 3d 1d 80 dd be da 12 90 be
       0.38057995 0.07427664 -0.43261805 -0.28139383
0001e0 11 de e4 3e 5d 63 b3 be 6f 1a eb bd 0e 02 f0 3d
       0.44700673 -0.35036746 -0.11479651 0.11719142
0001f0 8a 43 97 3e 13 ce 67 3e 64 ed ca be f4 c2 30 bd
       0.29543716 0.22637205 -0.3963424 -0.04315467
000200 50 51 16 be d0 30 aa bc 95 5a 17 bd 90 1e d2 bd
       -0.14679456 -0.020775229 -0.03695162 -0.102597356
000210 50 9b 82 3d 53 f1 0a be d7 05 01 be 5a 86 26 be
       0.0637728 -0.1356862 -0.12599884 -0.16262189
000220 29 ac 73 3d bf d9 a2 bd 76 b1 ef 3d b8 de 39 bd
       0.059490357 -0.07951688 0.1170377 -0.045378417
000230 be 0e 67 bd 54 93 d2 bd 5b e9 49 be ba fc cb 3d
       -0.056410544 -0.10282007 -0.19717924 0.09960313
000240 0d d6 99 bd fd 9b bd 3c c5 2e 2a be da fe dd bd
       -0.0751153 0.02314567 -0.16619404 -0.10839625
000250 c8 be 43 be af 37 b7 3d bf b9 08 be 84 81 0b be
       -0.19115746 0.08946168 -0.13352107 -0.13623625
000260 c9 64 0b be 51 31 ce bd 7c 04 ca bd 65 23 e6 bd
       -0.13612665 -0.10068 -0.098641366 -0.1123722
000270 0b 46 a9 bd 72 0c 13 be 88 ab 67 bd 60 8c 38 bc
       -0.08265313 -0.14360216 -0.05656007 -0.011263937
000280 08 38 de b8 e9 4d a3 be 27 d2 1f 3c 07 d3 29 3b
       -0.000105962215 -0.31895378 0.009754694 0.0025913136
000290 03 fb c5 bd 70 79 8b bc d6 a7 85 bd 82 6e 3c 3d
       -0.09667017 -0.01702568 -0.06526153 0.046003826
0002a0 47 64 93 be 86 a7 97 ba a3 9f 9c bc b6 aa ee 3d
       -0.28787443 -0.0011570312 -0.01911909 0.11653654
0002b0 1e 66 b7 bd 87 76 0e 3c bd cf ae 3e 6a f9 1c 3e
       -0.08955024 0.008695251 0.34142867 0.15329519
0002c0 23 59 e1 bd f6 c2 6a 3d b3 48 30 3e 1b 96 74 3d
       -0.110033296 0.057314835 0.17215233 0.059713464
0002d0 3a e9 2b bd f7 6d 64 3b c1 b9 b6 be 62 cd d5 3b
       -0.04197047 0.0034855583 -0.35688594 0.0065247277
0002e0 dc dd 1d be 1f 2a 31 3c f5 92 c2 3c db 2c 4b 3d
       -0.15416664 0.010813265 0.023751715 0.049603324
0002f0 0f ec 58 bc ed d7 f7 3e 6b c2 07 bd e2 be 0e 3e
       -0.0132398745 0.48406926 -0.033144396 0.13940004
000300 ea e4 42 bb 5b 1c 06 3e af 77 95 bc 7c 92 15 bd
       -0.0029738494 0.13096754 -0.018245546 -0.03651665
000310 b5 5b 42 3e 33 f6 84 bd d5 9e 40 3d b5 13 15 bd
       0.18980296 -0.06492271 0.047026474 -0.036395747
000320 2e 61 36 3e ff d8 1b bd f5 ff 16 bd d7 73 4b bd
       0.17810509 -0.03804874 -0.036865193 -0.04967102
000330 25 3f c9 be 40 35 6b bd 38 80 0d be 43 5e 0c 3e
       -0.39305988 -0.05742383 -0.13818443 0.13707833
000340 af 94 64 bb 07 b0 5f 39 88 ce 14 be e3 8a f7 bc
       -0.0034878661 0.00021332513 -0.1453191 -0.030217594
000350 43 66 f5 3e 9e c2 1f bd 22 b5 a3 be 1f 68 2d bd
       0.47929582 -0.03900396 -0.3197413 -0.042335626
000360 ba dc a5 bc 18 62 46 3c 4a 43 02 3e 7c 64 08 be
       -0.020246852 0.012108348 0.12720981 -0.13319582
000370 73 c3 df 3c d1 ec df 3d f5 3e 26 3f 33 e2 ad bd
       0.027314877 0.10933841 0.64939815 -0.0849041
000380 cf 17 aa 3d 2f 90 30 3e 9d c2 96 3e 56 26 f2 3e
       0.083053224 0.17242502 0.29445353 0.47294873
000390 09 37 d5 bd d5 a2 d9 3e e9 a1 d6 bf 95 26 33 be
       -0.10410888 0.42507043 -1.6768161 -0.17495187
0003a0 0c 30 27 3e 0c bb a8 3e d6 25 8a 3d 91 10 8c bd
       0.16326922 0.32955205 0.06745498 -0.06839097
0003b0 06 99 d2 3c 50 8d 49 3e 46 18 3c be bd 70 15 be
       0.025707733 0.19682813 -0.18368635 -0.14593787
0003c0 8c 24 70 3e 36 f0 a1 bd 82 ec f1 bd ce 9e fc bd
       0.23451442 -0.07907145 -0.118126884 -0.12334977
0003d0 5e 01 15 3b 7a 09 d9 3e 80 ec fe bd a4 72 82 3d
       0.002273641 0.42390043 -0.124474525 0.06369522
0003e0 a8 7a a9 be 02 32 a3 3e fe d2 87 bf 8a 04 be 3e
       -0.33101392 0.3187409 -1.0611265 0.37112838
0003f0 4e 47 cc be 8b ae 24 bd 4e e6 52 be 01 15 da bd
       -0.3989815 -0.04020552 -0.20595667 -0.106485374

encoder.2.bias f4 [16]
000000 35 50 ad bd a4 10 48 c0 cc ad bc be e5 6d 78 3f
       -0.08462564 -3.1260157 -0.36851346 0.97042686
000010 ba 2b 1f be cf a4 64 c0 7f 70 fa 40 92 78 dd 3f
       -0.15544024 -3.572559 7.8262324 1.730242
000020 6c cf b2 bf ed 2a 85 c0 24 79 b8 bf f7 db e6 bd
       -1.396955 -4.16149 -1.4411969 -0.11272424
000030 db 44 06 be 31 55 6b c0 8a f9 45 c1 da 9a 4f 3e
       -0.13112204 -3.6770747 -12.373423 0.20273915

decoder.0.weight f4 [32, 16]
000000 08 6f 05 3d 5b c8 8b be 32 9e ca 3c c5 e3 65 bd
       0.03257659 -0.27301297 0.024733637 -0.05612542
000010 a0 24 7d 3d ee ba b7 be 67 7d f0 bd 29 42 54 bd
       0.061802506 -0.35884804 -0.117426686 -0.051820908
000020 73 74 8a be c0 0c a1 be 1a 01 2c be cc 22 7d be
       -0.2704197 -0.3145504 -0.16797295 -0.24720305
000030 7c 79 38 be 39 b5 02 bb e3 c2 1a be 51 f2 88 bd
       -0.18015093 -0.0019944443 -0.15113406 -0.06686843
000040 e9 5d cc 3d ba 88 83 bd 22 f6 8f 3f cd e6 24 3c
       0.099788494 -0.06422563 1.1246989 0.010064793
000050 d4 31 71 bc a0 f4 ba 3e fa 0b d2 be b0 a4 4b bf
       -0.014721353 0.3651476 -0.41024762 -0.7954817
000060 9b ee 7f 3e e4 8d db 3d 03 b4 90 3e 84 98 d9 bd
       0.24993365 0.10720423 0.28262338 -0.10624793
000070 7f 7c 59 bd 1d 25 88 3d 7e fe 5e 3f 3f 14 40 3e
       -0.053097244 0.06647704 0.87107074 0.18757723
000080 14 35 43 3e 25 d9 04 3e 5c 1b 1e 3e 3b 52 3a 3d
       0.19063216 0.12973459 0.15440124 0.045488577
000090 8b 89 f4 3d bc 29 22 be fb 5f 8f 3f 71 ba 82 3f
       0.11940297 -0.15836233 1.1201166 1.0213147
0000a0 85 65 4e bf 95 2d 07 3e 2f b2 bc 3e dc bc 90 be
       -0.80623657 0.13200982 0.36854693 -0.28269088
0000b0 99 9b 99 3e f1 e2 98 be 1d b5 4b 3f a0 df e8 3e
       0.30001524 -0.29860643 0.7957323 0.45483112
0000c0 b6 7d aa 3d 9c fc 92 bd 3c ee 27 bc 43 48 3d be
       0.08324759 -0.07177088 -0.010249671 -0.18484597
0000d0 e8 27 e4 bd 15 42 1b bc b4 4a 32 3e 5e 97 87 3e
       -0.11140424 -0.009476204 0.1741131 0.26482671
0000e0 63 23 8d 3d 16 67 de 3f b0 e5 f6 3d 79 c6 da bd
       0.06891515 1.7375209 0.12055528 -0.10682387
0000f0 92 4a d7 3d 41 42 fb 3d fd 08 0f be a3 90 18 bd
       0.1051227 0.12268496 -0.13968273 -0.03724731
000100 7e e7 25 3c 31 bd 00 bd 30 19 36 3c cb 6f 07 bf
       0.010125993 -0.031430427 0.011114404 -0.5290496
000110 87 f8 2e 3e ff 8e 76 bd 4c 28 1f bd dc 65 0b 3f
       0.17086993 -0.060194965 -0.03885679 0.544523
000120 b1 c6 aa be cc 31 d9 3d ed be cd 3e d1 41 46 be
       -0.33354715 0.10605201 0.40184727 -0.19361044
000130 d2 38 f1 bd 0a 22 84 3e 3a 6c 59 3f 14 fb a8 bc
       -0.11778416 0.2580722 0.84930766 -0.020627536
000140 f5 1b 4b 3c ca 3a f9 b8 cc 2f 9f 3d 28 5b 03 3d
       0.012396802 -0.000118841956 0.077727884 0.032069355
000150 c4 b5 56 be 58 5e 55 bc aa ca b2 3f 0a 6b 31 bf
       -0.20967776 -0.013022982 1.3968098 -0.69303954
000160 29 91 60 3e e8 61 22 be 7f 67 7a 3f f6 8c 01 3e
       0.21930374 -0.15857661 0.9781417 0.12651429
000170 6e 49 c4 bd 65 67 c0 3d a1 70 a5 3e f4 b6 90 3e
       -0.09584318 0.09394721 0.32312492 0.28264582
000180 96 7d 37 be 21 f2 5c be 8a db 7d be 98 3a e6 bb
       -0.17919001 -0.2157674 -0.24790779 -0.007026028
000190 a8 44 16 be d5 b1 56 be 57 37 ee bc 54 61 33 3e
       -0.14674628 -0.20966275 -0.029079122 0.17517596
0001a0 99 3c 50 be f6 5d 5e 3c 36 08 59 be 60 ce 3e 3e
       -0.20335616 0.013572207 -0.21194538 0.18633413
0001b0 c2 4e 6d be 3b 31 6b bd e6 c6 74 be ba 8a e5 3c
       -0.23174575 -0.057419997 -0.23903999 0.028020252
0001c0 a1 0e cb bd 34 35 30 bd a4 e3 15 bd 41 4f 40 be
       -0.099148996 -0.04301949 -0.03659405 -0.18780233
0001d0 f6 16 ba bc b0 0f 40 3d bd a8 04 3d ce da c7 bd
       -0.022716027 0.04688996 0.032387484 -0.097585306
0001e0 c1 c0 e3 3d a7 61 b7 3e 16 22 c0 3d df 40 1b bc
       0.11120749 0.3581669 0.093815014 -0.009475916
0001f0 d0 0b 52 be f6 52 4b 3e d6 39 60 bd 62 52 b0 3d
       -0.20512319 0.19855866 -0.054742657 0.08609463
000200 90 83 09 3d cb 58 b7 3e 68 5c 52 bc 8b 75 63 bf
       0.033572733 0.3580993 -0.012839414 -0.8885123
000210 64 4c 86 be 9e d5 03 bd 1f 2a b9 be 51 ea c6 be
       -0.26230156 -0.032186143 -0.36164948 -0.38850644
000220 4f 76 dc 3e b4 74 80 3d 55 86 32 3f 7a f9 1f bd
       0.43059012 0.06272259 0.69736224 -0.03905628
000230 d7 88 4d 3d 94 de a7 bc 08 34 6e 3f d2 1a bc 3e
       0.05017933 -0.020491876 0.93048143 0.36739212
000240 f5 9b 15 3e 76 aa 0b be 3a 69 a3 3c 0c ed 49 bf
       0.14610274 -0.13639244 0.019947637 -0.7887733
000250 a0 85 e8 bd d7 58 33 bd 9d f9 f3 3c 8d b6 9f 3f
       -0.11353612 -0.043785896 0.02978211 1.2477585
000260 5c 68 03 bf 0c 3e 42 3d ce c2 b3 be 46 28 6a 3d
       -0.51331115 0.047422454 -0.35109562 0.057167314
000270 ce ea 60 be 0e af 8a 3d ca 94 83 3f d5 a0 71 3e
       -0.21964571 0.0677167 1.0279782 0.23596509
000280 7f c6 01 be 37 c4 c5 3f 14 37 c3 ba 8d 44 a5 bd
       -0.12673377 1.5450505 -0.0014893734 -0.08069716
000290 49 8a 1e 3d 6f d5 88 3c e4 3e fc 3c 05 49 d5 3c
       0.038706098 0.016703336 0.030791707 0.026035795
0002a0 4f 1d 9d bd 49 79 19 3d 60 c2 e6 bb 2b 84 4b bd
       -0.07671606 0.037469182 -0.0070422143 -0.049686592
0002b0 24 a8 94 bd 75 6d bd 3c 94 19 63 3d 5c 0b 04 be
       -0.07258633 0.023123482 0.055444315 -0.12894958
0002c0 e8 02 30 bb bd 5d ff 3a 0d 8a ca 3d 40 b8 6f 3f
       -0.00268572 0.0019482892 0.09889612 0.9364052
0002d0 cb 17 b3 bc c4 9f a1 bd 11 83 b3 bd b0 84 90 3f
       -0.021861931 -0.07891801 -0.08765233 1.1290493
0002e0 16 48 4d bf 96 7e c6 bd 3b b2 3c bf 67 46 4a 3e
       -0.8018812 -0.09692113 -0.7370946 0.19753419
0002f0 66 bb f0 bd 05 31 c0 3d b9 e0 fa bd 62 dd be 3e
       -0.117544934 0.0938435 -0.12249894 0.37278277
000300 f5 cd 9a 3b 40 49 3f 3e 35 52 a6 3f 8f aa 22 bd
       0.004724259 0.18680286 1.2993838 -0.03971344
000310 38 f8 23 3d d8 e0 18 3d 34 83 e9 3d 5a 97 46 3e
       0.04003164 0.037323803 0.11401978 0.19393674
000320 3d 6f 17 be 4f 2a a6 bd c2 cb 46 3d 4e 09 4e 3e
       -0.14788528 -0.081135385 0.048534162 0.20120737
000330 25 cb 15 3e 09 ea 01 3e 37 0a 64 be 58 20 dd 3e
       0.14628275 0.12686934 -0.22269522 0.4318874
000340 8d dd bf 3d c1 11 94 3d 05 f3 50 3e 44 87 a8 3f
       0.09368429 0.07229949 0.20405205 1.316628
000350 da 65 2a 3e 0f 02 af 3e a5 62 28 bd 84 95 06 bf
       0.16640416 0.34181258 -0.0411097 -0.5257189
000360 b0 04 93 3f 7a 68 9b 3e 38 ba 5a bc 68 0b 6f bd
       1.1485806 0.30353147 -0.013350062 -0.058360487
000370 3b 8f 95 3d 69 d1 75 be 5b 2d 94 be ee ea 87 be
       0.0730271 -0.24005665 -0.28940853 -0.26546425
000380 0a de 76 3d 9c 60 83 bc fe 8a b1 bd d5 6c 8c 3e
       0.060270347 -0.016037278 -0.08669089 0.27426782
000390 1a 02 68 3e 9f aa f6 3f 33 44 92 3e d5 ec 39 3e
       0.22657052 1.927082 0.28567657 0.1815675
0003a0 ff 60 59 be c9 a3 21 be 8f a7 48 bd 0b 7a 1b be
       -0.21228407 -0.15785135 -0.04898792 -0.15183274
0003b0 e4 4f 9f bd 9c 8c c1 3e 32 95 da bd f4 8b df bd
       -0.0777891 0.3780259 -0.10672988 -0.10915366
0003c0 69 34 f3 3c 04 f6 07 3c a5 3a 9f 3e f9 74 91 be
       0.029688077 0.008298401 0.3109943 -0.28409556
0003d0 20 4c 10 be eb 27 e2 bd 29 59 4b 3f 39 ab 09 3f
       -0.1409154 -0.1104277 0.7943292 0.5377689
0003e0 ef ae be bd c0 ca 21 3d 77 1f 07 be b6 f4 9f bd
       -0.0931071 0.039499998 -0.13195597 -0.07810347
0003f0 f2 0f 4f be 52 4b e4 3c b4 ce 35 bd 63 00 f7 3e
       -0.20220926 0.027867947 -0.04438658 0.48242483

decoder.0.bias f4 [32]
000000 ed c4 71 bd 96 af 17 43 e1 37 69 43 d7 4a 53 43
       -0.059025694 151.68588 233.21828 211.29234
000010 24 bc 40 43 bc 9c ce 43 3e 1d 98 be 42 f8 0c c4
       192.73492 413.2245 -0.2970981 -563.879
000020 5d e2 32 c3 ff bd 89 c3 8c 76 d0 c1 04 7d 8b c2
       -178.88423 -275.48434 -26.057884 -69.74417
000030 c0 2f 60 c2 15 60 8d 43 2a 4a 14 43 eb fd c7 43
       -56.04663 282.75064 148.2897 399.98373
000040 a5 71 a4 c2 03 09 9a be 00 bc bf bd 49 01 09 c1
       -82.22196 -0.30085 -0.0936203 -8.562814
000050 0c 92 96 be c6 aa 82 43 bc d3 b1 c3 7b 81 b2 c3
       -0.294083 261.33417 -355.65417 -357.01157
000060 d1 60 44 c3 8d b2 94 43 9b 11 de c2 bf 38 99 c2
       -196.37819 297.39493 -111.034386 -76.61083
000070 5a 7e 1b 42 16 42 93 c3 7e 65 83 43 7b 3a e1 c3
       38.87339 -294.5163 262.7929 -450.45688

decoder.2.weight f4 [60, 32]
000000 7e 8d df 3d 8f 46 8b 3e 4f ab 04 3d 43 b0 ef bd
       0.10915659 0.2720227 0.032389935 -0.11703541
000010 e3 ee d9 bd 1e 96 27 be e9 a4 a1 bd f0 b5 a9 3d
       -0.10641267 -0.16365859 -0.07892782 0.08286655
000020 86 4a 81 bd 9d 8a 0d 3d 9b a1 a2 be 8e 26 c9 bd
       -0.06313042 0.03455602 -0.3176392 -0.09821807
000030 b4 fe 75 bd 3b cb 8c 3d 02 e2 86 3f 40 c4 76 bc
       -0.060057357 0.06874701 1.0537722 -0.015061438
000040 7f eb d3 bc e5 5f 31 3e 4a be 11 be 16 cf c8 3d
       -0.02586913 0.17321737 -0.14232746 0.098051235
000050 ad b9 81 be 9e 64 1c be fa 07 c5 bd 96 3b 52 be
       -0.25336972 -0.15272757 -0.09620662 -0.20530543
000060 fc 74 80 3d cc 6e 8b 3d c5 cd 83 3f ea 05 63 bc
       0.06272313 0.06808242 1.0297171 -0.0138563905
000070 7e f5 04 bd d3 3b 3b be f5 2c ab 3d d8 fd fe 3b
       -0.032460682 -0.1828454 0.08358184 0.0077817254
000080 5f 7b ff bd ab e2 1d 3b 21 6f 48 3b 21 d9 88 3a
       -0.12474703 0.0024091403 0.0030583816 0.0010440686
000090 67 a0 bc ba 22 f4 cb 39 22 ee 58 3e fb 12 12 bb
       -0.0014391065 0.0003890107 0.2118459 -0.0022289145
0000a0 85 73 22 bb 6e 71 c6 ba 2e b7 9e b9 fc ec 9e ba
       -0.0024788093 -0.0015140006 -0.00030272588 -0.001212507
0000b0 5b 36 ec ba 48 0b 49 3a b9 ca 07 3b 08 d2 30 39
       -0.001802157 0.00076692225 0.0020720197 0.0001686291
0000c0 02 17 96 b9 cf c9 54 bd b3 69 a5 3d 28 0d 93 3a
       -0.00028627372 -0.051950272 0.08076801 0.0011219131
0000d0 92 05 33 3e ac 45 20 3b 54 92 63 bb aa ba 82 bb
       0.17482594 0.002445559 -0.003472467 -0.0039895372
0000e0 7d 0b 08 3a f4 ce 1d 3b a3 82 28 bb 64 42 9b 3a
       0.00051897 0.0024079653 -0.0025712631 0.0011845347
0000f0 fc 56 e6 38 73 f8 09 bb 12 b9 b5 3a 7a dc 0a bb
       0.00010983457 -0.0021052628 0.0013864359 -0.0021188543
000100 4a b0 0b 3e 9d 6b 37 3b 96 f7 64 3b a6 54 af 3a
       0.13641468 0.0027987726 0.0034937612 0.0013376668
000110 c5 e2 e1 ba bf 26 1c 3a 12 30 ed bd d2 58 35 bb
       -0.001723372 0.00059567014 -0.11581434 -0.002767135
000120 47 79 43 bb e5 7f e2 ba a7 e8 b4 b9 7a 80 ba ba
       -0.0029826926 -0.0017280547 -0.00034505615 -0.0014228963
000130 a3 2b 08 bb c1 38 4c 3a 26 4c 26 3b 9f e8 75 39
       -0.0020777963 0.00077904394 0.0025374978 0.00023451679
000140 73 29 a6 b9 1b 87 2f be b6 54 e5 3c b9 99 b6 3a
       -0.0003169287 -0.17141382 0.027994495 0.0013931311
000150 54 3d dc 3d 20 74 49 3b c3 67 87 bb bd 61 9c bb
       0.10753885 0.0030739382 -0.0041322424 -0.0047723935
000160 96 98 18 3a 0f 34 3a 3b 09 67 4d bb 5a 16 b0 3a
       0.0005821077 0.0028412377 -0.0031341931 0.0013434396
000170 e6 c3 c8 37 0f 22 2c bb ca 78 d2 3a 0d cb 1f bb
       2.393308e-05 -0.0026265418 0.0016057726 -0.0024382502
000180 c6 5b 0b 3e 14 dd 61 bb 4c 7d 61 bb dd 60 db ba
       0.13609228 -0.0034464048 -0.0034406958 -0.0016737242
000190 46 8c 03 3b 9d ff 43 ba d4 87 1a be bf e2 62 3b
       0.0020072623 -0.0007476749 -0.15090877 0.0034620014
0001a0 1f 1b 61 3b d4 0e e7 3a 27 d3 9b 39 f9 c0 c5 3a
       0.003434844 0.001762832 0.00029721225 0.0015087418
0001b0 a3 55 04 3b e6 2b 54 b9 3a ca 30 bb 1f 73 8f b9
       0.0020192645 -0.00020234249 -0.0026976005 -0.00027360857
0001c0 85 f4 19 3a 12 97 14 3d 35 66 d8 bd cc f0 a5 ba
       0.0005872923 0.036276884 -0.105663694 -0.0012660264
0001d0 7d 62 ac 3d 98 a7 7d bb 15 c8 92 3b 20 9d 9f 3b
       0.08417223 -0.003870463 0.004479418 0.0048710257
0001e0 d0 3c e7 b9 2d b1 39 bb 36 7a 6e 3b 3c 41 b8 ba
       -0.00044105062 -0.0028334365 0.0036388761 -0.0014057527
0001f0 9e 5f 86 39 36 a7 5a 3b 0a e7 f6 ba f8 8d dc 3a
       0.00025629712 0.0033363826 -0.0018837166 0.0016826978
000200 2b 40 81 3d 5d 4f 81 38 5e 62 a1 ba ef 36 fe 38
       0.06311067 6.165982e-05 -0.0012312641 0.00012121896
000210 e3 f9 83 b9 b2 7d 80 3a 7d a0 66 3d dc bd a2 39
       -0.00025172447 0.0009803085 0.056305397 0.00031040504
000220 e2 fe 41 39 ab 39 08 3a 89 f2 6c 39 8d a4 46 3a
       0.00018500866 0.00051965815 0.00022597065 0.00075776206
000230 f1 f2 a2 ba 4e 0c 50 ba 42 e5 76 ba 94 5c 4b 3a
       -0.0012432021 -0.0007936404 -0.00094183173 0.00077576307
000240 1b bc c3 39 9d 8a cc bd ac 73 15 be 56 bf 7f 3a
       0.00037333448 -0.09987376 -0.14594907 0.00097559893
000250 e3 93 17 3e 88 76 05 b9 4d cb 5b b9 35 f6 87 39
       0.14802508 -0.00012728025 -0.00020961203 0.00025932645
000260 46 d3 ba b8 51 2b 86 39 bd 2d ee 3a 1f 5f a8 b8
       -8.908524e-05 0.00025590745 0.001817159 -8.028582e-05
000270 ea 77 e4 38 86 33 08 3a 2a 25 88 ba 31 8e 40 ba
       0.00010894223 0.0005195666 -0.0010387052 -0.0007345407
000280 5d 46 f2 bd d1 e6 71 ba 09 07 c7 3a 65 29 c6 ba
       -0.11829827 -0.0009227815 0.0015184592 -0.0015118538
000290 1d 1d 6e b9 df 85 91 ba 1c 7a 8d be 93 72 5a 3a
       -0.00022708294 -0.0011102519 -0.27632225 0.0008333113
0002a0 ac 54 e0 39 06 3d fe 38 ec 80 ac ba 39 b4 a8 ba
       0.00042787695 0.0001212303 -0.001316098 -0.0012871093
0002b0 75 0c 14 ba 6d 7b 01 3b 23 fd cc ba 95 92 ef b9
       -0.0005647608 0.0019757405 -0.0015639405 -0.00045694844
0002c0 4c 81 88 3a db a3 45 bd 5e 69 e1 bd 63 8b 04 b9
       0.001041451 -0.048251968 -0.11006425 -0.00012640427
0002d0 08 22 bd 3c 2d 96 01 bb df 0c 22 39 d1 5a 89 b9
       0.023087516 -0.001977335 0.00015454319 -0.0002619834
0002e0 a6 81 cd 39 3d 2a a3 3a 5d a3 f9 3a 62 da e7 b9
       0.00039197243 0.0012448501 0.0019045878 -0.0004422246
0002f0 4e 0f f8 3a 55 44 e7 38 b9 49 39 3b 5f 30 d5 ba
       0.001892546 0.00011027666 0.0028272702 -0.0016265026
000300 e1 e9 21 bc ce a3 ad 39 b6 4f 4a 3b ca 5d 9b ba
       -0.009882421 0.00033119175 0.0030870265 -0.0011853513
000310 df 6a a0 b9 b8 09 29 bb 12 3a 6c 3d f5 5e 59 ba
       -0.00030597203 -0.0025793146 0.057672568 -0.0008292043
000320 82 23 06 ba f5 0f 2d ba 54 03 6e ba ce 72 d8 ba
       -0.00051169854 -0.0006601804 -0.00090794754 -0.0016513707
000330 2c 2e 91 b9 19 51 87 3b 13 55 73 b9 d4 ae 23 3b
       -0.00027690956 0.0041295406 -0.00023205979 0.0024976032
000340 ed 11 a3 39 ca 94 97 bc 68 47 d2 3d f6 97 1a ba
       0.00031103138 -0.018503565 0.10267526 -0.0005897278
000350 01 a5 34 3e 66 9e 04 3a 48 35 89 ba 6a d7 09 bb
       0.17641069 0.00050590036 -0.001046815 -0.0021032938
000360 09 bc d1 b8 c0 3e b1 36 3e 10 df 36 07 d8 89 b7
       -0.00010000921 5.282316e-06 6.6478087e-06 -1.6432268e-05
000370 53 0b da 3a 8d 30 dd ba d6 27 df 3a 03 12 cf ba
       0.0016635455 -0.0016875431 0.0017025422 -0.0015798215
000380 f8 81 86 3d 37 59 a1 ba 38 1a a1 3a c6 b5 0c 3b
       0.06567758 -0.0012309913 0.0012291139 0.002147065
000390 aa cd 8e 39 92 33 11 ba e9 ce a3 3d ea c1 d1 b9
       0.00027237582 -0.00055389956 0.07998449 -0.00040008064
0003a0 5a 8d ab ba be 09 b1 ba 87 a5 a8 3a 43 63 82 ba
       -0.0013088391 -0.0013506932 0.0012866714 -0.0009947795
0003b0 c8 13 8f 3b c4 ea 7d bb bb ef 64 3b 66 c2 02 bc
       0.004366372 -0.0038744668 0.003493293 -0.0079809185
0003c0 df 27 00 bb c5 16 72 3d a2 be 25 3d d4 6a 84 39
       -0.0019555015 0.059103746 0.040465005 0.00025256595
0003d0 a5 3f 5c 3d d9 02 53 3b b2 70 9b 3a 04 ac 3c 3a
       0.053771634 0.0032197742 0.0011859147 0.0007197263
0003e0 26 3c 2b 3a 11 6a 67 ba 3b 36 a1 bb 31 2e 29 3a
       0.0006532095 -0.0008827756 -0.004919795 0.00064537214
0003f0 c4 47 32 bb ca 61 a2 3a f3 17 32 bb 51 6c 6e 3b
       -0.002720342 0.0012388763 -0.002717492 0.003638048

decoder.2.bias f4 [60]
000000 53 f5 d4 c1 2b 0b 83 43 b4 ab 7d 43 d3 65 82 c2
       -26.619787 262.08725 253.67072 -65.198875
000010 0f 1e ac 41 c0 ad 56 43 e7 3d 55 43 df f2 57 41
       21.514677 214.67871 213.2418 13.496795
000020 71 72 f1 41 cf 7a e0 c3 f5 ec db c3 a7 ac 1d 43
       30.18088 -448.95944 -439.85123 157.67442
000030 cd 1a db c1 1d 5c 86 43 c4 ba 84 43 94 fa 93 c2
       -27.388086 268.71964 265.4591 -73.98941
000040 6e dd 0c 42 39 d9 4e 43 87 ec 3a 43 90 16 b1 41
       35.21624 206.84853 186.92393 22.136017
000050 60 c4 3f 41 52 2e 47 43 cc 81 37 c3 3b 18 aa 41
       11.985443 199.18094 -183.50702 21.261831
000060 5c a0 ab 40 e9 56 7a 43 fe 75 70 43 f5 af 49 c2
       5.363325 250.3395 240.4609 -50.421833
000070 ac 90 b6 41 d0 fc 4d 43 28 88 42 43 6f 9f 4b 41
       22.82064 205.98755 194.53186 12.726424
000080 ef 76 f2 41 7e 89 11 43 22 31 ad 43 fd 64 af 42
       30.308073 145.53708 346.38385 87.69724
000090 60 ad 61 c1 44 5e 8d 43 9b 08 8b 43 61 86 b6 c2
       -14.104828 282.73645 278.06723 -91.26246
0000a0 05 81 fb 41 cc 90 32 43 b8 49 32 43 33 5a a3 42
       31.437998 178.56561 178.28796 81.67617
0000b0 d4 a2 46 42 85 19 67 43 65 3d 05 44 fd b9 c8 43
       49.65901 231.09969 532.9593 401.45303
0000c0 0a f4 6b c1 49 b6 84 43 39 f1 80 43 7d 0d 8b c2
       -14.74708 265.4241 257.88455 -69.526344
0000d0 84 87 b6 41 63 aa 44 43 46 9e 4d 43 1e 34 51 42
       22.81617 196.66557 205.61826 52.300896
0000e0 e5 92 43 42 51 38 20 c3 a0 aa 8f c3 ba ee a5 43
       48.89345 -160.21999 -287.333 331.86505
