autoencoder_model.pth (torch, 70238 bytes, 24 tensors)

encoder.0.weight f4 [32, 60]
000000 1d fd 69 bd a6 4a c9 3e df a7 d0 3e 8f c6 df be
       -0.057126153 0.39314765 0.40753075 -0.43706176
000010 27 7d e7 bf 77 c2 4c be 88 76 02 bf b3 61 1a bf
       -1.8085068 -0.19996057 -0.50962114 -0.6030533
000020 b2 82 36 bf b2 55 85 3f 13 30 f3 3f d1 ce d0 3d
       -0.71293175 1.0416777 1.8999046 0.10195697
000030 70 81 ac 3d 65 93 3c c0 f8 68 32 c0 37 24 35 40
       0.08423126 -2.9464962 -2.7876568 2.8303354
000040 f5 4b dd bf d3 64 b2 3e 6a 49 3a 3d 8c 80 1f 3f
       -1.7288805 0.34842548 0.04548017 0.6230552
000050 02 30 5f 40 7c a9 66 3f d7 c8 be 3f 2d 0d 64 3d
       3.4873052 0.9010236 1.4905041 0.055676628
000060 82 7a b6 bb db c7 1c bf 36 8f 39 bf 37 14 3a 3f
       -0.0055688033 -0.61242455 -0.7248415 0.72687095
000070 fe 67 ae 3e a4 a2 44 bf 8e 98 9a bf 0d 41 89 3f
       0.34063715 -0.7681067 -1.2077806 1.0722977
000080 bc 24 ad 3f ac e4 ee bf b5 89 22 c0 ed 0d 3d bd
       1.3526835 -1.8663535 -2.539655 -0.04615586
000090 54 65 f4 3c 4e e1 59 3f 49 41 3d 3f 20 9f 78 bf
       0.029833473 0.8510941 0.7392774 -0.97117805
0000a0 3c 8d de 3d 77 76 20 3f 35 36 e1 3f 28 ab c1 3f
       0.10866782 0.62680763 1.7594668 1.5130358
0000b0 7c 2a f6 3f 02 35 89 3d 8e ce 9d 3e 86 7a 44 bc
       1.9231715 0.066995636 0.3082165 -0.0119921025
0000c0 92 00 a9 bd 76 95 d1 bf 49 40 b8 bf b5 02 b9 3f
       -0.08252062 -1.6373737 -1.4394618 1.4453951
0000d0 3b 82 9e 3e bd 7f b4 3f 6f 58 32 40 91 6a 12 bf
       0.30958733 1.4101483 2.7866476 -0.5719386
0000e0 54 6f e6 3f 0c de 29 bf 3d 3a 9a 3f 6a c3 dc 3c
       1.8002725 -0.6635444 1.2049023 0.02694865
0000f0 bc b3 25 bf ed e3 7e 3f 23 0d 88 3f 8d f6 94 bf
       -0.6472738 0.9956654 1.0629009 -1.1637741
000100 a6 dd c5 3f 45 53 ed 3f 00 24 17 40 3a d2 5b be
       1.5458267 1.8541037 2.3615723 -0.21466914
000110 8d c4 5c 3f 56 64 42 3d af 71 a9 3d 57 b1 89 bd
       0.8623741 0.04745897 0.082736365 -0.06723278
000120 65 32 f0 bf ce 0a 64 3e 05 35 ed 3d 85 be 19 be
       -1.8765379 0.22269747 0.11582378 -0.15014084
000130 4b 31 29 bf b4 af 8d 3f c3 6c 07 3e 70 c0 fd be
       -0.6609084 1.1069245 0.13225083 -0.4956088
000140 2c f5 89 40 48 98 48 c0 e3 7f 03 40 bd bd 4e bd
       4.311178 -3.1342945 2.0546806 -0.050473917
000150 9b 86 e9 bf 61 1d ae 3f af 74 ae 3f c2 68 ad bf
       -1.8244203 1.3602716 1.3629359 -1.3547595
000160 22 b5 b9 bf d8 e7 33 3f ef af 98 3e f3 08 75 3e
       -1.4508402 0.7027564 0.29821727 0.23929195
000170 97 bc 07 40 d1 8a 04 c0 bd f0 20 c0 96 af a0 3c
       2.1208856 -2.0709727 -2.5146935 0.019614976
000180 8c 51 23 bf d3 5e 95 3f 54 cd 8f 3f 62 11 93 bf
       -0.63796306 1.1669563 1.1234536 -1.148968
000190 fe 22 0b c0 cd 25 9d 3f f8 1f 79 3f 25 9f 2b bf
       -2.1740108 1.2277161 0.97314405 -0.6703971
0001a0 d4 6a e3 3f 5a f0 16 3d 88 43 26 3f 7d 79 8f 3c
       1.7766976 0.03685031 0.64946795 0.017513985
0001b0 42 c4 1d 3e 04 be 75 bc 4d 49 08 be 58 6c 18 3e
       0.15406898 -0.014998917 -0.13309212 0.1488508
0001c0 e6 95 02 40 99 f2 a0 3d 89 a7 ec bb 3f f6 62 bf
       2.040399 0.07858772 -0.00722212 -0.8865699
0001d0 aa cd 97 3f 6b e9 ad 3e 91 ea 12 3f 81 49 24 bc
       1.1859639 0.33967146 0.5738917 -0.01002729
0001e0 33 2d 21 bf 94 f5 ea bf 0f cb eb bf 37 25 e0 3f
       -0.62959594 -1.8356194 -1.8421344 1.7511357
0001f0 b1 2e e1 3f f0 23 d3 bf 3b b1 83 c0 99 d3 01 c0
       1.7592374 -1.6495342 -4.1153846 -2.02854
000200 ed 7c 19 3e be 9b 8a 3f 56 76 13 3f a0 6f 72 bd
       0.14989062 1.0828779 0.5760244 -0.059188485
000210 50 47 de bf e4 ae 16 3f b4 6f 1c 3f be 6f 0b bf
       -1.7365513 0.5886061 0.61107945 -0.5446738
000220 4b f0 c0 3f 15 58 df 3f e9 2b 10 c0 ba f9 83 c0
       1.5073332 1.7448756 -2.25268 -4.124234
000230 f5 94 c5 be f9 c4 a8 be 9b 85 a8 be 85 a1 0c 3d
       -0.38590208 -0.32962778 -0.32914433 0.034333725
000240 6a c2 d5 3f 99 e5 e5 3e e4 62 d9 3e 43 1d f5 be
       1.6699955 0.44901732 0.4245826 -0.47873887
000250 51 04 de bf 8e 29 10 40 ea 1a 82 3f 20 40 cb bf
       -1.7345067 2.2525363 1.0164464 -1.5878944
000260 cc c1 4f bf 83 d5 b1 3f 0c 09 87 3f 62 a1 f8 bd
       -0.81155086 1.3893284 1.0549636 -0.12140156
000270 f9 b0 7e 3f 93 95 bb 3f 72 a9 c4 3f 89 07 cd bf
       0.9948879 1.4655021 1.5364211 -1.6017925
000280 a7 4b a7 3f 0f 2e 09 40 49 a2 07 bf 35 94 87 3d
       1.3069962 2.1434362 -0.52982 0.06620065
000290 bc e9 9c 40 f7 0c 5b bf 0c f2 c9 bf bf 81 45 3c
       4.903532 -0.8556666 -1.5776992 0.01205486
0002a0 a3 dc 3c be 99 ce aa 3f 4f 4a ab 3f ef 09 9f bf
       -0.18443541 1.3344299 1.3382052 -1.2424906
0002b0 69 c4 bb bf c1 25 4d 3f ea 4a 3c bf 54 81 34 bf
       -1.4669315 0.8013573 -0.7355181 -0.7050984
0002c0 1d 8b 9d 3e 44 e5 05 c0 b0 9d 00 3f 64 e7 59 bf
       0.30770198 -2.0921183 0.5024061 -0.851187
0002d0 cc 77 c7 bd 8e ae 41 c0 2f f3 3a c0 a8 55 3a 40
       -0.09739646 -3.026279 -2.9210927 2.911478
0002e0 aa bd 6b 40 82 f7 96 bf b5 e7 a1 c0 75 e5 13 40
       3.6834512 -1.1794283 -5.0595345 2.31088
0002f0 8a 8d 14 40 27 36 ea bf e1 fd a1 bf f5 90 c3 3e
       2.3211389 -1.8297776 -1.2655603 0.3819653
000300 e1 97 f3 3e ad 80 e5 3d eb 34 0f bd 82 35 21 bd
       0.47576812 0.112061836 -0.034962576 -0.03935767
000310 c8 b4 88 3f 71 c9 da 3f 12 71 44 3e 63 8f 99 3f
       1.068017 1.7092725 0.19183758 1.1996883
000320 6e da d9 3e 82 36 c4 3f 07 13 fc 3f 20 f9 9e 3e
       0.4254946 1.5329134 1.9693307 0.31049442
000330 62 b5 ec 3e 8d 77 56 3f 32 c5 4c 3f de b2 35 bf
       0.46232134 0.8377617 0.79988396 -0.70976055
000340 56 93 0e c0 57 f7 73 3f 59 e2 09 40 b9 40 b5 3f
       -2.2277427 0.95299286 2.1544402 1.4160377
000350 df a7 7f bf ce 1c 08 3f bb 74 f9 3d 2d 0b 44 bd
       -0.99865526 0.5316895 0.12180468 -0.04786222
000360 a9 21 50 bd ca 38 2c bc 21 79 f8 ba 2a df 18 bd
       -0.05081335 -0.010511586 -0.0018956998 -0.0373222
000370 61 34 5d 40 ca 35 b2 bf 24 ca 1c be 79 7e ff bf
       3.456322 -1.3922665 -0.15311486 -1.9960471
000380 c1 41 6d 40 f9 dd 12 bd fe e8 15 3f 6a 2a a1 3f
       3.7071383 -0.03585622 0.5855864 1.2591069
000390 4c 31 31 be 07 50 91 bd 2f 45 4f 3d 27 b0 e9 bd
       -0.17303962 -0.07095342 0.050603088 -0.114105515
0003a0 4b 31 26 c0 73 de f3 bf df 24 0a bf 14 24 d1 bf
       -2.5967586 -1.9052261 -0.5396251 -1.6339135
0003b0 c1 8f 27 c0 83 a0 78 be 71 56 9d bd 74 14 0b c0
       -2.618149 -0.2427998 -0.07682503 -2.1731234
0003c0 6a ea a4 3e 1c e9 f7 bf 80 f5 f8 bf e8 ea f6 3f
       0.32210094 -1.9368014 -1.9449921 1.9290438
0003d0 06 ff 07 40 1d 01 42 be 9b 26 f6 3f a0 00 ea 40
       2.1249404 -0.18945737 1.9230531 7.3125763
0003e0 7f 7d 0a 40 42 6f 9b bf bb 6c b9 bf c7 75 b6 3c
       2.1639097 -1.2143328 -1.4486307 0.022272957
0003f0 88 81 31 be 4c 06 1d be 9c 59 21 be c2 68 03 3e
       -0.17334569 -0.15334433 -0.1575684 0.1283293

encoder.0.bias f4 [32]
000000 bb d8 ad c0 ba ec 75 c0 d6 7c 34 c0 6f de 0c bf
       -5.4327064 -3.8425736 -2.8201194 -0.55026907
000010 e7 70 28 3f 2e c1 c8 c0 bd 6f 20 3f 05 dc f1 bf
       0.65797275 -6.2735815 0.626705 -1.889527
000020 6a e0 70 be 13 1f 88 c0 7e cf e9 c0 84 51 0d bf
       -0.23523107 -4.2537932 -7.3065786 -0.5520251
000030 f5 7a 8a bf b6 a4 2e 3f 72 21 36 bf 1d 80 fc c0
       -1.0818774 0.6822008 -0.71144783 -7.890639
000040 df 97 37 c0 74 e3 d9 c0 fb d3 27 c1 82 ec ac c0
       -2.8686445 -6.8090153 -10.489253 -5.4038706
000050 53 1c 25 c1 6a 9b 15 c1 f0 7a e8 c0 dd 14 b9 c0
       -10.319415 -9.350443 -7.265007 -5.783797
000060 1d fc a2 be c3 1f 89 3c d6 f7 cf c0 d6 48 a9 3e
       -0.31832972 0.016738778 -6.4990034 0.33063382
000070 a6 95 99 bf 67 f4 eb c0 9c 53 97 3b f7 1a 73 bf
       -1.1998794 -7.3735843 0.0046181213 -0.9496302

encoder.3.weight f4 [16, 32]
000000 77 2b 31 c3 2a 1f 40 c3 ee c9 a0 bb 8c 1f 04 bc
       -177.16978 -192.12173 -0.0049068844 -0.008064162
000010 e8 14 0e be d2 5e e5 c2 0b 94 39 bd 5a 12 31 3c
       -0.13875163 -114.685196 -0.0453072 0.010807598
000020 af 9d a1 3b 0c c4 b0 3b 66 da 44 bc 4b 44 6c bd
       0.0049321274 0.0053944644 -0.012014961 -0.057682317
000030 9f 7e 06 be 76 04 38 bc a6 5f a1 bd 0f 84 af 3c
       -0.1313424 -0.011231532 -0.078795716 0.021425275
000040 60 25 a6 3c 7c f2 d1 bc e5 46 0b 3a d0 69 39 3b
       0.020281494 -0.02562832 0.00053129933 0.002829183
000050 bf bb 3b bb 49 b0 a8 bb a7 62 50 bc c3 b4 83 bc
       -0.002864584 -0.005147968 -0.012718833 -0.016077405
000060 87 d4 91 3c 02 d6 b7 3a f8 34 36 c3 f9 2a b0 bf
       0.017801536 0.0014025571 -182.20691 -1.3763114
000070 bd 48 db bd c0 8a 94 bc 19 c0 5b bc 48 3d 81 3b
       -0.10707233 -0.018132567 -0.013412499 0.003944073
000080 7b 5e 94 3c 5a e0 0a 3c 4d b0 89 3d 2c df 83 be
       0.018111458 0.008476341 0.0672308 -0.25756204
000090 1a fc 5a 3c b4 ee e8 b9 5c ac c5 3c f0 f9 4d 3c
       0.01336577 -0.00044428336 0.024130039 0.012571797
0000a0 b6 f0 06 3e f9 19 9d 3d 4e ad bc c1 51 a3 c8 3d
       0.13177761 0.076709695 -23.584621 0.09796775
0000b0 a6 10 70 3f 3f a0 29 c2 e7 9f c3 3d 7a 40 a6 c1
       0.93775403 -42.40649 0.09551983 -20.781483
0000c0 5a 04 52 3d 20 af 0a 3c 2a 57 95 c1 41 00 9f bc
       0.05127368 0.008464605 -18.66756 -0.0194093
0000d0 5e 42 d3 3e 5d 67 cb 3d 82 9c 5a c1 43 4a 51 3e
       0.41261572 0.09931824 -13.66321 0.20438485
0000e0 f1 7a 23 c2 22 1d a8 3f 5b 3a f4 3d 7e b2 4e bc
       -40.87006 1.3133891 0.11925193 -0.012615798
0000f0 70 61 69 3d 35 09 b5 c0 e0 27 16 c2 35 7b 18 c2
       0.05697769 -5.657374 -37.53894 -38.12032
000100 e8 34 f9 bc 7b d4 7a c2 6b 34 1c 3d 94 ca d9 3d
       -0.030420735 -62.7075 0.038135927 0.10634342
000110 8a 4f a4 3e 8d ef fc 3d 53 fb d8 c1 bb 78 f6 be
       0.32091933 0.12350378 -27.122717 -0.48138985
000120 45 25 05 3e d6 b7 ab c2 99 99 82 3d 86 ac b5 3e
       0.13002498 -85.859055 0.06376953 0.35483187
000130 9e 19 34 3f 82 43 02 3d 78 35 11 3d 21 24 94 3d
       0.7035159 0.03180266 0.035451382 0.072334535
000140 32 c9 1b c2 48 92 0a bf 10 1f 49 3c eb 0f 86 3b
       -38.94648 -0.5412946 0.012275472 0.004091253
000150 a3 06 b8 3c 2f 8b 8e 3d 6e cc 5f 3d 02 66 f2 3d
       0.022464102 0.06960141 0.05463832 0.11835863
000160 91 41 7b bd 23 18 8f 3f 12 1f 16 3d 83 33 c8 c2
       -0.061341826 1.1179241 0.036650725 -100.10061
000170 22 dd af 3c 42 67 10 3e f3 14 89 3d 7e 33 e9 3e
       0.021467749 0.1410189 0.06693449 0.45547098
000180 dc d9 4f bb 55 8c 14 ba 59 c9 1b c3 a6 8e 22 3b
       -0.0031715548 -0.0005666663 -155.78651 0.0024804263
000190 df 9d c0 bc 91 29 fb 3b 8f ca 75 bd ab 8c 2b c3
       -0.023512779 0.007664867 -0.060007628 -171.54948
0001a0 b0 c5 db 3b 6b db ff bd 60 69 d7 3b cb 0f b6 bc
       0.006706916 -0.124930225 0.006573841 -0.022224328
0001b0 33 c9 1a be 51 2d 2d bc 1c c0 ce bd f5 1e fa ba
       -0.15115814 -0.010569886 -0.10095236 -0.0019082712
0001c0 af 33 21 c3 02 b0 1f c3 cb 08 6a 3a 03 ef fe be
       -161.20189 -159.68753 0.0008927702 -0.49791726
0001d0 38 0b 91 3b cf b3 b7 bc 94 c2 10 3c 21 3c b6 bd
       0.004426386 -0.022424607 0.008835454 -0.088981874
0001e0 18 86 83 3c b0 43 9e be c5 50 b0 bd 45 6f 06 3c
       0.016055152 -0.30911016 -0.086091556 0.00820524
0001f0 4a 5c 00 be 10 54 2b bc 7b 15 83 bc 5f ee be 3c
       -0.12535205 -0.010457054 -0.016001454 0.023307024
000200 a7 84 8a 3c e6 a8 e0 be 6e f5 b1 bb e6 75 38 bc
       0.016908957 -0.4387886 -0.005430869 -0.011258578
000210 f1 09 a6 bd e6 3a 04 bb 83 b2 1c be ea 53 f9 3b
       -0.08107365 -0.0020176708 -0.15302472 0.0076088803
000220 f1 75 81 3a 9e 51 ac 3c 84 90 0d bb f2 4d 8c bc
       0.0009877068 0.021035012 -0.002160103 -0.017127011
000230 98 d8 24 be b1 98 a3 bc 61 d0 ae bd ce f9 f6 c2
       -0.16098249 -0.01997027 -0.08535839 -123.4879
000240 3e b7 89 3c a8 dd 43 bd 55 6a 19 3b db ed 9f bb
       0.01681101 -0.04781881 0.0023409326 -0.0048806495
000250 ce 46 31 c3 ba 2f 50 bc 7b e3 90 3a 04 ca d8 bb
       -177.27658 -0.012706691 0.0011054123 -0.006615879
000260 ac e9 02 3d fe 7f c5 bd 3c 43 1f c3 54 de 93 bc
       0.031961128 -0.09643553 -159.26263 -0.01805035
000270 01 0f 46 c3 79 da 0d bd 1d 6d 9d bc 9d ed b6 bb
       -198.05861 -0.03463218 -0.019217068 -0.005582525
000280 6d 1d a2 ba 54 de 95 3b e5 90 40 bd d1 52 db bc
       -0.0012368389 0.0045736227 -0.047013182 -0.026772888
000290 1f e3 9a bd 07 8e 0a b9 86 16 ad bd a2 67 c7 3c
       -0.07562851 -0.00013213615 -0.08451562 0.024341408
0002a0 a1 f0 6d 3c f2 36 c2 bd 0e fc ee c2 11 e1 fb bc
       0.014522702 -0.09483136 -119.492294 -0.030746968
0002b0 49 af 58 be d1 78 11 bc 7d 2c b5 bb 82 34 c7 3b
       -0.21160616 -0.0088789025 -0.005528985 0.0060792575
0002c0 ce 0e 11 be e1 1b 24 c3 3c 71 c0 3b 9b b3 d2 bc
       -0.14165804 -164.1089 0.0058728736 -0.025720408
0002d0 91 fa b5 bb a3 d6 c8 bc c1 d2 e5 c2 57 eb 06 c3
       -0.0055535515 -0.02451641 -114.91163 -134.9193
0002e0 38 4a b0 3c 51 b3 37 be 03 f3 fe bb 46 05 78 bc
       0.021519765 -0.17939498 -0.007780434 -0.015137976
0002f0 cc 45 d6 bb 2f 71 14 c3 82 ec 28 bc e1 23 93 3d
       -0.006539082 -148.44212 -0.010310294 0.07184578
000300 17 b0 4e 3b e1 b9 e2 3c ca b1 e7 bc 63 c1 5a be
       0.0031538063 0.027676525 -0.028283019 -0.21362834
000310 f3 c4 0f 3d 72 7f 9f 3b 36 f2 38 3d 2d 0d c4 3c
       0.035099935 0.0048674876 0.045152865 0.023932064
000320 82 17 4b 3d 33 76 01 be be fc 7d 3d a4 9a de 3c
       0.049582966 -0.12642746 0.06200861 0.027173348
000330 88 e9 24 be 15 00 b9 3e ca e6 30 3e da 29 c3 3c
       -0.1610471 0.36132875 0.17275539 0.023823667
000340 24 df 19 3e 20 a7 7d 3c 18 81 09 3e 19 e0 d8 bc
       0.15026528 0.01548174 0.13428152 -0.026474046
000350 ea 71 36 3e 17 10 28 bc 62 d4 96 3d 85 0e ed 3d
       0.17816892 -0.010257742 0.073647276 0.11575035
000360 92 7d e6 3e 40 93 b9 be 10 36 2f 3e 53 d5 2b 3d
       0.45017678 -0.36245155 0.17110467 0.04195149
000370 97 55 c2 3d 91 60 29 3c e3 8e f3 3e 82 21 2d 3e
       0.09488981 0.010337965 0.4756995 0.16907313
000380 ab 0b 55 c2 62 5b cc 3c 6b 11 e2 3c 2c 53 17 c2
       -53.261395 0.024945918 0.027596196 -37.831223
000390 e5 47 c6 c1 1f a7 72 c2 2e 9d 1a be 8c 56 48 be
       -24.785105 -60.663204 -0.15099022 -0.19564265
0003a0 fe d5 9a c2 63 f5 85 be 27 2f 3c c1 f6 de 9b 3e
       -77.41795 -0.26163778 -11.761512 0.30443543
0003b0 f9 50 6e 3e fa 29 d4 3d 31 28 ff 3c 6c b6 86 c1
       0.23273076 0.10359569 0.031147094 -16.839073
0003c0 04 e9 1e 3d 55 b2 a9 3c 28 a1 b9 bc 91 f6 cd 3d
       0.03879644 0.020714918 -0.022659853 0.100567944
0003d0 ed 82 cd bd 88 31 34 3c 75 20 45 c2 f6 40 20 3e
       -0.10034738 0.010998137 -49.281696 0.1564978
0003e0 2a 68 c8 bd 2f f7 ad 3e 9f 83 eb 3c b9 57 89 3d
       -0.09785493 0.3397765 0.028749285 0.06706185
0003f0 08 89 84 3c 61 10 4e 3e cc 49 27 3e 1c 86 1f c2
       0.016178623 0.20123436 0.16336745 -39.880966

encoder.3.bias f4 [16]
000000 fb b7 b0 40 49 8a 92 bf 4e 47 61 bf 8e f8 aa 40
       5.5224586 -1.1448451 -0.8799943 5.342841
000010 4e 20 a8 40 29 99 a9 40 8d 5f 17 40 f4 17 4d be
       5.2539434 5.2999463 2.365207 -0.20028669
000020 45 0d af 40 47 0a c6 40 3a 8d 10 41 82 d9 7e 40
       5.47037 6.1887546 9.034479 3.9820256
000030 0d ad c1 3f a9 71 00 41 1f 24 10 41 88 b8 2c bf
       1.5130936 8.027749 9.008819 -0.6746907

decoder.0.weight f4 [32, 16]
000000 19 36 28 be 6e 41 5e 3e 45 24 27 bd 48 ec 65 be
       -0.16426887 0.21704647 -0.040806074 -0.22453415
000010 7d 5f 84 3d 78 a9 09 3f 73 31 07 be a3 ef 8b be
       0.064635254 0.53774214 -0.13202457 -0.27331266
000020 17 c6 37 3f c5 ba 0e 3c 1e d8 bd 3e bc b3 cb bc
       0.71786636 0.0087115215 0.37078947 -0.024865977
000030 03 8d c7 bc 53 69 23 3e d0 57 de 3a fe ec fd be
       -0.024359232 0.15958147 0.0016963426 -0.49594873
000040 65 43 85 be 5c ba f5 3d 24 8d df 3c 05 4f bb bd
       -0.2602798 0.11998436 0.02728898 -0.09145931
000050 0c 37 1a bd 7f 37 1e be f4 24 f7 3d 69 13 12 bd
       -0.037650153 -0.15450858 0.12067595 -0.035663042
000060 b9 a4 29 3f 42 52 96 3d 65 ca 37 3e 60 c8 0a be
       0.6626697 0.07339908 0.17948301 -0.13553
000070 bb 08 13 be bd 0d 47 3e 1c 12 b4 3d 1a 2b 90 be
       -0.14358799 0.19438834 0.087925166 -0.28157884
000080 e2 88 68 bc 72 7d ef bc b8 1f 14 3e 0b 9d 37 bc
       -0.014192792 -0.029234622 0.14465225 -0.011206876
000090 6a 4d 86 3f 94 74 86 3a 0f 31 bb bd b2 62 ed be
       1.0492375 0.0010258132 -0.091402166 -0.4636436
0000a0 03 ff aa 3d d3 b2 71 3c 0f 31 e2 bc 74 3a ce 3d
       0.08349421 0.014752108 -0.027611284 0.10069743
0000b0 b6 d8 8e 3d a3 52 7a 3c 15 5f 1e bc c9 be b1 3c
       0.06974928 0.015278491 -0.009666224 0.021697419
0000c0 63 d3 85 3e 5d 56 14 3e dd 18 a6 bd e9 e3 45 3e
       0.26137838 0.1448607 -0.08110211 0.19325222
0000d0 42 90 8c be 3b 93 c9 be ec 0d 9f 3c d1 a1 83 3b
       -0.2745381 -0.3937014 0.019415818 0.0040170928
0000e0 ee 6a 0f 3f 6c 42 19 3d cc 35 5a 3e 28 b0 a5 bb
       0.56022537 0.03741686 0.21309584 -0.0050564
0000f0 f3 54 74 bd 6c 95 32 3e a3 13 a5 3e ed e3 38 be
       -0.059651326 0.17439812 0.32241544 -0.18055697
000100 5b 23 3b 3d 73 40 ac be 30 48 fc 3c 5b 7d 92 3d
       0.045688014 -0.3364292 0.03079614 0.07152816
000110 a3 48 f9 3d 6d 6e e9 bd 54 fd 8b 3d 45 2a b8 bd
       0.121720575 -0.11398015 0.06835428 -0.08992437
000120 c4 88 9a bc d2 bc 2c bb 55 51 98 3e fb 2b 4b 3d
       -0.018864043 -0.0026357663 0.2974955 0.04960249
000130 a1 b9 b3 bc ef 6f 59 3d 3e d8 91 3e b3 8e f8 bc
       -0.0219391 0.053085264 0.28485292 -0.030341482
000140 21 45 53 3c 7d 65 87 bc c8 bc a3 bd 06 4d 5c 3e
       0.0128949 -0.016527886 -0.079949915 0.21513757
000150 7f 93 d2 3d 22 77 4f 3e 60 52 c6 bc 24 2b 18 3e
       0.10282039 0.2026029 -0.024209201 0.14860207
000160 5a e0 32 bf c4 f9 e9 3d 19 2a a8 bd 75 d6 73 3d
       -0.69873583 0.11424592 -0.082111545 0.059530694
000170 bd 90 b2 3d d5 54 d6 bc 31 c1 f0 ba 8a a8 3a bf
       0.08719013 -0.026163498 -0.0018368122 -0.7291342
000180 a5 d1 b3 bd 12 af 37 bc 15 2f 31 3f 81 8c 4b 3d
       -0.08780221 -0.011211174 0.69212466 0.04969454
000190 3a ca 99 3d 85 85 b4 bd ea a2 db 3d fb af 40 be
       0.07509275 -0.08814529 0.10724433 -0.18817131
0001a0 91 38 11 3b 56 2e 7f bc 38 4a 67 3f 75 01 12 bf
       0.002215896 -0.015575012 0.90347624 -0.57033473
0001b0 b0 fd 7c be 15 7b ce bd 30 dc f2 bc 97 6a 83 be
       -0.24706149 -0.1008207 -0.02964601 -0.2566726
0001c0 14 dd 99 3d 6c 61 37 3d 09 28 0f be 94 ed eb bc
       0.075128704 0.044770643 -0.13980116 -0.02879981
0001d0 3d 0b de bc 48 c9 0b 3d 2b 6c 37 be 06 e7 be 3b
       -0.027104968 0.034127504 -0.17912357 0.00582588
0001e0 ff 21 c2 bb 9e e0 0a bd b8 e4 88 bd 46 98 e1 be
       -0.005924463 -0.033905618 -0.0668425 -0.44061488
0001f0 4c 6e 66 3d 4b 3d ee bc 8e a2 19 bd eb 41 0e be
       0.05625753 -0.029081961 -0.03750854 -0.13892333
000200 e6 21 1d 3b 48 11 3a 3e f5 63 d7 bc c4 e5 cf bd
       0.0023976504 0.18170655 -0.02629278 -0.10151246
000210 b8 af 86 be 17 b2 d9 be d1 ad 74 3d 2f f0 08 be
       -0.26305938 -0.42518684 0.059736077 -0.13372873
000220 3f 75 60 3f 23 0a 01 3e 88 4f 43 3e 5b da ee bd
       0.87678903 0.12601523 0.19073308 -0.11662742
000230 d3 e6 d1 bd 60 bc 38 3e d1 0a 89 3e 89 99 d8 bf
       -0.10249104 0.1804061 0.26766065 -1.6921855
000240 92 06 31 3e d3 96 5d bd 1d 7e aa 3d 29 3e d5 3c
       0.17287663 -0.054098915 0.083248354 0.026030617
000250 df d3 e2 3d ed 5f f6 bc f0 40 68 bd 2d 7e e1 be
       0.110755675 -0.030075038 -0.056702554 -0.44041577
000260 2d a7 e8 3e b2 52 81 bb 5f a0 e4 bd ea da c8 3d
       0.45440045 -0.0039466256 -0.11163401 0.098073795
000270 70 c8 38 3d 3b a4 a4 bc cc 5a e1 bc 53 91 d2 3f
       0.045113027 -0.020097842 -0.027509116 1.64506
000280 68 8c 6b bf 3e f7 12 bf 20 79 f4 3c df 20 30 be
       -0.9201112 -0.5740851 0.029842913 -0.1720004
000290 ee 93 2e 3d 0d ae a6 3e 8a 6d ee 3d 31 ed 82 bd
       0.042621545 0.32554665 0.11641987 -0.06392897
0002a0 9b 24 b1 3d 01 43 a6 bb 73 e4 20 3f a1 2d e0 be
       0.0864956 -0.0050739055 0.62848586 -0.43784812
0002b0 d8 7b 17 be 39 39 5b c1 1a e9 bc 3d 80 4b 51 3e
       -0.14793336 -13.70147 0.09224148 0.20438957
0002c0 07 a4 8e 3e 80 97 3c be 26 a3 c6 3d f1 ba a2 bc
       0.27859518 -0.18417168 0.09699087 -0.019864531
0002d0 18 3b 9d bd b7 88 f6 3c f1 31 b1 3e 71 58 3c 3e
       -0.07677287 0.030094488 0.34608415 0.18393113
0002e0 ac fb 04 be 5b 91 43 3e 58 c5 e3 bc 16 5d 54 3e
       -0.1298663 0.19098417 -0.027804062 0.20738634
0002f0 3c b7 1d be ba ac 90 3d 22 ee 2b 3d 30 9f 73 3f
       -0.1540193 0.07064195 0.041975148 0.95164776
000300 f8 d1 1b be 43 8d 53 3e 3b bc b2 be 6e d1 90 be
       -0.15216815 0.20659356 -0.34909233 -0.28284782
000310 cd 1d 85 bf 00 c4 1b 3e 28 9a 9e be 69 37 49 be
       -1.039972 0.15211487 -0.30976987 -0.19650044
000320 59 6b 20 be 6e 0f 96 bd 80 f2 c1 3e e8 a0 19 3e
       -0.1566595 -0.07327162 0.37880325 0.15002787
000330 3a 14 38 3e d7 db 0b be d4 7b 9e be 39 57 5c bf
       0.17976466 -0.13658081 -0.30953848 -0.8607059
000340 df 67 54 3d 6a 41 b7 be 21 da 5f bd 0f 55 5b bf
       0.05185687 -0.35792094 -0.054651383 -0.85676664
000350 73 eb 14 bc ba 22 e5 3b ac 0c 70 3d 76 84 d1 b9
       -0.009089339 0.006992665 0.058605835 -0.00039962278
000360 39 3f b2 3e 7b 63 ea 3d 91 1f 8e 3e c1 fd 30 be
       0.3481386 0.11444756 0.27758458 -0.172843
000370 cd 55 12 be 56 fe ad 3d 15 2b 41 3e 1a 62 eb bd
       -0.14290543 0.08495776 0.1886409 -0.11493321
000380 b4 d5 cb bd d7 db d3 be 2f e9 30 3e cf ec c6 be
       -0.0995287 -0.41378662 0.17276452 -0.38852546
000390 64 0e 92 3d a9 56 af 3c 48 d2 d3 3e 22 53 20 3e
       0.07131651 0.021403627 0.4137137 0.15656713
0003a0 63 c6 ac bb bd 46 f7 3d 83 cb 98 3d 44 5f 2d 3e
       -0.005272673 0.12074039 0.07460692 0.16930872
0003b0 63 7c 3c be 87 ec cd 3d 0d d3 01 be fe 2c 85 3f
       -0.18406825 0.1005488 -0.12678166 1.0404356
0003c0 98 0b dd bc 4c be 00 bf 66 35 06 3d b9 db cb bd
       -0.026983067 -0.5029037 0.03276577 -0.09954018
0003d0 a3 18 f7 3e a3 33 5b bd c7 be b0 3e b5 e6 88 be
       0.48260984 -0.05351604 0.34520552 -0.26738515
0003e0 c7 08 aa be 86 e6 2e 3f 5d b4 b3 bd fe b7 e6 3c
       -0.33209822 0.683205 -0.08774636 0.028163906
0003f0 fd 2d d9 bd eb 11 1f 3e 12 3c 5a be 8d 2d f2 bd
       -0.10604475 0.15534179 -0.21311978 -0.11825094

decoder.0.bias f4 [32]
000000 13 c5 18 c0 af f1 23 40 d2 24 c0 be 18 a5 dd bf
       -2.3870285 2.5616262 -0.37528092 -1.7316008
000010 87 17 7d c0 8e 2f b8 3e 1a c3 34 c0 07 c6 9f 40
       -3.954561 0.3597378 -2.824408 4.9929233
000020 76 f7 a4 3e c6 91 5f bf c9 b3 97 3f 9b b9 a1 bf
       0.32220048 -0.8733181 1.1851741 -1.2634767
000030 cf 69 bd be 03 71 fa 3f 69 45 7d 3f 8e 8d 6d 40
       -0.36994788 1.9565738 0.98934036 3.7117648
000040 ac 0a dc 40 ed aa b3 3f b6 79 52 c0 07 03 42 bf
       6.8763027 1.4036537 -3.2886786 -0.7578587
000050 ee ff b4 c0 c1 d5 3f bf 64 13 20 40 ac d0 7d bf
       -5.6562414 -0.7493554 2.5011835 -0.99146533
000060 8e 66 ec 40 0e b9 65 3d 57 3a 01 c0 91 83 20 bf
       7.387519 0.056084685 -2.0191858 -0.62700754
000070 8d 96 e4 3f a2 5d 4a c0 60 5c 36 41 6e 7d 40 40
       1.7858444 -3.161965 11.3975525 3.0076556

decoder.2.weight f4 [60, 32]
000000 7a f8 ac 3d ac 82 55 3e 84 1e ad 3d e0 74 8b be
       0.08445831 0.20850629 0.08453086 -0.27237606
000010 b9 05 88 be 17 b5 03 3d 09 a0 31 3f a6 29 8e 3c
       -0.26566866 0.032155123 0.6938482 0.017353844
000020 3f ea 06 bd 9a 0f b5 bd f4 18 cd bd 02 f9 7c be
       -0.03293824 -0.088408664 -0.10014525 -0.24704364
000030 52 d8 12 3d aa 1c d6 bd 34 b7 ba 3d dd 0f f3 bc
       0.03585083 -0.10454686 0.091169745 -0.02967065
000040 84 8a 92 3d fc 42 02 be 23 73 05 bf e6 80 24 40
       0.07155326 -0.12720865 -0.5212881 2.5703673
000050 05 ba 6d 3c 94 9f 50 3d 0a 43 3b 3d 6b 36 e4 3d
       0.014509683 0.050933436 0.04571823 0.11143192
000060 e9 4e 0f bd 09 e7 12 3e 3c 6b 89 3d 4e c2 b8 3b
       -0.034987364 0.14345945 0.067099065 0.0056383973
000070 2d d1 11 c0 2a 5f 8f 3d 8b 8c 4e 3d f0 b2 92 bf
       -2.278392 0.07000573 0.050427 -1.1460857
000080 bb 9e ed 3e ea 35 e9 bd e9 b1 1e be da 2f 1a 3e
       0.46410164 -0.113872364 -0.15497555 0.15057316
000090 dc 9e 63 3e 6c c6 7b 3c 12 df db 3d a2 7a a5 be
       0.22228569 0.015367132 0.10735907 -0.32320124
0000a0 76 e0 d8 be 03 8b 3d 3c 8e 46 d6 bc 55 ff 89 3d
       -0.4235875 0.0115687875 -0.02615669 0.06738154
0000b0 ab a1 30 be 25 ca 59 3d 97 17 ae be 50 ba e2 3e
       -0.17249171 0.053171296 -0.34002373 0.4428277
0000c0 9b d2 51 bd dc 5f 89 3d b9 45 35 be c9 f3 66 be
       -0.05122624 0.06707737 -0.17702378 -0.22553934
0000d0 34 71 20 3e 0d c4 0b bd b4 56 ee 3d 9c 50 d7 3c
       0.15668184 -0.034122515 0.11637631 0.026283555
0000e0 a6 75 87 3d af 60 d5 be b2 57 62 3d 93 b5 14 bc
       0.066142365 -0.41675326 0.055259414 -0.009076494
0000f0 9c aa 3f 3e 48 f6 f5 3e 46 29 7b 3b f6 7d 2e 3e
       0.18717426 0.4803946 0.0038324161 0.17040238
000100 be 9e ed 3e 00 36 e9 bd e9 b1 1e be e6 2f 1a 3e
       0.46410173 -0.11387253 -0.15497555 0.15057334
000110 cc 9e 63 3e 63 c6 7b 3c 17 df db 3d 9e 7a a5 be
       0.22228545 0.015367123 0.107359104 -0.32320112
000120 79 e0 d8 be ce 8a 3d 3c 7b 46 d6 bc 4b ff 89 3d
       -0.4235876 0.011568738 -0.026156655 0.067381464
000130 ab a1 30 be 2d ca 59 3d 91 17 ae be 44 ba e2 3e
       -0.17249171 0.053171325 -0.34002355 0.44282734
000140 8d d2 51 bd de 5f 89 3d ba 45 35 be d1 f3 66 be
       -0.051226187 0.06707738 -0.1770238 -0.22553946
000150 35 71 20 3e 12 c4 0b bd b2 56 ee 3d 8c 50 d7 3c
       0.15668185 -0.034122534 0.116376296 0.026283525
000160 b0 75 87 3d a5 60 d5 be a1 57 62 3d 97 b5 14 bc
       0.06614244 -0.41675296 0.05525935 -0.0090764975
000170 a1 aa 3f 3e 44 f6 f5 3e 70 28 7b 3b fc 7d 2e 3e
       0.18717434 0.48039448 0.0038323663 0.17040247
000180 bc 9e ed be e8 35 e9 3d eb b1 1e 3e de 2f 1a be
       -0.46410167 0.11387235 0.15497558 -0.15057322
000190 d8 9e 63 be 5c c6 7b bc 10 df db bd a5 7a a5 3e
       -0.22228563 -0.015367117 -0.10735905 0.32320133
0001a0 7a e0 d8 3e 11 8b 3d bc 92 46 d6 3c 4a ff 89 bd
       0.42358762 -0.011568801 0.026156697 -0.06738146
0001b0 ab a1 30 3e 2d ca 59 bd 96 17 ae 3e 4e ba e2 be
       0.17249171 -0.053171325 0.3400237 -0.44282764
0001c0 91 d2 51 3d dd 5f 89 bd ba 45 35 3e c5 f3 66 3e
       0.051226202 -0.067077376 0.1770238 0.22553928
0001d0 32 71 20 be 10 c4 0b 3d b8 56 ee bd b3 50 d7 bc
       -0.1566818 0.034122527 -0.11637634 -0.026283598
0001e0 ae 75 87 bd ab 60 d5 3e b9 57 62 bd c8 b5 14 3c
       -0.066142425 0.41675314 -0.05525944 0.009076543
0001f0 9a aa 3f be 48 f6 f5 be a9 28 7b bb f4 7d 2e be
       -0.18717423 -0.4803946 -0.0038323796 -0.17040235
000200 fc 41 fc 3e 7a 2f 39 be c8 2a f4 bd 43 a4 2d be
       0.49269092 -0.18084517 -0.119222224 -0.16957192
000210 3e 0d 48 be 7f f6 80 3b 8b 59 ad 3d 88 39 45 be
       -0.19536301 0.0039356346 0.084643446 -0.19260228
000220 2e e7 f2 bd 6c 57 68 bc 74 e4 b3 3b 15 3f 74 3d
       -0.118605 -0.014180999 0.00548988 0.059630472
000230 d8 38 16 be c6 2d 66 3d cf c3 9f be 83 98 0a be
       -0.14670122 0.056195997 -0.31204078 -0.13534741
000240 40 93 9f bd 94 c9 80 3c 87 ff 3c be e4 e5 63 be
       -0.077917576 0.01572112 -0.18456851 -0.22255665
000250 87 ca 11 3e 20 46 dc 3d ef 93 da 3d d1 27 fa 3c
       0.14237414 0.10755563 0.10672747 0.030536564
000260 85 87 c0 3d b9 00 5f 3e f3 47 94 bb 90 0d 80 3b
       0.09400848 0.2177762 -0.0045251786 0.003907867
000270 9e d5 22 3e 87 1f 9a 3e 9b 79 ce bc c2 ca b1 3d
       0.15901801 0.30102178 -0.02520447 0.08681251
000280 75 e6 e9 be 5d f8 88 3d 1a 2b e1 3d 74 e6 17 3e
       -0.45683637 0.066879965 0.10994549 0.14834005
000290 e9 d4 b3 3e a2 34 98 bc be f1 c0 bd 03 6e c8 3d
       0.35123375 -0.018579785 -0.09421109 0.09786608
0002a0 a9 bc 41 3e 01 59 ca bc a6 de 4c ba 83 8c 69 be
       0.18919624 -0.024700643 -0.00078151596 -0.22807507
0002b0 5d 40 af 3d 48 09 01 be 2f de b2 3e e4 74 aa 3e
       0.08557198 -0.12601197 0.34935138 0.33292305
0002c0 e5 b8 52 3d 08 48 ac 3b 69 3a 2d 3e 6e 35 8f 3e
       0.05144586 0.00525761 0.16916813 0.2797045
0002d0 5a 5c 03 be 89 fc 83 bd 34 b4 7a bd 67 44 89 bc
       -0.12828198 -0.06444652 -0.06120701 -0.01675625
0002e0 41 1f 8b bd 72 9f cc be 57 7f 9a 3d c0 c5 4c 3c
       -0.067930706 -0.39965397 0.075438194 0.012498319
0002f0 88 6c 22 be cc 5a 34 be c7 73 bf 3c 48 c5 25 be
       -0.15861714 -0.17612761 0.023370637 -0.16188538
000300 42 e6 f2 be 2b c5 a9 3d a4 3a a8 3d 6e df ed 3d
       -0.47441298 0.0828956 0.0821431 0.116148815
000310 f4 ff d3 3e c9 93 4a bc e2 42 e7 bd 86 39 b2 3d
       0.41406214 -0.012364336 -0.11292054 0.08702378
000320 6d b8 49 3e f3 d5 2a bd dc ed 15 3d b5 7b b1 bd
       0.19699259 -0.041707944 0.036603794 -0.08666173
000330 a9 a1 df 3d 54 a3 cc bd c8 33 89 3e b3 ad d7 3e
       0.10919506 -0.0999209 0.26797318 0.4212471
000340 6b 5a 66 3d d6 45 14 3d fd d2 4e 3e fa 61 84 3e
       0.056238573 0.036199413 0.20197673 0.25856
000350 a5 a0 fd bd d1 d5 0e be 1d 89 91 bd cd ed f2 3a
       -0.12384156 -0.13948752 -0.071062304 0.0018534005
000360 7f 5b cd bd 5f 89 01 bf 93 8f ae 3d a8 f6 1b bd
       -0.10027217 -0.50600237 0.08523478 -0.038077027
000370 30 a3 1b be f3 30 0a be 16 00 a9 3c 0a d6 d8 bd
       -0.1519897 -0.13495235 0.020629924 -0.105877
000380 bc ac ef 3e bf 14 15 be 96 a2 30 be 93 53 80 bd
       0.46811473 -0.14558695 -0.17249522 -0.062659405
000390 16 a2 cf 3e e2 59 e8 3c 84 48 d8 3d a7 f6 9c bd
       0.4055335 0.028363172 0.10560706 -0.07664233
0003a0 6e 30 4f be 15 bd 22 3b 41 41 bf b8 67 b2 bd 3e
       -0.20233318 0.002483194 -9.119744e-05 0.37050173
0003b0 ba fc eb bd db 80 8a bc df a3 c3 be b3 8e d9 3e
       -0.11522813 -0.016907146 -0.3821096 0.42491683
0003c0 28 b8 06 bd 34 ed 81 3d 94 cd 10 be 1e 51 89 be
       -0.03289047 0.06344071 -0.14140922 -0.268197
0003d0 e7 90 fd 3d e8 b8 96 bd 72 e8 84 3d 29 ae e4 3c
       0.123811536 -0.07359487 0.06489648 0.027915077
0003e0 01 55 67 3c 67 e6 cb be a6 26 48 bd eb 4d c3 bd
       0.014119388 -0.3982422 -0.048864983 -0.09536346
0003f0 63 8a 25 3e dd 42 0b 3e b1 10 59 bc c2 1c 69 3e
       0.16166072 0.13599725 -0.013248608 0.22764876

decoder.2.bias f4 [60]
000000 78 ff 04 41 3a 02 9a 3d 11 02 9a 3d 51 02 9a bd
       8.31237 0.07519956 0.075199254 -0.07519973
000010 6a 30 2b bb ea 40 30 3f 4b 40 3e 3f 82 61 4a be
       -0.0026121386 0.6884905 0.74316853 -0.19763759
000020 bd db c5 bc 71 3b 9c 3f c6 8d 28 c0 16 26 03 c0
       -0.024152631 1.220564 -2.6336532 -2.0491996
000030 ec a8 b1 c0 70 d5 f6 3f 72 d5 f6 3f 76 d5 f6 bf
       -5.5518703 1.9283886 1.9283888 -1.9283893
000040 86 ff 02 40 b0 83 21 c0 ac 63 de bf 27 d9 2f 40
       2.046846 -2.5236626 -1.7374167 2.747629
000050 af e1 45 c0 40 3a 20 40 bb 45 b0 3f 06 a0 88 3f
       -3.0918996 2.5035553 1.377128 1.0673835
000060 bd 82 94 be 21 13 41 be 28 13 41 be 10 13 41 3e
       -0.29005995 -0.18854953 -0.18854964 0.18854928
000070 a5 b4 26 bf 92 8f 2b 3e b9 ab 7d 3f d8 18 61 3f
       -0.6511939 0.16753986 0.9909015 0.87928534
000080 b2 39 a6 3e af 54 cc 3f c9 c6 15 3f cb 19 49 3f
       0.32465893 1.5963343 0.5850645 0.7855498
000090 1f 38 5b be 8a 6e 5d bf 7f 6e 5d bf 96 6e 5d 3f
       -0.21408127 -0.86496794 -0.8649673 0.86496866
0000a0 9f e3 d2 bf 4d e7 04 40 e2 96 28 40 93 6b 1e bf
       -1.6475714 2.0766175 2.6342092 -0.61882895
0000b0 0f d8 35 40 81 bf 77 bf 19 51 6e c0 db f4 50 40
       2.8413122 -0.96776587 -3.7236998 3.2649448
0000c0 47 0b 95 bf fc c2 56 bf 14 c3 56 bf 14 c3 56 3f
       -1.1644067 -0.8389127 -0.83891416 0.83891416
0000d0 82 2e b9 bf 6a 62 b4 3e d8 f1 5b 3f ac e6 ab bd
       -1.4467318 0.35231334 0.859159 -0.083936065
0000e0 07 d7 73 3f b8 5b 6e c0 1f b7 5f 40 c8 7e 00 c0
       0.9524998 -3.724348 3.4955518 -2.007738

exp_avg f4 [32, 60]
000000 44 01 91 37 cb 0a 2f 38 cb 0a 2f 38 cb 0a 2f b8
       1.7285936e-05 4.1733303e-05 4.1733303e-05 -4.1733303e-05
000010 bd ef 38 38 73 06 3d b8 92 bb 3a b8 40 b0 38 38
       4.4092292e-05 -4.5067118e-05 -4.4520544e-05 4.4033164e-05
000020 cf 3b 29 b8 87 01 74 37 f8 43 cd 35 37 fd f6 b7
       -4.034844e-05 1.4543889e-05 1.5293472e-06 -2.9443398e-05
000030 4b 97 0c 38 46 27 ce b8 46 27 ce b8 46 27 ce 38
       3.3519504e-05 -9.830161e-05 -9.830161e-05 9.830161e-05
000040 f9 c0 c5 b8 21 30 be 38 d1 49 bb 38 1b 04 c6 b8
       -9.429636e-05 9.068871e-05 8.930604e-05 -9.4421404e-05
000050 be 43 a4 38 a8 6f 13 b8 33 0b 24 38 77 1d 92 b8
       7.832747e-05 -3.515152e-05 3.9111077e-05 -6.967311e-05
000060 44 e9 80 38 7d 13 20 38 7d 13 20 38 7d 13 20 b8
       6.146965e-05 3.8165123e-05 3.8165123e-05 -3.8165123e-05
000070 2e 27 26 38 02 01 2c b8 06 4c 2b b8 26 de 2b 38
       3.9613973e-05 -4.1008934e-05 -4.084038e-05 4.097647e-05
000080 3f 4b 0e b8 13 c6 22 37 75 22 fe 35 bb ad 0c b8
       -3.3925517e-05 9.70207e-06 1.8934503e-06 -3.35404e-05
000090 04 46 a9 36 21 c4 52 b8 21 c4 52 b8 21 c4 52 38
       5.0447434e-06 -5.025056e-05 -5.025056e-05 5.025056e-05
0000a0 d6 cc 43 b8 97 20 42 38 77 3a 3f 38 63 f9 4b b8
       -4.668239e-05 4.6283556e-05 4.55924e-05 -4.863123e-05
0000b0 c3 0a 20 38 de b4 3a b7 05 b2 85 37 ef 55 64 b8
       3.8156995e-05 -1.1128575e-05 1.5937732e-05 -5.4439468e-05
0000c0 32 13 b9 b6 fd 3a 85 38 fd 3a 85 38 fd 3a 85 b8
       -5.5156643e-06 6.3529216e-05 6.3529216e-05 -6.3529216e-05
0000d0 47 f5 88 38 74 2c 7c b8 38 fe 78 b8 5f c2 7e 38
       6.530672e-05 -6.0122882e-05 -5.9364567e-05 6.073934e-05
0000e0 11 ab 70 b8 2e 72 e5 37 7b 69 e0 b7 9b ce b7 b7
       -5.7379777e-05 2.7352096e-05 -2.6751999e-05 -2.1911508e-05
0000f0 b1 e6 79 39 51 41 32 b9 51 41 32 b9 51 41 32 39
       0.0002383243 -0.00016999735 -0.00016999735 0.00016999735
000100 bf 04 42 b9 71 12 46 39 9e cb 43 39 14 f5 3b b9
       -0.0001850305 0.00018889621 0.00018672502 -0.00017925008
000110 67 70 36 39 c5 9a d7 38 17 f0 2a b9 00 cb 33 b9
       0.00017398746 0.00010280827 -0.00016301904 -0.00017146394
000120 85 b0 0b 3a 26 b3 c3 39 26 b3 c3 39 26 b3 c3 b9
       0.00053287327 0.00037326774 0.00037326774 -0.00037326774
000130 4c 1e b9 39 9d 4c b0 b9 9a 80 ae b9 fe fd b8 39
       0.00035308523 -0.00033626417 -0.00033283682 0.00035284454
000140 67 c2 97 b9 c3 2e fc 38 09 6a 3e b9 6b a9 3e 3a
       -0.00028945805 0.000120250064 -0.00018159313 0.000727317
000150 9a a9 fb 37 33 2b 0f b9 33 2b 0f b9 33 2b 0f 39
       3.0000509e-05 -0.00013653636 -0.00013653636 0.00013653636
000160 ac 66 1c b9 6c b7 21 39 de bb 20 39 0f 02 19 b9
       -0.00014915568 0.00015422486 0.00015328775 -0.00014591984
000170 d3 b5 12 39 f4 5e cd 38 e8 25 29 b9 8f ed d5 b8
       0.0001399138 9.792848e-05 -0.00016131217 -0.0001020088
000180 16 d8 84 38 c0 26 02 ba c0 26 02 ba c0 26 02 3a
       6.3344996e-05 -0.00049648806 -0.00049648806 0.00049648806
000190 6f ab 04 ba 5e 59 0c 3a f0 1a 0b 3a 0e 9a 0a ba
       -0.0005060946 0.0005353893 0.0005306443 -0.0005287238
0001a0 22 81 ea 39 33 37 59 b9 d5 01 c7 b7 a7 99 83 b9
       0.0004472817 -0.00020715296 -2.3723502e-05 -0.00025100747
0001b0 5e 3e 88 38 b9 5a 13 b9 b9 5a 13 b9 b9 5a 13 39
       6.496602e-05 -0.0001405281 -0.0001405281 0.0001405281
0001c0 25 2e 1f b9 9f 44 41 39 6d d3 3f 39 5a 28 39 b9
       -0.00015180612 0.00018431478 0.00018293942 -0.00017658007
0001d0 11 15 18 39 42 8f 11 39 a4 28 90 b9 42 d9 81 38
       0.00014503697 0.00013881645 -0.000274961 6.191667e-05
0001e0 24 99 d5 34 47 83 7f b8 47 83 7f b8 47 83 7f 38
       3.9785766e-07 -6.0919e-05 -6.0919e-05 6.0919e-05
0001f0 86 61 ca b7 b3 f7 e5 37 2e 2e e3 37 38 27 f9 b7
       -2.412569e-05 2.7414271e-05 2.7082013e-05 -2.9701376e-05
000200 bf 3e a8 37 b1 86 ff 38 85 1d 6c 37 27 fe 06 b8
       2.0056379e-05 0.00012184436 1.4073569e-05 -3.2184787e-05
000210 85 7f 18 b7 47 2c 26 b8 47 2c 26 b8 47 2c 26 38
       -9.0895965e-06 -3.961872e-05 -3.961872e-05 3.961872e-05
000220 ff cb e2 b7 1d ba ee 37 3e fb e7 37 0c e6 05 b8
       -2.7036293e-05 2.8458477e-05 2.765434e-05 -3.192392e-05
000230 e7 0a a0 37 a6 f9 f0 37 87 0e aa 37 7c fa c9 38
       1.9078563e-05 2.8726481e-05 2.0272344e-05 9.631083e-05
000240 62 72 39 b9 ea a9 7d b8 ea a9 7d b8 ea a9 7d 38
       -0.00017685586 -6.0478145e-05 -6.0478145e-05 6.0478145e-05
000250 24 a9 80 b8 a1 26 76 38 ad 06 73 38 bf b7 7e b8
       -6.1350205e-05 5.8686946e-05 5.7941932e-05 -6.0729446e-05
000260 d8 8e 55 38 bf 25 1d b8 ac f5 2e 38 ad 4f 9a 37
       5.091619e-05 -3.746687e-05 4.1713633e-05 1.8395333e-05
000270 58 fd 8e b8 75 25 26 37 75 25 26 37 75 25 26 b7
       -6.8182766e-05 9.903092e-06 9.903092e-06 -9.903092e-06
000280 97 c4 26 37 1f 9f 3f b7 1d 83 3b b7 f9 65 1d 37
       9.940143e-06 -1.1421535e-05 -1.1176596e-05 9.381672e-06
000290 f4 dd 71 b7 5b 2a 04 b7 89 dd a9 37 e8 2d 57 38
       -1.4416397e-05 -7.877675e-06 2.024953e-05 5.1302748e-05
0002a0 8c e6 1f b9 8e ad 47 37 8e ad 47 37 8e ad 47 b7
       -0.00015249307 1.1901733e-05 1.1901733e-05 -1.1901733e-05
0002b0 14 88 36 37 d8 c7 82 b7 37 7c 6f b7 03 be b1 37
       1.08797285e-05 -1.5590267e-05 -1.4274431e-05 2.1188525e-05
0002c0 19 d5 03 b7 6a b2 86 37 20 c3 be 37 1f ca c8 38
       -7.857824e-06 1.6057125e-05 2.2740627e-05 9.574391e-05
0002d0 3e aa 13 b9 ba 22 0c b7 ba 22 0c b7 ba 22 0c 37
       -0.00014082433 -8.352736e-06 -8.352736e-06 8.352736e-06
0002e0 96 14 f0 b6 fd de ed 36 f3 5a b4 36 8b c2 28 b7
       -7.154954e-06 7.0891097e-06 5.375006e-06 -1.0058876e-05
0002f0 50 84 b2 36 dc 5a 5b b7 74 df d2 b5 1a 61 f5 b7
       5.3202166e-06 -1.3074572e-05 -1.5711253e-06 -2.9251492e-05
000300 62 80 a0 b8 63 ed 4e 38 63 ed 4e 38 63 ed 4e b8
       -7.653308e-05 4.933531e-05 4.933531e-05 -4.933531e-05
000310 31 96 54 38 69 2a 53 b8 7c 96 52 b8 7f fc 48 38
       5.0684615e-05 -5.0345818e-05 -5.020805e-05 4.791887e-05
000320 8a 5c 42 b8 60 91 89 36 c2 8b 50 b7 f2 e1 e1 b6
       -4.6339388e-05 4.099842e-06 -1.2430306e-05 -6.731826e-06
000330 e9 18 40 b9 51 9a 6b 36 51 9a 6b 36 51 9a 6b b6
       -0.00018319827 3.5107553e-06 3.5107553e-06 -3.5107553e-06
000340 db fc 9a 36 ce ca 70 b6 16 14 84 b6 10 9c 53 35
       4.618994e-06 -3.5880835e-06 -3.936245e-06 7.8830726e-07
000350 4e 37 aa b6 bd 57 7c b5 4c b1 70 b7 c4 5e 36 b7
       -5.072833e-06 -9.400499e-07 -1.4346395e-05 -1.087011e-05
000360 ab d5 74 37 b7 6f 35 38 b7 6f 35 38 b7 6f 35 b8
       1.4593282e-05 4.3257805e-05 4.3257805e-05 -4.3257805e-05
000370 73 8e 01 38 51 19 0e b8 48 63 14 b8 72 18 f0 37
       3.0888663e-05 -3.3879016e-05 -3.5378413e-05 2.8621613e-05
000380 4b f6 18 b7 43 9e 99 b8 56 ec a9 b7 a7 a5 e8 b7
       -9.117251e-06 -7.325087e-05 -2.0256422e-05 -2.7733693e-05
000390 d2 8d 5b 37 87 09 e9 b7 87 09 e9 b7 87 09 e9 37
       1.3086437e-05 -2.7780201e-05 -2.7780201e-05 2.7780201e-05
0003a0 37 9f b4 b7 36 4f 3e 37 23 4c 29 37 46 99 3e b7
       -2.1531812e-05 1.1343325e-05 1.0090912e-05 -1.1360569e-05
0003b0 14 35 b1 37 1f 5f a8 37 0f 7f d0 37 99 8b de b7
       2.112476e-05 2.0071455e-05 2.4854698e-05 -2.6529468e-05
0003c0 5c 60 10 39 f1 c8 35 b9 f1 c8 35 b9 f1 c8 35 39
       0.00013768807 -0.00017336362 -0.00017336362 0.00017336362
0003d0 62 95 34 b9 cb 8b 2c 39 4a f7 2a 39 03 19 2d b9
       -0.00017221787 0.00016455275 0.00016304586 -0.00016507883
0003e0 e4 a0 1e 39 ec e2 95 b8 75 bd 41 38 03 1f ec b8
       0.0001512799 -7.147141e-05 4.619123e-05 -0.00011259133
0003f0 a4 7b c9 b6 f9 6d 18 b7 f9 6d 18 b7 f9 6d 18 37
       -6.0046605e-06 -9.085511e-06 -9.085511e-06 9.085511e-06

exp_avg_sq f4 [32, 60]
000000 3b 6d d9 36 d2 19 99 35 d2 19 99 35 d2 19 99 35
       6.47982e-06 1.1406903e-06 1.1406903e-06 1.1406903e-06
000010 1b 9e 9b 35 92 ef 99 35 d9 20 97 35 66 96 97 35
       1.1594415e-06 1.1469112e-06 1.1259937e-06 1.1294148e-06
000020 5b 6f 77 35 36 73 1e 35 7a 36 1e 34 8c b6 f9 35
       9.2176714e-07 5.902724e-07 1.4734715e-07 1.8605074e-06
000030 68 21 a2 37 ab 4d f9 35 ab 4d f9 35 ab 4d f9 35
       1.932746e-05 1.857455e-06 1.857455e-06 1.857455e-06
000040 3e e2 e2 35 9b 91 d0 35 95 0e cc 35 d8 98 e4 35
       1.6904157e-06 1.5539584e-06 1.5203428e-06 1.7031807e-06
000050 85 03 98 35 ec ac 6c 34 57 15 31 35 5d 4a fe 35
       1.1325907e-06 2.2042121e-07 6.596869e-07 1.8946117e-06
000060 ed 71 b5 36 04 49 83 35 04 49 83 35 04 49 83 35
       5.407483e-06 9.781511e-07 9.781511e-07 9.781511e-07
000070 ca fc 8a 35 7f 1b 8c 35 7c bf 89 35 64 c4 85 35
       1.0355373e-06 1.0438815e-06 1.0263025e-06 9.966429e-07
000080 a4 d7 63 35 38 60 0b 35 5a f9 03 34 89 8b c3 35
       8.487789e-07 5.192155e-07 1.229104e-07 1.4569242e-06
000090 f5 72 c8 35 c6 ec da 35 c6 ec da 35 c6 ec da 35
       1.4934618e-06 1.6311176e-06 1.6311176e-06 1.6311176e-06
0000a0 e2 0e ce 35 71 51 c3 35 d6 bb be 35 01 09 cf 35
       1.5352527e-06 1.4552335e-06 1.4210771e-06 1.5425322e-06
0000b0 a8 e6 90 35 b4 59 c9 34 ae 6f 04 35 a0 8b 12 36
       1.0795966e-06 3.7504435e-07 4.933635e-07 2.1836968e-06
0000c0 e5 e1 d1 34 5d 7f 62 35 5d 7f 62 35 5d 7f 62 35
       3.9093644e-07 8.43769e-07 8.43769e-07 8.43769e-07
0000d0 db 61 77 35 9f 36 7d 35 5a 8e 78 35 62 c1 6b 35
       9.215707e-07 9.432933e-07 9.259435e-07 8.782573e-07
0000e0 c9 3a 52 35 71 9d 33 35 85 76 78 32 3a f3 a3 35
       7.831664e-07 6.6911804e-07 1.4462448e-08 1.2215235e-06
0000f0 9a a4 71 34 fd ce 54 36 fd ce 54 36 fd ce 54 36
       2.2504756e-07 3.1710945e-06 3.1710945e-06 3.1710945e-06
000100 ed 34 4b 36 d0 93 41 36 f0 7d 3d 36 1e eb 4a 36
       3.0280164e-06 2.884528e-06 2.82365e-06 3.0237202e-06
000110 0b c5 14 36 57 31 0a 36 a1 72 a4 35 be 85 90 36
       2.2168413e-06 2.0592322e-06 1.2252314e-06 4.307104e-06
000120 e6 3c 8a 35 c4 25 40 36 c4 25 40 36 c4 25 40 36
       1.0299525e-06 2.8632212e-06 2.8632212e-06 2.8632212e-06
000130 6a fe 2f 36 3c 19 24 36 02 af 22 36 ec d1 31 36
       2.622512e-06 2.4452593e-06 2.424175e-06 2.6497246e-06
000140 b0 f3 09 36 7e 75 bb 34 45 24 04 36 fa cc 9b 36
       2.0556436e-06 3.491695e-07 1.9690644e-06 4.6432224e-06
000150 d1 a0 21 34 1d 7e 49 36 1d 7e 49 36 1d 7e 49 36
       1.5052798e-07 3.0024742e-06 3.0024742e-06 3.0024742e-06
000160 9e 62 41 36 f4 cb 39 36 e6 f9 35 36 92 32 40 36
       2.8816644e-06 2.7685865e-06 2.7116562e-06 2.8639665e-06
000170 91 94 0e 36 90 b8 85 34 5b ff c3 35 dd 7f 73 36
       2.1246126e-06 2.4907467e-07 1.460295e-06 3.6284248e-06
000180 a7 0a cc 35 52 eb 09 36 52 eb 09 36 52 eb 09 36
       1.5202285e-06 2.0551565e-06 2.0551565e-06 2.0551565e-06
000190 ee 43 14 36 d3 00 18 36 79 59 15 36 b1 86 0f 36
       2.2093259e-06 2.2650245e-06 2.225481e-06 2.1387061e-06
0001a0 1d 70 f6 35 b5 b5 b4 35 d2 c8 56 36 0c d5 04 36
       1.8361058e-06 1.3463929e-06 3.2005378e-06 1.9793542e-06
0001b0 d3 60 65 34 f1 19 53 36 f1 19 53 36 f1 19 53 36
       2.1362511e-07 3.145655e-06 3.145655e-06 3.145655e-06
0001c0 7c 55 49 36 34 b4 43 36 e1 37 40 36 3a cd 4c 36
       3.0001092e-06 2.9162156e-06 2.8642755e-06 3.0517826e-06
0001d0 67 78 12 36 f9 19 59 35 f2 a8 93 36 6e 3d 79 36
       2.1825779e-06 8.0876595e-07 4.400609e-06 3.7139648e-06
0001e0 12 be 7a 33 2d a7 02 36 2d a7 02 36 2d a7 02 36
       5.838053e-08 1.9468819e-06 1.9468819e-06 1.9468819e-06
0001f0 f9 0b f5 35 8e 91 e8 35 a5 82 e3 35 01 40 f6 35
       1.8257407e-06 1.7327709e-06 1.695084e-06 1.8347056e-06
000200 a6 74 b1 35 30 3e 25 35 a9 95 72 35 b5 4f 96 35
       1.3221477e-06 6.1557785e-07 9.036981e-07 1.1199069e-06
000210 42 30 a7 33 7a 91 cf 35 7a 91 cf 35 7a 91 cf 35
       7.7853215e-08 1.5465041e-06 1.5465041e-06 1.5465041e-06
000220 0f 72 cb 35 fc b4 c4 35 7d 6b c0 35 2a 5f c8 35
       1.5157874e-06 1.4655811e-06 1.4336398e-06 1.4928858e-06
000230 2d 63 98 35 85 f9 35 35 26 4b 04 35 0c 5c 9b 35
       1.1353746e-06 6.7790853e-07 4.928319e-07 1.1575189e-06
000240 a4 07 24 35 d3 d4 15 36 d3 d4 15 36 d3 d4 15 36
       6.110588e-07 2.232661e-06 2.232661e-06 2.232661e-06
000250 50 25 09 36 c4 7a 00 36 90 19 fb 35 59 78 0a 36
       2.043631e-06 1.9144945e-06 1.8708397e-06 2.0633654e-06
000260 8d 2d c0 35 02 40 81 34 f8 d0 8b 35 7a 0a ca 35
       1.4318372e-06 2.4074694e-07 1.0417125e-06 1.5053222e-06
000270 01 64 bd 36 52 66 d2 35 52 66 d2 35 52 66 d2 35
       5.644281e-06 1.5675998e-06 1.5675998e-06 1.5675998e-06
000280 39 b3 ca 35 c6 ac c2 35 bb 48 be 35 92 98 c9 35
       1.5102333e-06 1.450441e-06 1.417727e-06 1.5020071e-06
000290 53 66 93 35 2d f0 35 35 da 30 fc 34 54 2a cd 35
       1.0982134e-06 6.7777256e-07 4.6974202e-07 1.5286009e-06
0002a0 54 0d 6c 35 ec 2f 00 36 ec 2f 00 36 ec 2f 00 36
       8.7936246e-07 1.910138e-06 1.910138e-06 1.910138e-06
0002b0 cd 58 ef 35 b0 cd f4 35 b5 bc e5 35 73 aa 02 36
       1.7832732e-06 1.823928e-06 1.711675e-06 1.9470724e-06
0002c0 48 43 17 36 b2 a5 4d 35 a9 2c 18 36 66 eb 97 35
       2.2539916e-06 7.660957e-07 2.267576e-06 1.1318887e-06
0002d0 b5 e4 2d 34 d4 4c 04 34 d4 4c 04 34 d4 4c 04 34
       1.6195084e-07 1.2321408e-07 1.2321408e-07 1.2321408e-07
0002e0 1f 6c 05 34 51 cf 02 34 69 1f 01 34 63 86 02 34
       1.2425924e-07 1.2182615e-07 1.2025488e-07 1.2156083e-07
0002f0 ab 4a df 33 ea d9 f3 33 0b 83 38 33 89 44 72 34
       1.0397829e-07 1.13552076e-07 4.296002e-08 2.2562939e-07
000300 23 1b 3a 34 08 75 25 34 08 75 25 34 08 75 25 34
       1.7332472e-07 1.5409398e-07 1.5409398e-07 1.5409398e-07
000310 ca 67 1b 34 ad e4 12 34 bf 7f 10 34 b9 e9 1b 34
       1.4473258e-07 1.3680501e-07 1.3457519e-07 1.4520528e-07
000320 3d 54 e8 33 18 c6 d1 32 59 92 27 33 eb 17 bd 33
       1.0818665e-07 2.4420885e-08 3.901582e-08 8.805349e-08
000330 a3 59 4c 35 58 f1 01 34 58 f1 01 34 58 f1 01 34
       7.612636e-07 1.2101862e-07 1.2101862e-07 1.2101862e-07
000340 16 65 01 34 cd 8b 07 34 02 d6 05 34 fd e8 08 34
       1.2050836e-07 1.2623714e-07 1.2464446e-07 1.2750748e-07
000350 45 28 eb 33 b8 ba 1c 33 6f 5f 07 35 e8 e3 6c 34
       1.0950365e-07 3.64914e-08 5.0430293e-07 2.2062125e-07
000360 7a 21 68 34 46 3e 20 34 46 3e 20 34 46 3e 20 34
       2.1618862e-07 1.4923816e-07 1.4923816e-07 1.4923816e-07
000370 90 94 1d 34 37 8e 16 34 56 64 12 34 f5 44 20 34
       1.4675811e-07 1.4021576e-07 1.3633812e-07 1.4926248e-07
000380 83 1f 00 34 98 88 14 35 9d ed 65 34 1e 6a 19 34
       1.1932393e-07 5.5333066e-07 2.141373e-07 1.428784e-07
000390 39 6d a4 34 ce dc 06 34 ce dc 06 34 ce dc 06 34
       3.062685e-07 1.2560051e-07 1.2560051e-07 1.2560051e-07
0003a0 c4 3f 08 34 e2 08 05 34 83 ed 01 34 82 cf 07 34
       1.2689185e-07 1.2389822e-07 1.2100467e-07 1.2648346e-07
0003b0 a1 fb dc 33 a1 92 9f 34 3e 7d d9 33 9c 5d b7 33
       1.0290319e-07 2.9722744e-07 1.01276314e-07 8.538629e-08
0003c0 8e 1f 45 36 92 23 0d 35 92 23 0d 35 92 23 0d 35
       2.9373655e-06 5.2578355e-07 5.2578355e-07 5.2578355e-07
0003d0 d2 66 0c 35 c4 5e 09 35 a6 c9 06 35 88 cd 09 35
       5.230369e-07 5.117438e-07 5.0212327e-07 5.1335564e-07
0003e0 c7 bc da 34 6e 03 ab 34 8d 6b 23 33 12 5b 21 35
       4.0743018e-07 3.1853727e-07 3.8049212e-08 6.01097e-07
0003f0 8e 1e ce 35 b6 41 26 35 b6 41 26 35 b6 41 26 35
       1.5357089e-06 6.193544e-07 6.193544e-07 6.193544e-07

exp_avg f4 [32]
000000 49 9f b4 38 87 9c a5 b9 74 18 08 38 a1 03 82 b6
       8.612738e-05 -0.00031587874 3.24477e-05 -3.8747244e-06
000010 24 e9 6d b6 be 7d de 37 5c b7 f8 b8 60 a2 b6 ba
       -3.5451458e-06 2.6523016e-05 -0.00011859715 -0.001393389
000020 3a 8d 89 b9 90 20 cd b8 5d a0 75 38 db 31 82 39
       -0.00026235898 -9.781227e-05 5.8561902e-05 0.00024832677
000030 4f 57 49 37 22 82 fd 36 78 e9 38 39 cf cf 02 38
       1.2000862e-05 7.555137e-06 0.00017634581 3.1187952e-05
000040 b3 4c 68 38 dd bb 13 39 97 8e 21 ba dd 98 8e 38
       5.5384542e-05 0.00014088997 -0.000616291 6.799561e-05
000050 75 bc 88 38 2f 89 82 b8 71 ec 14 38 1f 34 a5 38
       6.520088e-05 -6.2244355e-05 3.5506153e-05 7.8775214e-05
000060 93 b9 c2 b5 8b 71 cb b9 05 35 3c 39 47 b6 c9 39
       -1.4508136e-06 -0.00038803773 0.00017948828 0.00038473515
000070 38 cd 0c 39 34 75 40 38 3b 48 e5 37 f1 5f c0 38
       0.0001342789 4.588552e-05 2.7332562e-05 9.173144e-05

exp_avg_sq f4 [32]
000000 33 f5 b7 35 a2 77 0e 36 c4 01 ca 35 4f f8 0a 34
       1.3705925e-06 2.1229284e-06 1.5050687e-06 1.2942586e-07
000010 df be 21 35 9e 78 04 35 7b e7 90 36 02 90 08 36
       6.025493e-07 4.9349353e-07 4.3184823e-06 2.0349403e-06
000020 3a a5 b1 35 d6 ae 7a 35 a1 fa 38 35 b0 f8 91 35
       1.3235615e-06 9.338668e-07 6.8910055e-07 1.087572e-06
000030 7d 9b 7c 34 4d 97 4d 35 2b 93 0a 36 05 17 44 35
       2.3525895e-07 7.658862e-07 2.0649265e-06 7.304919e-07
000040 a3 79 ba 35 77 2b 4f 36 48 d9 bb 35 34 5f bc 35
       1.3893481e-06 3.0870704e-06 1.3995823e-06 1.4034799e-06
000050 d7 9d 0f 36 84 c5 13 36 9b 3c 7d 34 2b 6e b9 35
       2.1400535e-06 2.2019676e-06 2.3584509e-07 1.3815637e-06
000060 ed a0 1b 34 18 18 d1 36 3e 29 86 36 2c f9 ed 36
       1.4494044e-07 6.2314903e-06 3.9983124e-06 7.092158e-06
000070 3b a2 8b 36 e9 9e 80 35 db de 78 33 23 1f 9d 34
       4.161409e-06 9.582992e-07 5.7944685e-08 2.9266184e-07
