save_model/autoencoder_model_broken.pth (torch, 70302 bytes, 24 tensors)

encoder.0.weight f4 [32, 60]
00000000: 7d7f f7bc 85c1 cabe 43f8 b0be 4152 363e
00000010: 0106 8dc0 86b9 e43f 0ea7 d2c0 f963 45c0
00000020: 1611 7ec0 bd37 7bbe 933b fdbe aa56 d7be
00000030: 0823 c0bd ee16 4b3f 1330 0dbf 3bc9 39bf
00000040: 170a 6fbf c358 aa3f 89ae 07c0 30d9 503f
00000050: 49e9 df3f a293 b93d 13df 2d3f 1bd1 643e
00000060: de16 dd3e 92f1 d1bf 5507 c6bf 0630 c03f
00000070: c3b7 d7bf b657 72bf 4c3d b9bd 0e02 a0be
00000080: 9a93 b43e f590 81bf ced0 da3d c374 533e
00000090: c562 f53e bc43 70be 0abc 90bd 896e 5e3d
000000a0: 0080 1e3f 6e0d 473f b8a8 cdbf ffa6 113c
000000b0: 31ae 47bf 30e5 1abf 5110 b5be 67d5 cbbe
000000c0: dceb 4e3e 6255 2dbf b5e1 47bd 197b 783f
000000d0: 1cfb 7f3f 7c99 d0be cded 8cbe f46d 44bf
000000e0: f0b7 a9bf d3f9 0c3e 36e0 b33e f4f4 c9bd
000000f0: 0e19 9b40 bbc3 803f 8d24 acbf 3b8a 07c0
00000100: 149a 3f3f 1204 fc3f ba65 3f3f 4f46 6b3f
00000110: c8a1 853e 3d67 35bf a727 f1be 1f45 bdbe
00000120: e40e b840 b058 6f3f 94cf 1740 b1ea 78bf
00000130: ac54 7d3f d975 8040 8e69 ee3e 6d04 1ac0
00000140: 1906 04c0 76fe 8f3e f72a 733f b3b2 20bf
00000150: 3351 e43f 7ee2 cfbe 6807 debe a5a7 f53e
00000160: 652d 83bf 6eae 81c0 dd66 3d3e cfc3 fb3f
00000170: 41a2 97bf 9ad3 bcbe 5b3f 58be bf42 4bbe
00000180: 4865 a1bc 5487 1ec0 ec88 dfbf 75a5 2340
00000190: 83d6 83bf 08da 213f a1cb 393f 5149 acbd
000001a0: 89a9 10bf 03e3 dfbf 7164 9ebd a580 e63d
000001b0: edb5 603f 566b 833f 29e1 703f e993 6abf
000001c0: 2b8b edbe 87d7 793f 19de 973e 098b 8ebe
000001d0: bdcc 3f3f 76ad 423f 1a9e c03f eb8b 03be
000001e0: e975 973d 0c1c 273f 3ed1 0bbe 0154 4ebf
000001f0: 9868 92bf fa7b 693f ac01 0f40 608f 0f40
00000200: cefb a8be d1bb 033f 7f3d a0bf b029 f53d
00000210: 2368 20bf 9745 3140 5022 6540 e426 31c0
00000220: a632 953f 1f54 e2be aebf 1d3f 6b7f b33f
00000230: c467 7d3f 926a 083e 52f6 88bf 0f0c 09be
00000240: cc2a 7bbd bfaa 993e 26d5 8bbe 066e fcbe
00000250: 5282 2740 90b7 8c3f 4e3d 2240 d4eb 1340
00000260: 7428 1d40 b3fc 713f 3db0 9e3e a87a 4abd
00000270: 0cc9 ddbd e594 93bf 96d3 9fbe 9054 af3f
00000280: 6166 233f 9a73 9fbf 18c5 3f40 de10 6340
00000290: 43d4 953d 5d86 be3f 2b72 02c0 effd 163d
000002a0: c20f 9e3d 2683 963f eae7 913f 12fb 98bf
000002b0: 6ede 1e40 bd8c 1cbf 2b9e 89bf e0d8 ffbf
000002c0: 07d6 ae3f 71f0 cb3e 0219 b9bd afa6 93bd
000002d0: 338d 3cbc 91eb 093f 0627 2b3f 4aa3 f1be
000002e0: 9455 3740 7555 b5bf e5f7 4f40 195b d8bf
000002f0: 2db6 cc3f 45a3 ecbd 2633 403e 8d5b 213e
00000300: d67a 5a3d 4f18 9a40 86d6 683f 4962 a0c0
00000310: 8a97 bcbf 3654 0040 ca0c 8fbf f20d c0bf
00000320: 500a f9bf 3898 713f 5dbd 1ac0 4ad1 c23d
00000330: 0e29 c83c a355 8abd 85ac a9bc 2ab7 be3c
00000340: 82b7 bd40 220a c93f f36c 1140 ec36 6940
00000350: 2c48 c240 5a9c c0bd 4b01 e73e 75dd d2bc
00000360: d667 14bb 231b a63e 8d62 c4bf 2d2b 0ebf
00000370: 36f7 c0bf d062 6dbd cd4e cdbf 8fd2 e73f
00000380: 489c d13f ff7e 7abf a3fa 12c0 62be 8ebe
00000390: f0d9 3ebe f355 563f 0189 3e40 1d54 adbc
000003a0: 65bd 0840 fc1a 2440 e3e9 c6bf f4b9 14bd
000003b0: d36c 1240 e345 25bf ca29 6b3e bc89 313e
000003c0: a837 033f d0b7 dcbf 04f2 ccbf 4f08 bd3f
000003d0: 701f 16be a106 1640 698b e73f 97c5 7ebf
000003e0: e1ab 2e3d 83a9 e4bf 1351 c7be bdab 963d
000003f0: 93b4 c9be 6aa6 4f3f b982 5e3f 1075 29bf
-0.030212158 -0.3960077 -0.3456441 0.17804815 -4.406983 1.7869117 -6.5828924 -3.0842268
-3.9697928 -0.24532981 -0.49459514 -0.42058307 -0.09381682 0.7933186 -0.5515148 -0.7257268
-0.9337477 1.3308338 -2.1200278 0.815814 1.7493068 0.09061362 0.6791851 0.22345392
0.4318151 -1.6401846 -1.5470988 1.5014656 -1.6852955 -0.94665086 -0.090448946 -0.31251568
0.3526886 -1.0122362 0.106843576 0.2065001 0.47926918 -0.23463339 -0.070671156 0.054304633
0.6191406 0.7775487 -1.6067114 0.008889913 -0.7800017 -0.6050596 -0.3536401 -0.3981125
0.2020716 -0.6770841 -0.048799235 0.9706283 0.9999254 -0.407421 -0.27525178 -0.76730275
-1.3259258 0.13767175 0.35131997 -0.09861174 4.8468084 1.0059732 -1.3448654 -2.117812
0.7484448 1.9688742 0.747646 0.9190416 0.26099992 -0.70860654 -0.47100565 -0.36966798
5.7518177 0.934947 2.3720446 -0.9723311 0.98957324 4.0143857 0.46564907 -2.4065201
-2.0628722 0.28123826 0.94987434 -0.62772673 1.783728 -0.40602487 -0.43365026 0.47979465
-1.0248228 -4.0525427 0.1849627 1.9669131 -1.1846391 -0.3688019 -0.21117918 -0.1984968
-0.019701615 -2.4770098 -1.746366 2.5569737 -1.0299839 0.63223314 0.7257634 -0.084124215
-0.5650869 -1.7491153 -0.077340014 0.11255006 0.87777597 1.0267131 0.9409357 -0.91631943
-0.4639524 0.97594494 0.29661635 -0.2784045 0.7492178 0.7604593 1.5048249 -0.12846343
0.073955365 0.6527717 -0.13654038 -0.8059693 -1.143817 0.912048 2.234477 2.243126
-0.33004612 0.5145846 -1.2518767 0.11970842 -0.626589 2.7698724 3.5802193 -2.7679987
1.1656082 -0.44204804 0.61620605 1.402326 0.9898646 0.13321903 -1.0700171 -0.13383506
-0.06132011 0.3001308 -0.27311057 -0.4930269 2.6173291 1.0993519 2.5349917 2.3112688
2.455594 0.94526213 0.30993834 -0.04943338 -0.10829362 -1.1529814 -0.31216115 1.3697681
0.6382809 -1.2457154 2.9964046 3.5479045 0.07315876 1.4884754 -2.0382183 0.036863264
0.07717849 1.1758773 1.13989 -1.195162 2.482326 -0.6115225 -1.0751394 -1.998806
1.3659066 0.3983188 -0.09037973 -0.07209527 -0.011508274 0.5387507 0.6685642 -0.47194892
2.8645983 -1.4166704 3.2495053 -1.6902801 1.5993096 -0.11554579 0.18769512 0.1575758
0.0533398 4.8154674 0.90952337 -5.0119977 -1.4733746 2.0051398 -1.1175778 -1.5004256
-1.9456272 0.9437289 -2.4178078 0.09512575 0.024433639 -0.06754615 -0.020712147 0.023280699
5.928651 1.5706217 2.2722747 3.6439772 6.07131 -0.09404822 0.45118174 -0.025740365
-0.00226449 0.3244258 -1.5342575 -0.5553463 -1.5075443 -0.057955563 -1.6039673 1.8111132
1.6375818 -0.9785003 -2.2965477 -0.27879626 -0.18637824 0.837249 2.977112 -0.021158272
2.1365597 2.564147 -1.5540127 -0.03631015 2.287892 -0.64559764 0.2296516 0.17337698
0.512568 -1.7243595 -1.6011357 1.476816 -0.1466043 2.3441546 1.808942 -0.9952025
0.042644385 -1.7864231 -0.38929042 0.07356975 -0.3939558 0.811133 0.86918217 -0.6619425

encoder.0.bias f4 [32]
00000000: 7da5 e3c0 92ce 27c1 bbab 2cc1 f05a e6c0
00000010: d343 1fc1 be11 29c1 e527 5ec1 3b50 83c0
00000020: fece 2ec1 0353 3abf 382c 1bc1 cf1f 91c0
00000030: 5b1e 92c1 bc4b 12c1 99c2 6ec0 5c96 b1bf
00000040: 68b7 2dc1 a290 27c1 b3f8 eec0 bea4 aec0
00000050: 630d 1ec1 4a30 3dc1 9459 85c1 f1e8 21c1
00000060: be98 03c1 9eb4 26c0 bee9 27c1 2a2d 87bf
00000070: 2a43 a9c0 c92c 8cc0 d813 863e 52de 59c0
-7.113951 -10.487932 -10.791926 -7.198601 -9.954059 -10.566832 -13.88474 -4.1035438
-10.925535 -0.72782916 -9.698296 -4.535133 -18.264822 -9.14349 -3.7306273 -1.3874011
-10.857277 -10.472811 -7.467859 -5.45761 -9.878268 -11.824289 -16.66874 -10.11937
-8.224791 -2.604774 -10.494566 -1.0560658 -5.2894487 -4.380467 0.26187015 -3.4041944

encoder.3.weight f4 [16, 32]
00000000: d11d aebf 22f7 3fc1 636f 82c1 1c6d 3bc1
00000010: 07e4 1cc0 408b abc0 c80a cbc1 865d 5dc1
00000020: d2f1 bcc2 8a3a eec2 b5df 08c1 040c 7bc2
00000030: 414c 77bf ff7f 00c3 0443 c7bf 8a81 32c1
00000040: 441c 13c1 38ac d2c0 0909 c3c2 4802 18c3
00000050: b2cb 50c1 0e88 b0c0 cc03 5ac1 bd21 39c1
00000060: c77f 58c0 0104 90c0 4cb5 b8c0 d7d7 32c1
00000070: f60b 7dbf 23b6 99c1 da2a 1ac1 704a dec2
00000080: 16dc e1be ef7c a8c0 5962 eabe 8035 0ac0
00000090: 2c56 efbe 7404 70c0 6217 04c2 a1ea a2c2
000000a0: 2b61 dac1 2d81 dec1 0c2f f2c1 ade6 1ec1
000000b0: 5dae 55c1 af5a f3c1 3bfa 8dc0 64ef 03c2
000000c0: 4bb1 fdc1 80c4 08c3 1fd4 20c1 ff9e 0ac2
000000d0: dde6 2ec0 36cf 12bf bfc1 33c1 02ee 27c3
000000e0: fd2d fac0 24be c4c0 0acc 93c2 5f05 94bf
000000f0: b663 0ac3 e20a abbf aace ccc1 5f6d b8c2
00000100: 6582 763d b2d3 1d3e ee87 14bd 2af9 a3bc
00000110: d250 f43b 223c 353e 0e46 2c3d 60b6 fc3d
00000120: dacd 843e cf87 233f 3d64 0c3e cf65 ea3e
00000130: f73e 453e f59c c5bd 62df f1bd cbff 6fbe
00000140: e4f4 89bb 0200 903e f5cf b2bd b73b 70bd
00000150: aee0 003e 46f1 1a3e 11a6 88bc d91b 883c
00000160: b2da e83e d715 f43f 9db8 243e ae92 ecbd
00000170: 803e a73e 3793 703e 929a 493f aca0 5a3e
00000180: d9b1 50bd ff77 73bb 5bcd 2fbe bf0e 4ac1
00000190: c4ff c0be 186c 80bd 83fe a9c0 a957 bdc2
000001a0: 820c d3c1 201e e2c2 7f05 cec2 6a96 02be
000001b0: ab22 bac1 ae03 9bc1 15eb aebd cdb1 27c2
000001c0: f74c ccc2 fb5a 11c2 99f7 f9be 57d1 b2be
000001d0: 8122 9bbc aa35 fdbd 5689 22c2 14a4 3cc2
000001e0: c7ea acc2 b70e 37bd c8eb c4c1 316f 4dbd
000001f0: 1862 5ec1 d1b1 2bbf 0ecf 07c2 d8ef f23d
00000200: 3a97 4dc2 8def 0ac0 f408 c1c1 72c8 43c2
00000210: 9ce1 cac1 4820 d4c1 a48b 92c2 9ca5 afc1
00000220: 0969 55c3 1e12 fbc1 9291 05c1 c663 7dc2
00000230: bcdc 77c1 8805 1fc3 3bfc 3fc1 26bc d1c0
00000240: 1408 a2c1 7e1f ddc1 33b6 4ac3 e545 25c2
00000250: 000e 13c2 c83b a1c1 9d86 01c0 252c 54c1
00000260: ebbf 27c1 38bb 0cc1 bb17 e3c0 b5a2 60c1
00000270: da2a 2ec1 2915 87c1 4e89 95c1 a21b 99c1
00000280: bc58 353d b359 46bc 127f a13e d84d 5c3c
00000290: da88 863f 6a6c af39 aac3 a63f 9dbc 88bb
000002a0: b690 a63d 6511 55bc 775a 5f40 c151 a2be
000002b0: 08da 00be 0263 adba 6e09 1e3b 68db 253e
000002c0: 7ea5 d63f 881e 2340 9cca 393d a97d 113c
000002d0: 8678 be40 899f 323f ba3f 3440 365a e63f
000002e0: 83ee 283c 1ede 803c 73ff a63d 043f 123b
000002f0: 11fb 013b 8e0c 02be 1d87 96bb 6b38 88bc
00000300: ff33 abc1 02f6 75c1 9ec5 4cbf 2813 c2bf
00000310: c066 04be 067f 77c2 30ac 7ec1 bf20 c6c1
00000320: 25e2 a0c0 0f28 d3c1 cde2 dbc1 31ba 14be
00000330: c068 c8c1 f2a9 77c0 dc45 31c1 ae85 66c1
00000340: fb2e c8c1 8443 54bf a4cc 4fc1 6c94 1dbf
00000350: 9b69 96bf a95e b33c 6999 89c1 4fb3 d93e
00000360: 9ac6 59c2 7464 a0c1 af3c a2c1 bb4a 70be
00000370: 255b 08c2 c6cd cbc2 f2e1 f7c0 1be3 83c2
00000380: 07f8 923f f0dd 20b9 07e8 743e ac6d e33d
00000390: 6893 853c f819 3039 d79e a840 33a5 783d
000003a0: 42e0 ea3f 73e5 31bc a2da e73d abba 853e
000003b0: a359 4a41 8746 133e a392 fb3d cd16 31bb
000003c0: 0842 023d 35e3 f13d 41a2 f33b 9ca9 9e3d
000003d0: 391a 983d d75c d53e d8a4 d43f ecda 633d
000003e0: 215f 7b3e 9638 86bc d655 8640 07bb a53d
000003f0: c7f9 1640 9102 2d40 e4f4 77bc cb20 563d
-1.3602849 -11.997835 -16.304388 -11.714138 -2.4514177 -5.3607483 -25.380264 -13.835333
-94.472305 -119.114334 -8.554616 -62.761734 -0.9660073 -128.49998 -1.5567327 -11.156626
-9.194401 -6.583523 -97.51765 -152.00891 -13.04973 -5.516608 -13.625927 -11.570737
-3.382799 -4.5004888 -5.772131 -11.177695 -0.98846376 -19.213934 -9.635462 -111.145386
-0.44113225 -5.2652507 -0.45778158 -2.1595154 -0.4674543 -3.7502718 -33.022835 -81.45826
-27.297445 -27.813074 -30.272972 -9.931317 -13.355069 -30.41928 -4.4367957 -32.98378
-31.711569 -136.76758 -10.051787 -34.65527 -2.7328408 -0.5734743 -11.234801 -167.92972
-7.818114 -6.1482105 -73.89851 -1.1564139 -138.3895 -1.3362696 -25.60091 -92.213615
0.060182948 0.15412787 -0.036262445 -0.020016272 0.0074559236 0.1769872 0.042058997 0.12339473
0.25938302 0.638791 0.13710113 0.457808 0.192623 -0.09649078 -0.11810185 -0.23437421
-0.0042101014 0.28125006 -0.08731071 -0.0586507 0.12585708 0.15131101 -0.01668075 0.016614841
0.4547935 1.9069165 0.1608605 -0.115514144 0.3266487 0.23493658 0.7875148 0.21350354
-0.05095086 -0.003715038 -0.1716818 -12.6286 -0.37695134 -0.06270617 -5.3123183 -94.67121
-26.381107 -113.05884 -103.010735 -0.12752691 -23.266928 -19.376797 -0.08540932 -41.923634
-102.15032 -36.33885 -0.48821715 -0.3492534 -0.018937351 -0.12363751 -40.634117 -47.160233
-86.45855 -0.044691768 -24.615128 -0.05015487 -13.898949 -0.670682 -33.9522 0.11862153
-51.397682 -2.170871 -24.129372 -48.945747 -25.36016 -26.515762 -73.272736 -21.955864
-213.4103 -31.383846 -8.34804 -63.347435 -15.49139 -159.0216 -11.99908 -6.5542173
-20.253944 -27.640377 -202.71172 -41.318256 -36.76367 -20.15419 -2.0238411 -13.260777
-10.484355 -8.795708 -7.096647 -14.039723 -10.885462 -16.885332 -18.692043 -19.138493
0.044274077 -0.012106347 0.3154226 0.013446294 1.0510514 0.00033459376 1.3028462 -0.004172875
0.0813307 -0.013004635 3.4898965 -0.31702998 -0.12583172 -0.0013228359 0.0024114507 0.16196978
1.6769254 2.5487385 0.04535924 0.008880057 5.9522123 0.6977468 2.8163896 1.799628
0.010310772 0.015730914 0.08154192 0.0022315392 0.0019833485 -0.12700102 -0.0045937435 -0.016628465
-21.400389 -15.3725605 -0.7998904 -1.5162096 -0.12929821 -61.874046 -15.917038 -24.76599
-5.0276055 -26.39456 -27.485743 -0.14524151 -25.051147 -3.8697476 -11.0795555 -14.407637
-25.02294 -0.8291552 -12.987461 -0.615546 -1.1750978 0.021895723 -17.199907 0.42519614
-54.443947 -20.04905 -20.27963 -0.23466007 -34.08901 -101.9019 -7.746331 -65.943565
1.1481942 -0.00015341467 0.23916636 0.111049026 0.01630564 0.00016794342 5.2693896 0.06070442
1.8349688 -0.010857928 0.11320998 0.2611898 12.646884 0.14382373 0.12283828 -0.0027021647
0.031801254 0.118109144 0.0074351137 0.07747194 0.074268766 0.41672394 1.6612806 0.055628702
0.24548008 -0.016384404 4.197978 0.08092313 2.3589952 2.7032816 -0.01513407 0.052277368

encoder.3.bias f4 [16]
00000000: 8c56 acbb 9308 39bc 36e9 e03f 0b79 09c1
00000010: c8c9 0dbc da75 30bf 204f 15c1 66b1 323e
00000020: 8751 7940 557f 47c1 14d0 443f be52 97bc
00000030: e680 5b3f 1cb3 8bbc db42 9d40 ec54 293e
-0.0052593406 -0.011293548 1.757117 -8.5920515 -0.008654065 -0.6892983 -9.331818 0.17450485
3.895601 -12.468587 0.7688 -0.018472072 0.8574356 -0.01705318 4.914411 0.16536301

decoder.0.weight f4 [32, 16]
00000000: a760 2240 8a56 5ec1 2f63 cebf 362b 07c1
00000010: 7564 5cc0 4582 f2bf d79f 78c0 4f95 b1bd
00000020: 7245 36bf f0ab 65bf e845 12bf b0d6 bfbe
00000030: f3a1 80bf 92ab 7ebf eead c4be 1f4b f2c0
00000040: b585 8bc0 9f0e 603f 5421 0bbf 232e 33c0
00000050: 9906 48c0 a769 70c2 cbe6 3cc0 2794 c8c1
00000060: d833 3ebf 2f89 17c2 3a43 e5c0 da60 f4be
00000070: c389 5dbf 8b07 7cbe a2c8 cebd 6fb3 46be
00000080: 40d8 0dbf 1bfc 5440 9fe6 4f3e dc25 633e
00000090: 87b0 7640 5135 3cbd 727d 1b3e 4d12 e73d
000000a0: ff23 06c0 107f ca3e 749e aac0 8e72 c83e
000000b0: a80d 7fbe f855 38bf 3911 e5bc bb08 5bbd
000000c0: 8318 49bd ea81 4e3d 6def bebe 25e9 193e
000000d0: 8e0f 0340 c5e8 81c0 1958 99bf 85fc 56bf
000000e0: a063 34c0 7d8e 883e 7eb4 d5c0 2264 ddbf
000000f0: 0fb4 e5c0 270a 08be 125a 273f 6b93 813c
00000100: 583d f1c0 7e5c ef3f 6e3e fa3c 4577 9f3d
00000110: b2d0 57bf 9bdf 373c 2e83 85c0 4dc9 c93b
00000120: 1923 14bf f411 e7bb cf91 c2bc fc49 aebf
00000130: 64ea 0a3b 91e1 6dbf c42c 3b3e 445a aac0
00000140: a715 6ac0 16ea acbe 47cf 503d 863d aac0
00000150: 2bbf f8bf 4fbe b0bd 6f0e ba3e 3a13 b53c
00000160: 3da5 f83e 7d22 0d3d e279 ccc1 de5f 94c0
00000170: 46b9 71c0 8400 aa3e ffaf e8bc c155 7cbc
00000180: c9e7 f9bc a474 8cc0 26ab 9ac2 e26a 51c2
00000190: 5836 e2be 512e a0bd ccb8 9d3f 9e50 1b3d
000001a0: dddf 1e40 f57a eabd 6601 0bc2 b9c7 88c0
000001b0: 93c3 0ec0 2464 0fc0 ac7b 533e 881e c43c
000001c0: 799e 533f 2a76 b63f 593f 22be 989d 99c1
000001d0: 2fba 4fc0 ec3e a3c0 8b57 02c2 0a8d 13c2
000001e0: b81e 5dc0 1205 dbc0 f58c b1bf 569e 1cc1
000001f0: f449 963e 84cc 253f f097 f33e 08e8 50c1
00000200: d98e bdbf 5c35 9bc0 5e28 863c fe02 a3c0
00000210: 5403 85c0 b8bc 1f3b eee3 02c1 bf5b 1c3d
00000220: a738 52c0 9e1f 84be 88a9 48bc e787 00c3
00000230: b253 003d 7113 4fc2 ace0 093f 90b4 54c2
00000240: dd46 7a3f bbc8 57c0 f94d 443f d4dc 0dc0
00000250: cb16 e2be e4c0 b5bf b9cb 88c0 132c 8bbf
00000260: 0442 22be 49b3 2dc0 d800 80c0 12c0 86c0
00000270: 39b7 0abd 6e1c 0fc2 eed2 acbf 781a d1c1
00000280: 2e7f 043f 5c55 97c1 f702 bbbf 6ff4 8ac2
00000290: d9f1 0cbf eaea 88c1 a57c 9c3e ee89 19bf
000002a0: 6bc9 d7c0 5048 a23e 41c4 46c0 5a8d 7a3f
000002b0: 6b62 10c0 1171 2dbf 7674 50be 3286 8ec0
000002c0: 8c18 b03f 33ac 46c1 20ff 4d3f a3bc adc0
000002d0: 9ea3 44c0 803c 9e3c 6156 c0c0 3b71 a6bb
000002e0: 9f7b b03e 866f d83e 007d 39bd fe78 99bf
000002f0: 998d c6bc eee8 273d 14a4 13bc 34de 3f3c
00000300: b0dd 10bf 7d67 87bf 3baf 8abd 84bf c0c0
00000310: 4986 00c0 b414 55be 4160 39bf a31c e83b
00000320: a8e2 b43d def7 dfbe 0b0f 0c40 ff8d b9c0
00000330: 6c21 17c1 8acd 9a3d 7400 5c3d 02c7 a83d
00000340: 3877 e43f 3cf9 81c1 3151 f5be d0a6 00c1
00000350: f7d1 49c1 7282 c1bf 9fb2 22c0 bd46 18c2
00000360: 45dc 90c1 a862 5ec0 1429 07bf 4a90 a03e
00000370: a1c4 74bf 5b4a babe 2dcb 983e df8a c43d
00000380: 0c1f 2e3e 5e12 1abe 50af e7c1 955f 4f3f
00000390: 8414 f6be 8605 ecbc d675 2b3d 7e17 18bf
000003a0: 7922 b6be 53ad 4cbe b6ca c7bf 8406 a3bd
000003b0: 089f 3ebe 9995 07bd 79bb c73e f593 adbe
000003c0: 8eed c73f 7a2f a1be 73cc 88bf 4699 2040
000003d0: 75da 7ebf 0208 9abf d07d fd3b ccb4 8fbf
000003e0: 328b c3c0 ec61 65c1 03da ef3f bf63 8240
000003f0: 0a5e eebf 6cc9 29be b962 0ebe 6716 01c2
2.5371492 -13.896128 -1.6124018 -8.44805 -3.4436314 -1.8946005 -3.8847558 -0.086710565
-0.71199715 -0.8971548 -0.5713792 -0.3746848 -1.0049423 -0.99480546 -0.38413948 -7.57167
-4.3600717 0.8752231 -0.5434773 -2.799691 -3.1254027 -60.103176 -2.9515865 -25.07234
-0.7429786 -37.88397 -7.1644564 -0.47730142 -0.8653833 -0.24612252 -0.100968614 -0.19404386
-0.55408096 3.3278873 0.20302819 0.22182411 3.8545244 -0.045949284 0.15184572 0.112827875
-2.095947 0.39550066 -5.3318424 0.39149898 -0.24907553 -0.7200618 -0.027962314 -0.053475123
-0.04909564 0.050416864 -0.37292042 0.15030344 2.0478244 -4.0596642 -1.198001 -0.83979064
-2.8185806 0.2667121 -6.6782827 -1.7296183 -7.17823 -0.13285123 0.6537181 0.015817365
-7.5387383 1.8700101 0.030547347 0.07786421 -0.8430282 0.011222745 -4.172263 0.00615803
-0.57866055 -0.0070517007 -0.023751168 -1.3616328 0.0021196837 -0.9292231 0.18278795 -5.3235188
-3.6575716 -0.33772343 0.050978925 -5.32001 -1.943334 -0.086300485 0.36339137 0.022103895
0.48563567 0.03445672 -25.559513 -4.6367025 -3.7769332 0.33203518 -0.028404234 -0.015401305
-0.030506032 -4.3892384 -77.334274 -52.354378 -0.44182086 -0.07821334 1.232202 0.03791868
2.4824135 -0.114492334 -34.751366 -4.27438 -2.230687 -2.240487 0.20652646 0.02394034
0.82663685 1.4254811 -0.15844478 -19.20195 -3.2457387 -5.101431 -32.58549 -36.887733
-3.455 -6.844369 -1.3871142 -9.788656 0.29353297 0.6476519 0.47576857 -13.056648
-1.4809219 -4.8502636 0.01637667 -5.0941153 -4.1566563 0.002437396 -8.180647 0.038173433
-3.2847078 -0.25805372 -0.012247451 -128.53087 0.031329818 -51.768986 0.5385845 -53.17633
0.9776438 -3.3716266 0.76681477 -2.2166033 -0.44158015 -1.419949 -4.2748685 -1.0872825
-0.15845495 -2.7140677 -4.000103 -4.210946 -0.03386614 -35.777763 -1.3501871 -26.137924
0.5175656 -18.91668 -1.461028 -69.47741 -0.5505653 -17.114704 0.30563846 -0.5997609
-6.743337 0.31695795 -3.1057284 0.97871935 -2.256007 -0.6775065 -0.20356926 -4.4538813
1.3757491 -12.417041 0.80467415 -5.429277 -3.0724864 0.019315958 -6.0105443 -0.005079416
0.34469315 0.42272586 -0.045285225 -1.1990049 -0.02423744 0.040993623 -0.009011287 0.011710692
-0.5658827 -1.0578457 -0.06771704 -6.0233784 -2.008196 -0.20808679 -0.72412497 0.007083492
0.08832294 -0.43743795 2.1884181 -5.7985835 -9.44566 0.07558735 0.05371137 0.08241083
1.7848883 -16.246696 -0.47913507 -8.040726 -12.613761 -1.5117934 -2.5421522 -38.06908
-18.107553 -3.4747715 -0.52797055 0.31360084 -0.9561253 -0.36384854 0.2984251 0.095968
0.17004031 -0.15046069 -28.960602 0.8100522 -0.48062527 -0.028811228 0.041860424 -0.59410846
-0.35573176 -0.19987993 -1.5608737 -0.07960227 -0.18615353 -0.03310165 0.39010218 -0.33901945
1.5619371 -0.31481534 -1.0687393 2.509355 -0.9955209 -1.2033694 0.0077359453 -1.122705
-6.1107416 -14.336407 1.8738407 4.074676 -1.8622448 -0.16580743 -0.13904847 -32.271877

decoder.0.bias f4 [32]
00000000: 0aba 04c1 83dc f13e 19d3 6c40 9763 25c1
00000010: e041 e840 af7a 0c41 8422 d340 70e0 9cc0
00000020: 968a 3e41 fab5 e940 c014 bd3f e617 6ac0
00000030: 9ae4 d340 6e8a e7c1 8d27 47c0 a9c3 f540
00000040: 10ce 4d40 a6bb d1bf 3026 df40 ebbc ea40
00000050: b38a 9240 f782 2940 8545 71be c3a8 98c0
00000060: acf0 a2be 855c 0ec1 01e8 19c1 9847 ec40
00000070: 3c61 3e40 9369 ee40 90a2 8240 aace 19c1
-8.29542 0.4723855 3.7003844 -10.336814 7.2580414 8.779952 6.5979633 -4.902397
11.908834 7.303464 1.4771957 -3.6577086 6.6216555 -28.942593 -3.111789 7.6801343
3.215702 -1.6385391 6.9734116 7.3355613 4.579431 2.6486185 -0.23561676 -4.770601
-0.31824243 -8.897588 -9.619142 7.3837395 2.9746847 7.4503875 4.082344 -9.612955

decoder.2.weight f4 [60, 32]
00000000: b933 6ebe 5955 e43e dab3 4d3e a459 5d3e
00000010: 7f9a 0e3c a6e8 47bd 2573 373e d260 303f
00000020: 130b 8fbc 1a64 c2bd ef12 93bf 906e 923d
00000030: 4bf7 84be 6490 023d 4249 83be 90ec 1a3d
00000040: a025 393f b633 d33a f11b bb3d d532 29bd
00000050: 1a60 e43b a117 c6be e265 e7bd da89 253e
00000060: 030a c13c d125 213f 416f 4ebd 1ca4 72bb
00000070: 8ae8 993c 08b3 303d b000 2abd 23b1 053e
00000080: 6b30 8ebe 5e87 b53d 19d7 093d b25f 453e
00000090: 8c89 28bc 3ba3 b73c f920 873b 82e9 343d
000000a0: 664d 893b 4dd3 943b 95e1 3abe 4ed7 d5bd
000000b0: 5cb3 d2ba 1f2b 75bc 321d d73c e3e3 17bc
000000c0: 678a a1bf a28d 583e fae5 d7bd c42a 593e
000000d0: 9cc8 51bd 33c6 74bc 0490 a43d 4468 873d
000000e0: abd7 0ebe 573f e63e 826d 28bd face b7bb
000000f0: e9cf b63d ce17 a23e 6a13 87bd 7e66 22bc
00000100: c61f 5ebe 3a3d b53d 1bd7 093d c05f 453e
00000110: 7b89 28bc 34a3 b73c 0821 873b 93e9 343d
00000120: 594d 893b 38d4 943b 75ae 3abe 4fd7 d5bd
00000130: 1bb2 d2ba 0009 92bc 1536 143d e6e3 17bc
00000140: 099a a1bf a28d 583e fbe5 d7bd c42a 593e
00000150: 9dc8 51bd 39c6 74bc 0590 a43d 4368 873d
00000160: 2dca ecbd f392 d23e 6042 83bd d8ce b7bb
00000170: eacf b63d cd17 a23e 6c13 87bd 9666 22bc
00000180: 1fd8 9a3e 029f b5bd 1dd7 09bd bc5f 45be
00000190: a589 283c 36a3 b7bc f020 87bb 7ee9 34bd
000001a0: 704d 89bb e2d2 94bb 77f0 3a3e 50d7 d53d
000001b0: ffb3 d23a ca15 613c 83a9 b7bc e2e3 173c
000001c0: d785 a13f a08d 58be f8e5 d73d c42a 59be
000001d0: 9ec8 513d 3ac6 743c 0790 a4bd 4368 87bd
000001e0: e0d8 b7bd bd25 efbe a5cf 103d f2ce b73b
000001f0: eecf b6bd ce17 a2be 6813 873d 9a66 223c
00000200: dde0 db3d a26f d13e fd0b 273d f8d7 e13e
00000210: 6f3b 33ba d57d babb f4c7 aabc 5269 2d3c
00000220: d32b 90bb dd76 7d3b 3ca1 633e bfcc c0bd
00000230: 5836 fdba 48a7 bc3c 5525 f9bc 16f0 f5ba
00000240: 198e 58bf 309b 563e 8acc de3c 59d3 f6bc
00000250: 9b60 e5bc 92af e2bc b7ea a43b f387 463d
00000260: 408c 13be a59c 8cbf 7e41 d0b9 3c25 53bc
00000270: e7c0 183d a39f 973e 68d3 84bc 9ea2 cd3b
00000280: 7ebf b53e 379d 8c3e 52ec 53bd 1ae6 0c40
00000290: f0ee 323b a0bc 75bc 5fa1 e33b 956b 4e3e
000002a0: 7985 e23b 2435 1ebc b18b 96bf b7d2 1d3e
000002b0: 560f 4a3c 1d04 663c adc3 c4bd f59a 91bc
000002c0: 7b90 c03f 3f22 51be 8929 cfbd 64cf 313d
000002d0: 773b b53c 5b2f 193d bf56 363d 4574 c0bd
000002e0: e7e3 513e df49 d8be 9dff fa3c acdb 643c
000002f0: 4683 09bd c8d3 98be cebd e03c b845 e3bc
00000300: 6def 273e 57fa ae3e 34ed 52bd 9702 1240
00000310: 3ecf 863b 3dc0 97bc 2579 a3ba 4e4e 343e
00000320: faf7 d23b 3e12 25bc 3984 063f fdba 173e
00000330: 35b4 4e3c c037 4f3d 61a6 e0bc 0737 8bbc
00000340: 2b29 c93f 5333 4cbe 2821 fbbd 04fc 493d
00000350: 26b9 893c 24fe 183d 0a1b 4f3d 164d a6bd
00000360: 68c7 17bd 58cc 05bf df43 5f3d 7dd9 773c
00000370: 0521 cfbc a70c 93be 116c 8d3c 0f07 1cbd
00000380: 7d8c b5be b892 af3d e238 703d 40be 9f3f
00000390: 7a52 f5bb f000 bebc 1331 6fbd 629e 34be
000003a0: 7476 1d39 8246 183c 0762 b83f c6e8 31be
000003b0: 7b41 45bb 9676 69bc c0ae ed3d a7b4 103c
000003c0: f739 8abf 38ee 543e 8014 c2bd 0b1d bdba
000003d0: 0bc7 28bd 04f2 15bd b9b0 643d 1ead 093e
000003e0: 45c4 5bbe e064 013f 0e17 ffbc 3d17 48bc
000003f0: e2dd 9b3d e05c ad3e f421 cdbd bc16 683c
-0.23261918 0.44596365 0.20088139 0.21616226 0.008703827 -0.048805855 0.17915018 0.68897736
-0.017461335 -0.09491749 -1.1490153 0.071499944 -0.2596992 0.031875983 -0.2564183 0.03782326
0.72323036 0.0016113434 0.09136189 -0.041308243 0.006969464 -0.38689902 -0.112987295 0.16165867
0.023564344 0.6294833 -0.05039907 -0.0037024086 0.018787641 0.043139488 -0.041504562 0.13055854
-0.27771315 0.0886371 0.0336524 0.19274786 -0.0102867 0.022416702 0.0041238037 0.044168003
0.004190135 0.0045417906 -0.18250115 -0.10441457 -0.0016075182 -0.014963894 0.026259039 -0.009270641
-1.2620362 0.21147779 -0.105419114 0.2120772 -0.051216707 -0.0149398325 0.08035281 0.06611684
-0.13949458 0.449702 -0.04112006 -0.0056093903 0.089263745 0.31658787 -0.065955 -0.009912131
-0.21691808 0.08849569 0.033652406 0.19274807 -0.010286684 0.022416689 0.0041238107 0.044168066
0.0041901288 0.0045419 -0.18230613 -0.104414575 -0.0016074808 -0.017826557 0.03618439 -0.009270644
-1.2625133 0.21147779 -0.10541912 0.2120772 -0.05121671 -0.014939838 0.08035282 0.06611683
-0.115619995 0.41127738 -0.064091444 -0.0056093745 0.08926375 0.31658784 -0.06595501 -0.009912154
0.30243012 -0.08868219 -0.033652414 -0.19274801 0.010286723 -0.022416692 -0.0041237995 -0.044167988
-0.0041901395 -0.0045417408 0.18255793 0.10441458 0.0016075372 0.013738105 -0.022419697 0.00927064
1.261897 -0.21147776 0.1054191 -0.2120772 0.051216714 0.014939839 -0.080352835 -0.06611683
-0.089769125 -0.4670848 0.035354275 0.0056093866 -0.08926378 -0.31658787 0.06595498 0.009912157
0.10736249 0.40905482 0.040782917 0.44110084 -0.00068371644 -0.00569127 -0.020847298 0.010584192
-0.0043997555 0.0038675584 0.22229475 -0.09414052 -0.0019318564 0.023028985 -0.03041331 -0.0018763568
-0.84591824 0.20957637 0.027197141 -0.030130075 -0.028000167 -0.02767161 0.005032863 0.048469495
-0.1440897 -1.0985304 -0.00039721647 -0.012887295 0.03729334 0.2961398 -0.016214088 0.006275489
0.3549766 0.27463695 -0.051739044 2.2015443 0.0027303062 -0.014998585 0.006946727 0.20158227
0.006912884 -0.009656224 -1.176138 0.15412413 0.012332758 0.014039067 -0.09607635 -0.017774085
1.5044092 -0.2042322 -0.10115344 0.043410674 0.022123082 0.037398677 0.04451632 -0.09397177
0.20497094 -0.4224386 0.030639464 0.0139683895 -0.033572458 -0.29849076 0.027434256 -0.027743205
0.16399927 0.3417537 -0.051495746 2.281408 0.0041140607 -0.018524284 -0.0012472017 0.17607996
0.0064382525 -0.01007515 0.52545506 0.14817424 0.012616207 0.050590277 -0.027423086 -0.016994013
1.5715688 -0.19941454 -0.122621834 0.049312606 0.016811918 0.037351742 0.050562896 -0.08120172
-0.037055403 -0.5226493 0.054508086 0.015127537 -0.0252843 -0.2872059 0.017263444 -0.03809267
-0.35458747 0.08572906 0.058647998 1.2479935 -0.0074866386 -0.023193806 -0.05839641 -0.17638543
0.00015016814 0.009294154 1.4404916 -0.17373952 -0.0030098844 -0.0142494645 0.116055965 0.008832133
-1.079894 0.20793998 -0.09476566 -0.0014428211 -0.041205447 -0.036607757 0.0558326 0.13444945
-0.2146159 0.5054455 -0.031138923 -0.012212572 0.0761068 0.3385992 -0.10016242 0.014165577

decoder.2.bias f4 [60]
00000000: 695c 41bf ae3d e5be b13d e5be b03d e53e
00000010: 16d1 b1bf 2591 ef3f ece1 0040 9bde dfbe
00000020: 57ec 2d40 cf0d 9fbe 4242 61c0 91f5 4440
00000030: 1caf a7be 4b41 363f 4a41 363f 4b41 36bf
00000040: 0ba8 dabe dc0d 633f a74c 773f 7d7c 273f
00000050: b70d 0340 a99c 02bf a7fe 64c0 a3d6 5e40
00000060: 6bc0 fbbe 28ed 043e 2ded 043e 2bed 04be
00000070: 2115 8fbf 4cb2 b23f 20e5 bd3f faf1 263d
00000080: 5754 2140 d31c abbf 1ecc 38c0 fca6 6240
00000090: db15 89be ad5b 603d ab5b 603d a35b 60bd
000000a0: 7ab4 8abf 8ad2 a63f 6082 b63f b98a 563e
000000b0: 2ead 1f40 2bbc 37bf 4b5e 2dc0 bc07 5940
000000c0: 620b 93be b728 de3e b628 de3e b728 debe
000000d0: a584 98be 2a5e 0b3f 4d3e 233f 5613 333f
000000e0: 2904 c03f 6d9d 103f adf9 27c0 6e0f 5940
-0.7553163 -0.4477362 -0.4477363 0.44773626 -1.3891933 1.871617 2.0137892 -0.43724522
2.71755 -0.31065223 -3.519669 3.0774882 -0.32750785 0.7119338 0.71193373 -0.7119338
-0.42706332 0.8869302 0.9660134 0.6542433 2.047712 -0.51020294 -3.5780427 3.4818504
-0.4917024 0.12981093 0.129811 -0.12981097 -1.1178323 1.3960662 1.4835548 0.04075811
2.5207727 -1.3368171 -2.8874583 3.541442 -0.26774487 0.05477493 0.05477492 -0.05477489
-1.0836327 1.3033001 1.4258537 0.20951356 2.494945 -0.71771497 -2.7088802 3.391097
-0.28719622 0.43390438 0.43390435 -0.43390438 -0.297887 0.5444056 0.6376694 0.6995138
1.500127 0.5649021 -2.624614 3.3915668

exp_avg f4 [32, 60]
00000000: 940e 2a38 c0a7 be36 c0a7 be36 c0a7 beb6
00000010: 74ec 79b8 faa7 5038 e98e 4a38 d189 56b8
00000020: 4551 5138 0264 8eb9 188b a437 5387 3a38
00000030: ad00 0bb9 cc3e 3a38 cc3e 3a38 cc3e 3ab8
00000040: 6a8a f435 a742 9db6 4185 edb6 c76c 2a36
00000050: 3d96 0cb7 64c3 35b9 61d1 02b7 9822 1638
00000060: ae34 99b8 9c5e d7b7 9c5e d7b7 9c5e d737
00000070: 8eff d7b7 a463 d837 3893 c237 338a e2b7
00000080: dfeb cd37 3bf4 70b7 3f7a 1bb6 045b a0b7
00000090: 85ab 9d39 c7c1 67b7 c7c1 67b7 c7c1 6737
000000a0: 2cae 7fb7 3f47 7a37 68c9 7637 23d8 85b7
000000b0: 1113 4c37 5f30 6a36 a6d0 89b7 4ebc a8b6
000000c0: 736f 6e38 2ad0 9e37 2ad0 9e37 2ad0 9eb7
000000d0: 8361 a837 f91a a1b7 ee9c 9fb7 32e7 9b37
000000e0: 9151 9ab7 9a21 ae37 877e b6b7 0e04 8db6
000000f0: f9f0 dbb7 9514 3a38 9514 3a38 9514 3ab8
00000100: e460 4338 6cfa 33b8 e557 34b8 d125 2138
00000110: 8d56 40b8 b354 99b6 c7c5 38b7 1efc 8a38
00000120: a0c5 57b8 b9bb 6bb8 b9bb 6bb8 b9bb 6b38
00000130: fc1c 64b8 d93e 4d38 0d68 4a38 9f35 5cb8
00000140: 5104 3638 e3a1 c6b7 50fe e337 4ddb 2138
00000150: c376 adb7 8273 9938 8273 9938 8273 99b8
00000160: 5296 a338 20d6 acb8 3763 abb8 9057 a838
00000170: 216f 94b8 c487 ec37 c1fb 4636 f6c1 7638
00000180: dc34 e2b7 d8dd cdb8 d8dd cdb8 d8dd cd38
00000190: d004 ccb8 4f7b be38 f216 bc38 96af c6b8
000001a0: ff9b ae38 4a0c 49b8 d6e3 1a38 3ca9 7537
000001b0: 2bb9 7eb7 7bc6 db37 7bc6 db37 7bc6 dbb7
000001c0: 7d02 0e38 3c9e 10b8 903d 0fb8 083d 0638
000001d0: feeb 08b8 a027 2337 4595 4037 4c53 0f38
000001e0: e2a8 7fb7 9806 bcb8 9806 bcb8 9806 bc38
000001f0: 362e c3b8 f77b c438 bcea cb38 a53b bdb8
00000200: 601f b538 2c37 f136 58dc 4c37 4a2e d338
00000210: 595d a136 c571 f2b8 c571 f2b8 c571 f238
00000220: 1687 00b9 8d47 f338 4621 f138 930b e4b8
00000230: ed9e f138 7d00 2736 4c53 0338 8ae6 0739
00000240: 5c83 0eba 392b c8b8 392b c8b8 392b c838
00000250: 417f ceb8 657b d738 2988 cb38 db0d d4b8
00000260: 43bc c838 2dd3 4037 fc8c c835 d3e2 fa38
00000270: b284 68b9 b2ae 9138 b2ae 9138 b2ae 91b8
00000280: fcc9 8338 2939 93b8 a27e 9bb8 d09d 9838
00000290: 3941 38b8 2a1f d137 ff98 2e38 be92 d438
000002a0: 00ec d5b9 68af e5b8 68af e5b8 68af e538
000002b0: 7d3f cbb8 9ccc e238 6839 d438 eb12 e5b8
000002c0: 1cd6 c338 c127 a938 5f20 aeb7 0e36 c838
000002d0: d9b3 4538 6ca6 2737 6ca6 2737 6ca6 27b7
000002e0: b367 0237 4889 e7b6 6eb8 0ab7 a236 ee35
000002f0: 0f5a 3cb7 8e51 2537 2f51 ceb6 9832 b936
00000300: b43d 0738 dd41 1d37 dd41 1d37 dd41 1db7
00000310: 2748 ddb5 df08 e036 d35d ef36 82a5 2ab7
00000320: 7299 8ab6 8170 02b8 5eb6 34b7 47f4 b6b7
00000330: aa6e 1438 3eed 1438 3eed 1438 3eed 14b8
00000340: 74c3 0c38 fb17 01b8 ffd5 efb7 111c 0638
00000350: 4d24 0cb8 c120 0538 4268 7bb7 21e1 4ab7
00000360: 3aeb 2838 8743 12b6 8743 12b6 8743 1236
00000370: ab87 43b6 04ee 13b6 87ed 00b5 c225 b935
00000380: 842c bdb6 6b0e 1238 d98a 3037 642b 8c37
00000390: de7b 6038 5616 1537 5616 1537 5616 15b7
000003a0: 3651 a736 4239 99b6 11a3 8fb6 045a 5836
000003b0: f64d dbb6 b11b 9736 420f 8d35 7b50 8bb7
000003c0: 21c7 c137 d328 30b8 d328 30b8 d328 3038
000003d0: fe6e d6b7 7695 de37 36ef e137 1ce2 bab7
000003e0: cc1c e437 b0e5 7f38 cde6 b9b6 1e79 00b8
000003f0: 72e7 8738 93ee e6b7 93ee e6b7 93ee e637
4.0544735e-05 5.68197e-06 5.68197e-06 -5.68197e-06 -5.958644e-05 4.9747505e-05 4.829365e-05 -5.1149927e-05
4.990517e-05 -0.00027158862 1.9615094e-05 4.4471886e-05 -0.00013256325 4.440434e-05 4.440434e-05 -4.440434e-05
1.82197e-06 -4.686724e-06 -7.078663e-06 2.539529e-06 -8.37963e-06 -0.00017334294 -7.797354e-06 3.5795005e-05
-7.305421e-05 -2.5674053e-05 -2.5674053e-05 2.5674053e-05 -2.5749e-05 2.5795605e-05 2.3195156e-05 -2.7005653e-05
2.454774e-05 -1.4361979e-05 -2.3167956e-06 -1.9115869e-05 0.00030073166 -1.381379e-05 -1.381379e-05 1.381379e-05
-1.5239737e-05 1.49177495e-05 1.4709636e-05 -1.5955482e-05 1.2163787e-05 3.4896873e-06 -1.6428832e-05 -5.0287117e-06
5.6847417e-05 1.8932002e-05 1.8932002e-05 -1.8932002e-05 2.0072568e-05 -1.9205256e-05 -1.9027353e-05 1.8585099e-05
-1.8396213e-05 2.0758063e-05 -2.175501e-05 -4.2025995e-06 -2.6219046e-05 4.4365024e-05 4.4365024e-05 -4.4365024e-05
4.658186e-05 -4.291015e-05 -4.2997202e-05 3.842061e-05 -4.5856974e-05 -4.5696156e-06 -1.1013303e-05 6.627313e-05
-5.1444047e-05 -5.6203196e-05 -5.6203196e-05 5.6203196e-05 -5.438643e-05 4.893434e-05 4.8257458e-05 -5.2502026e-05
4.33962e-05 -2.3678824e-05 2.7178932e-05 3.858963e-05 -2.067851e-05 7.3171235e-05 7.3171235e-05 -7.3171235e-05
7.800445e-05 -8.241483e-05 -8.1723956e-05 8.027174e-05 -7.077889e-05 2.8196613e-05 2.965084e-06 5.883161e-05
-2.6965914e-05 -9.816483e-05 -9.816483e-05 9.816483e-05 -9.7283744e-05 9.082874e-05 8.9688125e-05 -9.474081e-05
8.326023e-05 -4.793358e-05 3.692865e-05 1.4642541e-05 -1.5182693e-05 2.6199259e-05 2.6199259e-05 -2.6199259e-05
3.3857756e-05 -3.4479643e-05 -3.415119e-05 3.200493e-05 -3.264471e-05 9.724783e-06 1.1478846e-05 3.4171433e-05
-1.52385055e-05 -8.965767e-05 -8.965767e-05 8.965767e-05 -9.306932e-05 9.3690986e-05 9.723517e-05 -9.023332e-05
8.6365966e-05 7.1887825e-06 1.221065e-05 0.00010069886 4.809041e-06 -0.000115606505 -0.000115606505 0.000115606505
-0.00012257355 0.0001160047 0.00011497973 -0.00010874043 0.00011521378 2.4885223e-06 3.131041e-05 0.00012960486
-0.0005436444 -9.544794e-05 -9.544794e-05 9.544794e-05 -9.846548e-05 0.00010274983 9.705156e-05 -0.000101115285
9.57181e-05 1.149326e-05 1.4942193e-06 0.00011963178 -0.00022174677 6.946678e-05 6.946678e-05 -6.946678e-05
6.284189e-05 -7.020153e-05 -7.414563e-05 7.27732e-05 -4.3929762e-05 2.4929253e-05 4.162732e-05 0.000101362806
-0.0004080236 -0.00010952243 -0.00010952243 0.00010952243 -9.69162e-05 0.00010814631 0.000101196405 -0.00010923095
9.3382056e-05 8.065953e-05 -2.075749e-05 9.5468116e-05 4.7135956e-05 9.992724e-06 9.992724e-06 -9.992724e-06
7.772748e-06 -6.900318e-06 -8.268382e-06 1.7748282e-06 -1.1226642e-05 9.853755e-06 -6.1487294e-06 5.5193195e-06
3.2243974e-05 9.373264e-06 9.373264e-06 -9.373264e-06 -1.6486782e-06 6.676753e-06 7.1336776e-06 -1.0171325e-05
-4.130584e-06 -3.1099193e-05 -1.0771297e-05 -2.1809841e-05 3.5389014e-05 3.55069e-05 3.55069e-05 -3.55069e-05
3.356063e-05 -3.077833e-05 -2.859067e-05 3.197423e-05 -3.341241e-05 3.1740175e-05 -1.498504e-05 -1.2092555e-05
4.0273393e-05 -2.1795001e-06 -2.1795001e-06 2.1795001e-06 -2.9136233e-06 -2.204325e-06 -4.8029364e-07 1.3794563e-06
-5.6378212e-06 3.482254e-05 1.05227455e-05 1.6709506e-05 5.3521122e-05 8.886293e-06 8.886293e-06 -8.886293e-06
4.986442e-06 -4.566421e-06 -4.2807155e-06 3.2238904e-06 -6.5357845e-06 4.5033744e-06 1.0509759e-06 -1.6607568e-05
2.310012e-05 -4.199969e-05 -4.199969e-05 4.199969e-05 -2.5562473e-05 2.653406e-05 2.6933481e-05 -2.2278218e-05
2.7193128e-05 6.101065e-05 -5.5402984e-06 -3.0630377e-05 6.480412e-05 -2.7529231e-05 -2.7529231e-05 2.7529231e-05

exp_avg_sq f4 [32, 60]
00000000: 65ac 4934 84b2 4733 84b2 4733 84b2 4733
00000010: 520f 8033 3b61 7433 0e49 6d33 8d1d 7f33
00000020: fb80 4133 e559 4335 8cde b333 06de 0434
00000030: 48c5 af34 434b 8133 434b 8133 434b 8133
00000040: 6df0 8333 6dc9 7133 42b2 6d33 4c84 8133
00000050: aa5b 3b33 a603 da34 1337 fb32 22c5 ef33
00000060: 7c68 9d35 9395 c533 9395 c533 9395 c533
00000070: 7e8e bc33 8b64 ae33 d144 aa33 92e5 bd33
00000080: 2828 8233 0500 1934 ec33 1733 4261 0334
00000090: 187d 9735 795e 6133 795e 6133 795e 6133
000000a0: 0886 5e33 c5fa 5933 410f 5533 a846 6333
000000b0: e167 2633 8bcb 7f33 5c06 cb33 d1c5 c733
000000c0: d5c0 1535 37fe a833 37fe a833 37fe a833
000000d0: 1f3e a133 92e0 9633 a139 9433 5528 a133
000000e0: eeb9 6033 8b2a f333 9617 3a33 6beb a733
000000f0: 3baf 2234 9c02 a035 9c02 a035 9c02 a035
00000100: 157a ab35 eaec ac35 5203 aa35 0c81 a435
00000110: 32ed 8d35 c6fd 4435 0496 6034 9f2d 7235
00000120: 4669 1334 d946 0436 d946 0436 d946 0436
00000130: 85a9 fc35 cb15 f035 e40b eb35 4efb fa35
00000140: fbf7 b435 8ce5 3035 8dd7 8c34 d08d cb35
00000150: 917c 1833 1ebd 9135 1ebd 9135 1ebd 9135
00000160: 621f a035 056e a435 28cf a135 e541 9935
00000170: a271 8735 226f 9434 dd51 8a34 d803 6135
00000180: dc43 0f34 af47 1d36 af47 1d36 af47 1d36
00000190: 8e96 0f36 1d6a 0536 4109 0236 8324 1236
000001a0: 9e5c c035 295b 4335 dbf9 9734 7cf6 6136
000001b0: 2210 3434 cd77 c835 cd77 c835 cd77 c835
000001c0: 5d9f cb35 f343 c835 eaa4 c435 238a c635
000001d0: da9f 9e35 aacc 1c35 328c 4334 ec89 1536
000001e0: 031c d734 945d 9e33 945d 9e33 945d 9e33
000001f0: 22e9 ab33 fc56 af33 9544 b033 d2eb a333
00000200: 97fd a833 fcfa 3533 181a 6933 d1c7 2734
00000210: 6556 3d33 49df 9933 49df 9933 49df 9933
00000220: dcb0 a733 0263 b033 7f7b ad33 ea28 a633
00000230: b05e 9133 b347 4e33 2436 8134 b57e 0d34
00000240: 225e 1835 9528 8e33 9528 8e33 9528 8e33
00000250: d983 9833 a8a9 a333 9a19 a133 f880 9f33
00000260: 3c52 8133 5a15 8a33 7943 9034 f733 1034
00000270: bf4a f434 d5aa b033 d5aa b033 d5aa b033
00000280: 6696 b433 379c b233 99e1 af33 bbbc af33
00000290: 14b6 9033 f5b2 7732 0a90 ca33 a67e 1b34
000002a0: 5062 8d34 06e9 7a33 06e9 7a33 06e9 7a33
000002b0: 6a30 9b33 9b90 9a33 ec64 9733 c515 9533
000002c0: c48f 8233 6446 2035 1af3 ab33 db05 fa33
000002d0: 2003 7634 c01d 1f33 c01d 1f33 c01d 1f33
000002e0: 8f05 5833 dbad a633 840f 7133 2f26 bc33
000002f0: a218 9834 c43e 9935 8355 0035 e420 cb33
00000300: 9f40 1b33 1f29 3433 1f29 3433 1f29 3433
00000310: cb56 6433 e428 5233 0f6c 4d33 8bba 4f33
00000320: c805 3333 193f 9a35 d50d 9532 f525 a433
00000330: 0fdb 7c35 c605 8133 c605 8133 c605 8133
00000340: 4da1 7633 4450 6e33 d1b4 6933 c40b 7733
00000350: cdfc 4633 89f5 8b33 c184 f032 bc89 cd33
00000360: 2b6e 1335 3d94 4733 3d94 4733 3d94 4733
00000370: 84df 4e33 e8e7 4d33 5cd7 4a33 8989 4733
00000380: f6cc 2833 f917 2533 2cfb 7532 2fed 9833
00000390: 2836 5b34 6a2b 4433 6a2b 4433 6a2b 4433
000003a0: bd5a 4733 e2d7 4433 796e 4033 d410 4333
000003b0: b995 2133 b6e6 6633 15c3 9432 a3c0 a633
000003c0: 4524 2235 a79f 5033 a79f 5033 a79f 5033
000003d0: e40a 5533 6c93 4333 f2dc 4033 ecab 5333
000003e0: 5546 2133 7234 d334 f5d6 c532 c9a6 a133
000003f0: 109b b134 72a6 2233 72a6 2233 72a6 2233
1.87823e-07 4.6495657e-08 4.6495657e-08 4.6495657e-08 5.963251e-08 5.6899108e-08 5.5247305e-08 5.939869e-08
4.505362e-08 7.2773975e-07 8.375818e-08 1.237423e-07 3.273983e-07 6.0207206e-08 6.0207206e-08 6.0207206e-08
6.143896e-08 5.629538e-08 5.5342987e-08 6.031095e-08 4.36227e-08 4.060832e-07 2.924529e-08 1.1165163e-07
1.172782e-06 9.200735e-08 9.200735e-08 9.200735e-08 8.7803514e-08 8.120795e-08 7.9287595e-08 8.842757e-08
6.060901e-08 1.4249242e-07 3.520465e-08 1.2235708e-07 1.1286784e-06 5.2472817e-08 5.2472817e-08 5.2472817e-08
5.1810304e-08 5.0752323e-08 4.96068e-08 5.2916818e-08 3.8744364e-08 5.9556935e-08 9.454081e-08 9.302642e-08
5.5787433e-07 7.869351e-08 7.869351e-08 7.869351e-08 7.5084465e-08 7.0257684e-08 6.90227e-08 7.504483e-08
5.2323166e-08 1.1323308e-07 4.332795e-08 7.819366e-08 1.5151174e-07 1.1921688e-06 1.1921688e-06 1.1921688e-06
1.2776023e-06 1.288395e-06 1.2666953e-06 1.225651e-06 1.0574352e-06 7.338498e-07 2.0916201e-07 9.021841e-07
1.372874e-07 1.9710772e-06 1.9710772e-06 1.9710772e-06 1.88248e-06 1.7887736e-06 1.7512325e-06 1.8699591e-06
1.3483217e-06 6.5899144e-07 2.6233866e-07 1.5165951e-06 3.550355e-08 1.0858382e-06 1.0858382e-06 1.0858382e-06
1.1930063e-06 1.2250972e-06 1.2055725e-06 1.1418566e-06 1.0091355e-06 2.7648008e-07 2.5764066e-07 8.3824625e-07
1.33426e-07 2.3436548e-06 2.3436548e-06 2.3436548e-06 2.1396295e-06 1.988031e-06 1.9376896e-06 2.1776948e-06
1.433207e-06 7.2775816e-07 2.8307736e-07 3.3671085e-06 1.6769675e-07 1.4936028e-06 1.4936028e-06 1.4936028e-06
1.5171059e-06 1.4920937e-06 1.4651134e-06 1.4792353e-06 1.181844e-06 5.8412354e-07 1.8211793e-07 2.2283011e-06
4.0067252e-07 7.37447e-08 7.37447e-08 7.37447e-08 8.0052146e-08 8.164895e-08 8.208114e-08 7.6331744e-08
7.869237e-08 4.2370615e-08 5.4273272e-08 1.562578e-07 4.4083567e-08 7.165233e-08 7.165233e-08 7.165233e-08
7.808714e-08 8.213648e-08 8.078404e-08 7.7374196e-08 6.769312e-08 4.8028323e-08 2.4067515e-07 1.3177744e-07
5.6761394e-07 6.619772e-08 6.619772e-08 6.619772e-08 7.1020345e-08 7.621139e-08 7.5018036e-08 7.427474e-08
6.021989e-08 6.4300096e-08 2.6871183e-07 1.342995e-07 4.5502927e-07 8.226713e-08 8.226713e-08 8.226713e-08
8.4092605e-08 8.317186e-08 8.1901085e-08 8.1834024e-08 6.738642e-08 1.4417982e-08 9.4325586e-08 1.4481574e-07
2.6334828e-07 5.8419594e-08 5.8419594e-08 5.8419594e-08 7.2265564e-08 7.1974874e-08 7.049843e-08 6.942313e-08
6.0797475e-08 5.9707077e-07 8.007028e-08 1.1642597e-07 2.2911672e-07 3.704713e-08 3.704713e-08 3.704713e-08
5.0296475e-08 7.7616015e-08 5.6126296e-08 8.761378e-08 2.833013e-07 1.1417656e-06 4.780815e-07 9.458907e-08
3.6147522e-08 4.1946915e-08 4.1946915e-08 4.1946915e-08 5.3164324e-08 4.8931625e-08 4.782856e-08 4.8365603e-08
4.1681943e-08 1.1492258e-06 1.7352173e-08 7.6437495e-08 9.419609e-07 6.008081e-08 6.008081e-08 6.008081e-08
5.742304e-08 5.5486694e-08 5.441399e-08 5.751987e-08 4.633039e-08 6.5173545e-08 2.8000047e-08 9.57111e-08
5.4922083e-07 4.646812e-08 4.646812e-08 4.646812e-08 4.81664e-08 4.79412e-08 4.722766e-08 4.6458386e-08
3.930196e-08 3.843886e-08 1.4317987e-08 7.121195e-08 2.0415666e-07 4.567429e-08 4.567429e-08 4.567429e-08
4.6415824e-08 4.583115e-08 4.4803958e-08 4.541728e-08 3.7621906e-08 5.376088e-08 1.731818e-08 7.765018e-08
6.040248e-07 4.8573977e-08 4.8573977e-08 4.8573977e-08 4.9602832e-08 4.5536055e-08 4.4904432e-08 4.9283628e-08
3.75497e-08 3.9339972e-07 2.303157e-08 7.527485e-08 3.3081642e-07 3.7869945e-08 3.7869945e-08 3.7869945e-08

exp_avg f4 [32]
00000000: fc9a b637 9e54 9f38 80da 0db9 3d60 2937
00000010: 100b b537 e2d3 af38 5f65 c5b7 8369 3938
00000020: 15e3 79b7 c799 ffb7 df91 ac38 c370 1338
00000030: 6e1b 2f37 6551 3b37 4d7d a238 ac7c ce38
00000040: c717 d7b6 fba1 c7b8 52c9 e6b8 e039 dd37
00000050: b8e6 7c36 6d82 bf37 87e3 ce36 5bbb 4d38
00000060: 69fb a0b9 f8ea 81b8 2248 80b8 fe40 eeb8
00000070: ce32 32b8 851d 61b7 2c34 a138 9e0f 0c38
2.1768261e-05 7.597472e-05 -0.00013528205 1.0095592e-05 2.1582033e-05 8.3841165e-05 -2.3531435e-05 4.4205703e-05
-1.4894428e-05 -3.0469977e-05 8.22877e-05 3.515255e-05 1.0437199e-05 1.116502e-05 7.748101e-05 9.8460674e-05
-6.4102674e-06 -9.519231e-05 -0.000110047535 2.6372203e-05 3.7685222e-06 2.2829709e-05 6.165766e-06 4.9050297e-05
-0.00030704893 -6.194966e-05 -6.1169514e-05 -0.0001136083 -4.2485823e-05 -1.3417918e-05 7.686796e-05 3.3393146e-05

exp_avg_sq f4 [32]
00000000: d63d 8033 82f6 e735 ad98 cb33 0863 7433
00000010: 8442 0c33 3799 4136 8d6e 8a34 ab75 6634
00000020: 77ea 3034 4ccf 9435 262f 7c35 34d8 b434
00000030: 9723 bd33 5e41 af35 bd5c 9134 678a a233
00000040: f856 d834 756c 0834 7702 3d34 8a1c 9034
00000050: 2d0d 8c32 057e c934 5b7b 9533 3090 1933
00000060: ff9e 1b35 0115 de33 0e6a 2c34 4796 2434
00000070: 2c6a 2f34 b711 d133 298c 8d34 02bd 9a33
5.9717124e-08 1.7282584e-06 9.480696e-08 5.6900745e-08 3.2656786e-08 2.8848424e-06 2.578494e-07 2.1463227e-07
1.6476575e-07 1.1087191e-06 9.3945926e-07 3.368492e-07 8.807472e-08 1.305754e-06 2.707583e-07 7.568888e-08
4.0296413e-07 1.2705443e-07 1.7602893e-07 2.6842855e-07 1.6304137e-08 3.753086e-07 6.9607914e-08 3.5754226e-08
5.797337e-07 1.0341501e-07 1.6057331e-07 1.5328361e-07 1.633677e-07 9.735543e-08 2.6365277e-07 7.205564e-08

exp_avg f4 [16, 32]
00000000: 0400 0000 0400 0080 0400 0080 0400 0000
00000010: 0400 0000 0400 0000 0400 0000 0400 0080
00000020: 0400 0080 0400 0000 0400 0000 0400 0080
00000030: 0400 0080 0400 0080 0400 0000 0400 0000
00000040: 0400 0080 0400 0080 0400 0080 0400 0080
00000050: 0400 0000 0400 0080 0400 0000 0400 0080
00000060: 0400 0000 0400 0080 0400 0080 0400 0080
00000070: 0400 0080 0400 0080 0400 0080 0400 0080
00000080: 0400 0000 0400 0080 0400 0000 0400 0000
00000090: 0400 0000 0400 0000 0400 0000 0400 0000
000000a0: 0400 0000 0400 0080 0400 0000 0400 0080
000000b0: 0400 0000 0400 0000 0400 0080 0400 0000
000000c0: 0400 0080 0400 0080 0400 0000 0400 0000
000000d0: 0400 0000 0400 0000 0400 0080 0400 0000
000000e0: 0400 0080 0400 0080 0400 0080 0400 0080
000000f0: 0400 0000 0400 0080 0400 0000 0400 0000
00000100: c48f e038 677a 033a b6d9 a23a 0e2c 79b9
00000110: a881 103a 9f60 893a 7005 c3b8 feff a937
00000120: 9716 ea39 2ce1 a537 7023 5239 a890 0938
00000130: 467c ea39 3d9b 153a e494 e539 9c0c bfb8
00000140: 9607 1a3a fba7 82b9 9719 71b8 f526 bc39
00000150: 45e6 da38 6221 70b8 4d44 7f39 3b9b b538
00000160: 0f73 6938 0b84 06b9 aa78 9438 bae9 79b9
00000170: bbfc 8c39 f54a b4b8 882e 8939 f0b8 ad39
00000180: 0400 0080 0400 0000 0400 0000 0400 0000
00000190: 0400 0000 0400 0000 0400 0080 0400 0080
000001a0: 0400 0080 0400 0000 0400 0080 0400 0000
000001b0: 0400 0080 0400 0080 0400 0000 0400 0000
000001c0: 0400 0080 0400 0080 0400 0000 0400 0000
000001d0: 0400 0000 0400 0000 0400 0080 0400 0080
000001e0: 0400 0080 0400 0080 0400 0080 0400 0080
000001f0: 0400 0080 0400 0000 0400 0080 0400 0000
00000200: 0400 0000 0400 0080 0400 0000 0400 0000
00000210: 0400 0000 0400 0080 0400 0000 0400 0000
00000220: 0400 0080 0400 0080 0400 0000 0400 0080
00000230: 0400 0080 0400 0000 0400 0080 0400 0000
00000240: 0400 0000 0400 0000 0400 0080 0400 0080
00000250: 0400 0000 0400 0000 0400 0000 0400 0000
00000260: 0400 0000 0400 0000 0400 0000 0400 0080
00000270: 0400 0080 0400 0080 0400 0080 0400 0000
00000280: b9d1 7c3a 02ed b53b a289 d3b9 519d 653b
00000290: 91d6 1438 aa3b e33a 8286 ebb7 4a94 a13b
000002a0: 5c89 0cb9 32d0 98b9 95de aa38 05af e5b8
000002b0: 14bb 75b8 8af6 223c 21f9 333a aa25 8d39
000002c0: 963f 0239 9001 f6b7 6566 79ba 17b8 5d3b
000002d0: f889 2538 f5cc bfb8 de01 1238 f3c6 9337
000002e0: 572b 6c3b 3eec 273a 2324 b039 8703 9a3a
000002f0: c4e7 bd3a 061a 85b9 3f0c bd3a 7e15 183b
00000300: 0400 0000 0400 0080 0400 0080 0400 0000
00000310: 0400 0000 0400 0080 0400 0080 0400 0000
00000320: 0400 0000 0400 0000 0400 0080 0400 0000
00000330: 0400 0080 0400 0080 0400 0000 0400 0000
00000340: 0400 0000 0400 0000 0400 0000 0400 0000
00000350: 0400 0000 0400 0000 0400 0000 0400 0000
00000360: 0400 0080 0400 0000 0400 0080 0400 0000
00000370: 0400 0000 0400 0000 0400 0000 0400 0080
00000380: 801f 2638 e72d 20bb 6f80 eeb9 7534 883b
00000390: 2e68 73b9 7371 30bc d35b 5eb7 1551 b13a
000003a0: a6e7 f3b7 57c1 4cbb b507 a5ba 49c8 8eb9
000003b0: 81b5 58b7 d66f d83a 3f80 1b3b cc1e 3939
000003c0: 78aa a8b9 a977 14b9 ffa7 c23a 9cff 543b
000003d0: ef96 b9ba ca9c c037 0fc9 33b6 173a cbb9
000003e0: 64b7 80ba 5e9d ed39 a3b0 0937 8c7c 1e3b
000003f0: 2d10 29b7 3727 ae37 28cc 9fba 24a2 37ba
6e-45 -6e-45 -6e-45 6e-45 6e-45 6e-45 6e-45 -6e-45
-6e-45 6e-45 6e-45 -6e-45 -6e-45 -6e-45 6e-45 6e-45
-6e-45 -6e-45 -6e-45 -6e-45 6e-45 -6e-45 6e-45 -6e-45
6e-45 -6e-45 -6e-45 -6e-45 -6e-45 -6e-45 -6e-45 -6e-45
6e-45 -6e-45 6e-45 6e-45 6e-45 6e-45 6e-45 6e-45
6e-45 -6e-45 6e-45 -6e-45 6e-45 6e-45 -6e-45 6e-45
-6e-45 -6e-45 6e-45 6e-45 6e-45 6e-45 -6e-45 6e-45
-6e-45 -6e-45 -6e-45 -6e-45 6e-45 -6e-45 6e-45 6e-45
0.00010707931 0.0005015493 0.0012424502 -0.00023762902 0.00055124843 0.0010481066 -9.2993374e-05 2.0265576e-05
0.0004464879 1.9774387e-05 0.00020040362 3.2798067e-05 0.0004472455 0.0005707031 0.00043789216 -9.1099384e-05
0.0005875764 -0.00024920687 -5.748271e-05 0.0003588718 0.00010437941 -5.725155e-05 0.00024344139 8.6596665e-05
5.5658686e-05 -0.00012828426 7.0796654e-05 -0.0002383356 0.0002689118 -8.597031e-05 0.00026165345 0.0003313492
-6e-45 6e-45 6e-45 6e-45 6e-45 6e-45 -6e-45 -6e-45
-6e-45 6e-45 -6e-45 6e-45 -6e-45 -6e-45 6e-45 6e-45
-6e-45 -6e-45 6e-45 6e-45 6e-45 6e-45 -6e-45 -6e-45
-6e-45 -6e-45 -6e-45 -6e-45 -6e-45 6e-45 -6e-45 6e-45
6e-45 -6e-45 6e-45 6e-45 6e-45 -6e-45 6e-45 6e-45
-6e-45 -6e-45 6e-45 -6e-45 -6e-45 6e-45 -6e-45 6e-45
6e-45 6e-45 -6e-45 -6e-45 6e-45 6e-45 6e-45 6e-45
6e-45 6e-45 6e-45 -6e-45 -6e-45 -6e-45 -6e-45 6e-45
0.0009644288 0.005551935 -0.000403476 0.0035036395 3.548578e-05 0.0017336507 -2.8076818e-05 0.0049310075
-0.00013402611 -0.00029146817 8.147691e-05 -0.00010952171 -5.8586782e-05 0.009946475 0.0006865431 0.00026921678
0.00012421454 -2.9326213e-05 -0.0009513854 0.003383165 3.946756e-05 -9.145766e-05 3.481085e-05 1.7616409e-05
0.0036036575 0.0006405747 0.0003359626 0.0011750319 0.0014488627 -0.00025387126 0.0014423205 0.002320617
6e-45 -6e-45 -6e-45 6e-45 6e-45 -6e-45 -6e-45 6e-45
6e-45 6e-45 -6e-45 6e-45 -6e-45 -6e-45 6e-45 6e-45
6e-45 6e-45 6e-45 6e-45 6e-45 6e-45 6e-45 6e-45
-6e-45 6e-45 -6e-45 6e-45 6e-45 6e-45 6e-45 -6e-45
3.960682e-05 -0.0024441422 -0.00045490588 0.004156644 -0.00023213096 -0.010769236 -1.3253611e-05 0.0013528193
-2.9075727e-05 -0.003124317 -0.0012590798 -0.00027233575 -1.2916863e-05 0.0016512822 0.0023727564 0.00017654448
-0.00032170466 -0.00014158957 0.0014851092 0.0032500988 -0.0014159362 2.2961194e-05 -2.679011e-06 -0.00038762458
-0.000982028 0.0004532141 8.206963e-06 0.0024183122 -1.0076951e-05 2.0760677e-05 -0.0012191581 -0.0007005057
