save_model/autoencoder_model_v1.pth (torch, 70474 bytes, 24 tensors)

encoder.0.weight f4 [32, 60]
-0.22639306 -0.41540027 -0.1765932 -0.078551926 -0.51175106 -0.51139617 -0.7469155 0.2319471
-0.7328898 0.25783575 -0.10639582 0.14182551 0.15999632 2.2847846 -2.5858245 -5.4140906
-1.0057333 -0.9183967 -1.7435337 -3.4802074 -5.9663057 0.3049007 2.1292577 0.2986526
-0.6909094 -1.3160185 3.7774231 1.0149652 0.8516294 -2.3047726 2.5052826 1.477577
0.08612428 -0.81523323 -1.8567762 0.46122068 0.28295898 -0.87313825 1.5861994 0.34383452
-1.36508 -0.73806113 0.45277026 0.033257633 -2.4705496 0.14512052 -1.696587 -0.11768225
-0.048542153 -1.0608819 0.892509 0.8490306 2.960403 -4.547855 -0.63245636 -4.2483478
-7.0269732 0.32614765 -0.4693755 0.19927114 0.37024882 0.75291353 -3.0448353 1.7278355
-4.968356 2.8500037 -0.5392727 1.5139449 -1.9161336 0.16652381 -0.38175458 -0.27724093
0.3970164 -0.1770543 -2.6056995 -0.7073337 -0.84894186 0.34867406 -2.070175 -1.4386914
-0.59597003 1.247996 1.0522761 -0.43651098 0.34078047 1.3708016 0.94960934 -2.0729673
-2.9506583 1.2590884 -0.3361303 1.0352405 0.121424966 -0.7466037 -0.24090597 0.42647436
0.46150446 -0.72345334 1.4921321 0.35972506 -2.5478957 2.3754137 1.8998482 0.27488893
2.4184847 2.0818517 0.79698974 1.1683717 -0.4698496 -0.24969116 -2.1528563 0.03348662
-1.4986595 1.9294819 1.0395672 -2.8295128 0.7230467 0.47988424 0.66869795 -0.23626669
-0.038247466 -0.1678645 0.5873695 0.7349584 -0.48844257 0.063244514 0.7067979 -0.5579603
-1.339858 -0.08471804 -0.72419536 0.023417711 0.09947826 -0.85889673 0.16158426 0.10100389
0.6328513 -0.12441264 -0.27848732 0.2659818 1.1544058 0.24494447 -0.2527767 -0.09220642
-0.15168983 -4.4833546 9.975128 4.66847 -4.3654065 2.7393177 3.5045292 2.2023818
-6.934087 -2.6072197 -0.117163785 -0.13834943 0.07030443 -0.09044968 0.39068317 -0.020370018
0.118410416 0.049970254 0.2621338 0.022868935 0.20327829 -0.11544789 -0.1222723 0.08205323
-0.069597624 -0.0041269395 -0.018287849 0.06389746 -0.6571948 0.33042905 0.4579601 0.25761735
0.32043847 -0.30580935 0.039809104 0.024027606 0.44051778 0.9838433 -1.0292631 0.5918379
1.3727456 -1.7930744 2.5802624 0.09236866 1.8561724 0.22253536 0.027386239 -0.6999313
0.40738502 1.6589432 -3.146526 0.6909991 0.29603553 -0.42258936 -3.3949018 0.30700114
-2.5034332 0.27316839 -1.7340034 0.2626762 0.30672082 0.26292297 -5.3409867 1.4871178
-0.38739812 2.1226335 -2.5419853 0.36677465 2.4452558 1.420402 1.7001783 -1.4954656
1.6006773 -1.1636455 2.0058901 -0.23995046 0.15124777 -1.1707633 1.0421953 0.52641296
-0.20802557 -0.1089724 -0.5027591 -0.25592005 -0.20239629 -0.17586571 -0.38777083 0.96665525
-1.0916159 0.24218163 0.4734101 0.32919317 -0.68029475 -0.20933959 -0.02274853 -0.77529204
-1.1847427 -5.0526032 0.2342471 -0.39101806 4.165196 3.7447011 -1.6563227 -0.8923665
-2.5824442 3.4863362 5.8049507 3.3142045 -1.4938737 -2.6763847 5.659592 5.916475
00000000: 95d3 67be 58af d4be d9d4 34be d5df a0bd
00000010: 1e02 03bf dcea 02bf db35 3fbf 8a83 6d3e
00000020: aa9e 3bbf 0c03 843e 0de6 d9bd b53a 113e
00000030: 13d6 233e e939 1240 267e 25c0 3b40 adc0
00000040: debb 80bf 0c1c 6bbf 1d2c dfbf b8bb 5ec0
00000050: faeb bec0 f21b 9c3e c245 0840 fee8 983e
00000060: 70df 30bf 4b73 a8bf 4dc1 7140 61ea 813f
00000070: 6204 5a3f 6581 13c0 8d56 2040 3e21 bd3f
00000080: ed61 b03d 20b3 50bf d8aa edbf 1e25 ec3e
00000090: 00e0 903e fd85 5fbf 9508 cb3f 140b b03e
000000a0: f1ba aebf 93f1 3cbf 81d1 e73e 2839 083d
000000b0: 7c1d 1ec0 799a 143e c329 d9bf 6403 f1bd
000000c0: 23d4 46bd faca 87bf 787b 643f 125a 593f
000000d0: 3e77 3d40 0788 91c0 a9e8 21bf 77f2 87c0
000000e0: f7dc e0c0 d3fc a63e fc51 f0be bc0d 4c3e
000000f0: 4191 bd3e f1be 403f 95de 42c0 b729 dd3f
00000100: c6fc 9ec0 7666 3640 c70d 0abf f2c8 c13f
00000110: de43 f5bf 3885 2a3e 5675 c3be 86f2 8dbe
00000120: bc45 cb3e b94d 35be c8c3 26c0 d213 35bf
00000130: 4154 59bf 6885 b23e bf7d 04c0 0a27 b8bf
00000140: 7e91 18bf 55be 9f3f fcb0 863f 5e7e dfbe
00000150: c77a ae3e 6d76 af3f 9919 733f 7fab 04c0
00000160: 96d7 3cc0 cf29 a13f 4519 acbe c382 843f
00000170: a7ad f83d 6c21 3fbf 0eb0 76be d95a da3e
00000180: 504a ec3e 3d34 39bf 2ffe be3f e22d b83e
00000190: b910 23c0 c706 1840 3a2e f33f 3ebe 8c3e
000001a0: 74c8 1a40 0f3d 0540 8507 4c3f 348d 953f
000001b0: 2090 f0be 0aaf 7fbe 66c8 09c0 4429 093d
000001c0: 13d4 bfbf 43f9 f63f 8a10 853f bd16 35c0
000001d0: 9719 393f 63b3 f53e ca2f 2b3f e5ef 71be
000001e0: 60a9 1cbd ace4 2bbe d95d 163f 3c26 3c3f
000001f0: 2515 fabe 5786 813d b5f0 343f 7cd6 0ebf
00000200: 7880 abbf a780 adbd de64 39bf 80d6 bf3c
00000210: 42bb cb3d a8e0 5bbf 5876 253e 21db ce3d
00000220: 8b02 223f 0ecc febd e495 8ebe c42e 883e
00000230: 92c3 933f b9d2 7a3e f36b 81be b8d6 bcbd
00000240: 9454 1bbe a477 8fc0 209a 1f41 1b64 9540
00000250: 69b1 8bc0 fb50 2f40 354a 6040 d3f3 0c40
00000260: 0ae4 ddc0 b0dc 26c0 91f3 efbd 79ab 0dbe
00000270: c5fb 8f3d af3d b9bd a007 c83e 06df a6bc
00000280: 2981 f23d 9cad 4c3d 6736 863e a257 bb3c
00000290: 2f28 503e f16f ecbd e669 fabd 860b a83d
000002a0: 3389 8ebd 473b 87bb 66d0 95bc acdc 823d
000002b0: eb3d 28bf ff2d a93e bf79 ea3e 6ce6 833e
000002c0: 8310 a43e 0b93 9cbe df0e 233d 8bd5 c43c
000002d0: 8c8b e13e 28dd 7b3f e5be 83bf b082 173f
000002e0: 21b6 af3f 7683 e5bf 0523 2540 c82b bd3d
000002f0: 0f97 ed3f 4fe0 633e 1b59 e03c b32e 33bf
00000300: c594 d03e 4058 d43f af60 49c0 51e5 303f
00000310: f891 973e a25d d8be 1246 59c0 412f 9d3e
00000320: 4038 20c0 badc 8b3e d3f3 ddbf 7f7d 863e
00000330: 830a 9d3e d79d 863e 5de9 aac0 e059 be3f
00000340: 0c59 c6be 3ad9 0740 e3af 22c0 e3c9 bb3e
00000350: 127f 1c40 bccf b53f 719f d93f 6b6b bfbf
00000360: fee2 cc3f 56f2 94bf 8160 0040 93b5 75be
00000370: b2e0 1a3e 92db 95bf a866 853f 00c3 063f
00000380: a804 55be ec2c dfbd d2b4 00bf f407 83be
00000390: f940 4fbe 2416 34be e689 c6be b876 773f
000003a0: 12ba 8bbf 76fe 773e cf62 f23e 028c a83e
000003b0: cc27 2ebf 1e5d 56be 205b babc 8a79 46bf
000003c0: a6a5 97bf edae a1c0 79de 6f3e 8533 c8be
000003d0: 4949 8540 2fa9 6f40 6202 d4bf 2272 64bf
000003e0: c446 25c0 2220 5f40 28c2 b940 ed1b 5440
000003f0: 4137 bfbf e349 2bc0 611b b540 c353 bd40

encoder.0.bias f4 [32]
-3.048161 -9.773078 1.5103904 -0.34719452 -13.144525 -6.4491014 -3.3235085 -11.122739
-13.218278 -6.9687514 -2.9118392 -0.09398474 -8.799153 -4.4443874 -6.3470287 2.038887
-6.4062386 -12.207169 -0.6447236 -2.9911644 -7.9250793 1.4781483 -5.817297 9.837209
-3.329886 -12.244689 -2.2946625 -5.8340607 -7.5762 0.115541056 -1.4326429 -7.286288
00000000: 1215 43c0 875e 1cc1 7954 c13f 7bc3 b1be
00000010: f94f 52c1 0a5f cec0 5db4 54c0 bdf6 31c1
00000020: 117e 53c1 0300 dfc0 935b 3ac0 127b c0bd
00000030: 55c9 0cc1 6c38 8ec0 dc1a cbc0 207d 0240
00000040: e8ff ccc0 9050 43c1 9b0c 25bf 3d6f 3fc0
00000050: 409a fdc0 f733 bd3f 4c27 bac0 3565 1d41
00000060: da1c 55c0 3fea 43c1 c0db 12c0 a0b0 bac0
00000070: 3b70 f2c0 caa0 ec3d d860 b7bf 4529 e9c0

encoder.3.weight f4 [16, 32]
0.12925248 -0.1224272 -0.004777109 -0.06560542 -130.44829 -157.00636 -0.014570841 -0.061154846
-0.66270286 -5.68089 -148.05522 -0.0054471055 -26.93747 -8.317765 -90.03584 -236.64551
0.5613774 -164.02702 0.06453584 -0.19172779 -27.002531 -0.0024513167 -0.3658061 -0.01899853
-122.38191 -0.05245729 -196.42947 0.0073170806 -0.012543916 -11.483066 -154.81746 0.3125264
-2.2995348 -0.12483792 -1.9482359 0.023275824 -0.014856428 -0.058849726 -0.67001665 -0.013132579
-0.043490443 -0.04397255 0.99150765 -3.513458 -0.042150524 -0.0014125814 -0.21399096 0.011907909
-0.04084495 -0.0043321294 -0.4410116 -0.13084848 0.09665292 -1.6331655 -0.012780055 0.031841516
-0.004450511 -0.023802357 -0.018758347 -0.039118458 0.032244377 -0.0051443744 -0.0013473338 0.060079962
-113.53982 -15.775669 -0.0023399505 -98.86207 -0.06928378 -0.02660341 -214.43222 -17.635178
0.17229429 -95.87681 -188.4665 -0.0040167733 0.07009278 0.04782981 -0.052056927 -280.13504
-0.042789828 -0.75169355 -263.5178 -188.69353 -22.48975 0.00439597 -0.027008254 -0.022803543
0.46630946 -0.034034874 -208.84277 0.00088087894 -9.375483 0.024725666 0.034440417 -186.28091
0.018586397 2.276691 0.007851068 0.026410254 -0.005409271 -0.009294175 0.009231273 1.1828938
-0.008843616 0.5632546 -0.25138193 0.053014766 -5.3224034 -0.00075717364 0.07760538 -0.8160736
0.043711487 0.22490266 0.03655439 0.014809208 -0.006020623 0.0051040133 -0.00795676 0.008524616
-1.0065994 0.5247951 0.012727219 0.010030433 0.18369496 -0.00018856875 -0.0024126112 0.04740089
-7.1692777 -131.47533 0.011873827 -46.641373 -0.00492355 -17.817907 -21.187084 -0.069094196
-15.306921 -280.20767 -124.735374 -1.5504627 -12.839705 0.023148516 -135.99083 -193.71529
-0.2422968 -5.8522415 -42.925323 -169.49391 -0.19409133 0.0145488065 -179.89127 0.0044035814
-124.362045 -0.08757409 -30.255716 -23.997902 -42.183067 -0.0030367107 0.011860166 -0.06752774
-0.1493607 -0.08180217 -0.0034167788 0.06422977 0.016167155 -0.022603353 -0.05289379 -0.013971091
0.12062815 0.015721947 -0.051360425 0.046923768 0.0053272936 -0.006126657 -0.23579566 0.017377513
-0.16474874 9.945902e-05 0.45183048 0.4440389 -0.06858899 -0.0018291485 -0.018163739 0.38924506
-0.071755886 0.0008672946 0.29559094 0.0054698107 0.026657067 -0.008420227 -0.009071023 -0.0731225
0.0658601 0.0016503808 1.0999405 -0.002102138 0.0008464833 0.009100007 2.5118585 -0.0011279297
-0.0012229288 -0.000817091 -0.025029868 0.07983116 0.0019061664 -0.0013218526 0.69005924 -0.001189988
0.002785449 0.19052756 0.0007066804 -0.0048763496 -0.0012149591 1.2298646 0.006231264 -0.003063458
0.0014167649 0.29435623 -0.006473357 0.007994855 -0.0015845173 -0.0009484984 -0.001466066 -1.1020163e-05
1.5275321 -0.004627098 -0.01567973 -0.015810924 -0.0229254 1.460071 -0.014923451 -0.016205091
-0.016186377 -0.014525798 -0.010396825 -0.021662492 -0.011419087 -0.0033337593 0.0154314125 -0.016474657
-0.00022616857 -0.006555751 -0.014300035 -0.031466253 -0.0053082723 -0.010354381 1.1100401 -0.0046934923
-0.005612681 -0.001884693 0.01576667 1.5627413 0.00088273326 -0.0067118034 0.0043764915 -0.009330794
00000000: c35a 043e 1dbb fabd 4b89 9cbb 225c 86bd
00000010: c372 02c3 a101 1dc3 89ba 6ebc 817d 7abd
00000020: e5a6 29bf dac9 b5c0 230e 14c3 a27d b2bb
00000030: f07f d7c1 9115 05c1 5a12 b4c2 40a5 6cc3
00000040: 6eb6 0f3f eb06 24c3 5e2b 843d 4a54 44be
00000050: 2f05 d8c1 45a6 20bb f04a bbbe cea2 9bbc
00000060: 8ac3 f4c2 75dd 56bd f26d 44c3 1fc4 ef3b
00000070: ff84 4dbc a3ba 37c1 45d1 1ac3 7603 a03e
00000080: 942b 13c0 06ab ffbd cb5f f9bf f1ac be3c
00000090: 6068 73bc 690c 71bd 3686 2bbf 072a 57bc
000000a0: 0923 32bd 901c 34bd 72d3 7d3f 7fdc 60c0
000000b0: 07a6 2cbd 5e26 b9ba 7220 5bbe 6419 433c
000000c0: 094d 27bd 89f4 8dbb 46cc e1be 25fd 05be
000000d0: f7f1 c53d 910b d1bf 7063 51bc 406c 023d
000000e0: 98d5 91bb 29fd c2bc 1bab 99bc ad3a 20bd
000000f0: ae12 043d 2492 a8bb 0599 b0ba 6816 763d
00000100: 6314 e3c2 2469 7cc1 db59 19bb 61b9 c5c2
00000110: a8e4 8dbd 65ef d9bc a66e 56c3 d814 8dc1
00000120: ea6d 303e edc0 bfc2 6d77 3cc3 239f 83bb
00000130: ce8c 8f3d 31e9 433d a539 55bd 4911 8cc3
00000140: 6344 2fbd fd6e 40bf 47c2 83c3 8bb1 3cc3
00000150: 02eb b3c1 120c 903b 6a40 ddbc 7fce babc
00000160: 1dc0 ee3e 2768 0bbd c0d7 50c3 c9ea 663a
00000170: fa01 16c1 7b8d ca3c 6511 0d3d ea47 3ac3
00000180: 8042 983c 4eb5 1140 c4a1 003c 515a d83c
00000190: 4140 b1bb 9846 18bc c43e 173c 1069 973f
000001a0: d0e4 10bc 7431 103f 22b5 80be 0326 593d
000001b0: 2151 aac0 107d 46ba 92ef 9e3d 33ea 50bf
000001c0: d10a 333d e24c 663e 0eba 153d 52a2 723c
000001d0: a548 c5bb 913f a73b 125d 02bc d5aa 0b3c
000001e0: 40d8 80bf f958 063f d385 503c af56 243c
000001f0: 881a 3c3e 8aba 45b9 e61c 1ebb 7027 423d
00000200: b96a e5c0 af79 03c3 718a 423c c490 3ac2
00000210: bb55 a1bb 138b 8ec1 267f a9c1 4281 8dbd
00000220: 26e9 74c1 951a 8cc3 8378 f9c2 9075 c6bf
00000230: 6f6f 4dc1 f5a1 bd3c a7fd 07c3 1db7 41c3
00000240: a71c 78be 9045 bbc0 88b3 2bc2 717e 29c3
00000250: e1bf 46be 1e5e 6e3c 2ae4 33c3 eb4b 903b
00000260: 5eb9 f8c2 0b5a b3bd b50b f2c1 b4fb bfc1
00000270: 76bb 28c2 8d03 47bb 2451 423c fc4b 8abd
00000280: 03f2 18be e587 a7bd 09ec 5fbb e68a 833d
00000290: fb70 843c ab2a b9bc 29a7 58bd 01e7 64bc
000002a0: e40b f73d 50cb 803c 4f5f 52bd 2333 403d
000002b0: 9490 ae3b 20c2 c8bb 6b74 71be 495b 8e3c
000002c0: e5b3 28be a894 d038 5356 e73e 1159 e33e
000002d0: 6278 8cbd 0ac0 efba 1fcc 94bc 214b c73e
000002e0: c0f4 92bd 285b 633a b257 973e 193c b33b
000002f0: ec5f da3c fef4 09bc a19e 14bc 40c1 95bd
00000300: a9e1 863d 9751 d83a daca 8c3f 06c4 09bb
00000310: 88e6 5d3a 3218 153c 4ac2 2040 0ad7 93ba
00000320: ae4a a0ba 0c32 56ba 700b cdbc 857e a33d
00000330: 55d8 f93a 0342 adba b9a7 303f 5ff9 9bba
00000340: 148c 363b a819 433e 8540 393a c9c9 9fbb
00000350: 433f 9fba 346c 9d3f a22f cc3b 4cc4 48bb
00000360: beb2 b93a dcb5 963e 741e d4bb dafc 023c
00000370: 94af cfba a6a4 78ba 0329 c0ba 3de3 38b7
00000380: 2c86 c33f e99e 97bb c772 80bc e985 81bc
00000390: 0cce bbbc 9be3 ba3f 7d81 74bc 8ac0 84bc
000003a0: 4b99 84bc 9dfd 6dbc 7257 2abc 8a75 b1bc
000003b0: 1f17 3bbc 337b 5abb 09d4 7c3c dcf5 86bc
000003c0: aa27 6db9 a0d1 d6bb b24a 6abc c2e2 00bd
000003d0: 04f1 adbb 6ca5 29bc cb15 8e3f decb 99bb
000003e0: 95ea b7bb ce07 f7ba 1b29 813c e807 c83f
000003f0: 3a67 673a b0ee dbbb ac68 8f3b 30e0 18bc

encoder.3.bias f4 [16]
2.2759445 14.351217 5.4307737 -2.5157619 6.826207 1.3721323 0.47757033 -0.033189494
3.8688855 3.011848 6.350456 10.231462 -0.10373759 4.36416 10.928353 5.3649926
00000000: 13a9 1140 969e 6541 e6c8 ad40 3e02 21c0
00000010: 4a70 da40 08a2 af3f 1984 f43e b5f1 07bd
00000020: d29b 7740 1ec2 4040 f036 cb40 11b4 2341
00000030: 6074 d4bd 33a7 8b40 89da 2e41 05ae ab40

decoder.0.weight f4 [32, 16]
0.06317864 0.012074884 -0.07860182 -0.052232627 -0.0010686798 -0.18085133 -0.34172514 -0.28002706
-0.18263161 -0.24722257 -0.07528747 0.04350727 -0.0768613 -0.09000763 -0.164196 -0.18322209
-0.41823155 0.007266913 -0.2677292 -0.07420521 -0.40870425 0.058816817 -0.00462629 -0.034130733
-0.5053216 0.26172847 0.017966352 0.0006703056 0.020729007 -0.066379815 0.1669458 0.03026132
0.12097151 0.117915966 -0.0070583196 0.06118228 1.1212673 -0.05156948 0.094728276 -0.025248624
0.02341403 0.024377922 -0.037601776 0.006237027 -0.01912703 -0.013542197 -0.20057055 -0.14906834
-0.25977328 0.15401453 -0.34458047 -0.0659853 -0.0917015 0.089751884 -0.0058703646 -0.03837674
-0.42811817 0.39940384 -0.02771313 0.05967754 0.030797947 -0.1620069 0.109010816 -0.16520458
0.26309422 0.08395521 -0.3347208 0.06857817 1.1725467 0.0013791291 0.011605978 0.02237797
0.16706921 -0.3227619 0.18908551 -0.07766617 0.090252236 -0.0123299705 0.53667164 -0.124316454
1.0094699 -0.018653087 -0.024315737 0.47572717 -0.38222483 0.044781096 0.00030386916 0.011690294
-0.0071828375 0.13256484 0.07025176 0.02416661 0.004965765 -0.06027935 0.0683122 0.02587859
1.4152689 0.0500815 -20.603716 0.075163595 -0.15932246 0.271492 -0.009866857 -0.029534994
-0.8788314 -0.16288629 -0.087324694 -0.04998183 -0.02492986 0.05583064 1.5084296 -0.03149354
0.5326622 0.5770807 -0.03346596 0.24276067 0.20846318 -0.11922723 0.08099803 -0.049925942
-0.06479246 -0.05646437 -0.2185721 -0.15817784 -0.025120862 -0.018567633 0.33791345 -0.80475706
-0.19345194 0.0056740963 -0.08422098 0.01907472 0.36971423 0.48315477 -0.012934178 0.020148812
0.14094625 -0.055247072 -0.00416598 0.66060734 0.014900286 0.41455325 -0.76002216 0.025067449
-0.15678763 -0.049200673 -0.017470993 -0.09887069 -0.12929285 -0.11053272 -0.30300218 -0.048603076
-0.14448127 -0.30835387 -0.23851456 -0.21491292 -0.1877177 -0.17503703 -0.31389263 0.22630376
-0.04827978 -32.04879 0.20801206 -0.034876756 -0.23514329 0.14027292 -0.05149272 -0.050541848
-0.7979236 0.24847907 0.3701336 -0.007761692 -0.014624385 -0.17854796 0.5748016 -0.057861973
0.2899176 -0.06618461 -0.011220691 0.09090686 0.62968534 -0.2964399 0.038648985 0.05228714
0.11392857 0.111440524 0.16770616 -0.42832404 0.0546085 -0.20900694 0.38479012 0.12661062
-0.033249505 -0.03392732 -0.1634338 -0.065169305 0.49525955 0.051997162 -0.00815642 0.03810405
0.106147304 -0.268198 0.11520384 -0.034050316 0.047923967 0.041214265 0.46663976 0.04533966
0.028041711 -0.2242341 -0.025968207 -0.010032934 0.7206142 -0.019970307 -0.0036508753 -0.022737699
-0.08906819 0.7220729 0.10845265 -0.005546577 0.013622414 -0.39322594 -0.2661025 0.31344247
-0.24002394 -37.50849 0.20995595 -0.058288626 -0.25258857 0.42782173 -0.03272586 -0.072652146
-1.5013144 0.25991315 0.446734 -0.03529414 -0.035627846 -0.25046054 1.9074771 0.40286428
0.037168313 0.008446033 -0.00022209038 0.0061351224 -0.08366788 0.0009123635 0.0027217166 -0.004393463
-0.013578009 -0.0020308727 -0.00025112723 -0.0051082834 -23.567064 0.0044814707 0.020087307 -0.0041455715
00000000: ce63 813d bcd5 453c fef9 a0bd e1f1 55bd
00000010: f212 8cba 1731 39be 99f6 aebe b55f 8fbe
00000020: c803 3bbe ea27 7dbe 5130 9abd ae34 323d
00000030: 7569 9dbd ec55 b8bd ff22 28be 929e 3bbe
00000040: 7222 d6be 491f ee3b cd13 89be e7f8 97bd
00000050: af41 d1be e7e9 703d 2298 97bb abcc 0bbd
00000060: c25c 01bf 4601 863e 2c2e 933c 73b7 2f3a
00000070: e1cf a93c 24f2 87bd d7f3 2a3e 96e6 f73c
00000080: e9bf f73d ed7d f13d 7a49 e7bb 459a 7a3d
00000090: b085 8f3f 853a 53bd e600 c23d 34d6 cebc
000000a0: c8ce bf3c 35b4 c73c 5204 1abd f95f cc3b
000000b0: 4ab0 9cbc 17e0 5dbc 5e62 4dbe 5fa5 18be
000000c0: 0101 85be fcb5 1d3e da6c b0be 4d23 87bd
000000d0: ffcd bbbd d6cf b73d 305c c0bb ee30 1dbd
000000e0: 4e32 dbbe a97e cc3e a506 e3bc 7070 743d
000000f0: fa4b fc3c 23e5 25be 1041 df3d 642b 29be
00000100: 49b4 863e b6f0 ab3d 8660 abbe b672 8c3d
00000110: 0316 963f e5c3 b43a 0027 3e3c 0152 b73c
00000120: 3114 2b3e 0c41 a5be a29f 413e 710f 9fbd
00000130: 2ad6 b83d a503 4abc 5063 093f a099 febd
00000140: 4f36 813f 5cce 98bc cc31 c7bc 8392 f33e
00000150: f9b2 c3be 626c 373d a150 9f39 a688 3f3c
00000160: 025e ebbb 14bf 073e 28e0 8f3d 0ef9 c53c
00000170: dbb7 a23b 7be7 76bd 44e7 8b3d 56ff d33c
00000180: 8827 b53f 4222 4d3d 69d4 a4c1 5fef 993d
00000190: 6d25 23be 0001 8b3e 99a8 21bc 5ff3 f1bc
000001a0: 18fb 60bf aacb 26be 4ad7 b2bd bfb9 4cbd
000001b0: b539 ccbc abae 643d 3914 c13f 5fff 00bd
000001c0: 8d5c 083f 90bb 133f 9a13 09bd 4196 783e
000001d0: 5f77 553e 682d f4bd 4ce2 a53d 257f 4cbd
000001e0: e9b1 84bd 2f47 67bd 5dd1 5fbe 5ff9 21be
000001f0: 44ca cdbc 261b 98bc fe02 ad3e 8f04 4ebf
00000200: 4418 46be c5ed b93b 0d7c acbd 9642 9c3c
00000210: 2f4b bd3e 1060 f73e e0e9 53bc 1f0f a53c
00000220: 3754 103e c14a 62bd c682 88bb 901d 293f
00000230: 5420 743c 5340 d43e d090 42bf 405a cd3c
00000240: f08c 20be a586 49bd 541f 8fbc b77c cabd
00000250: 5865 04be fb5e e2bd 1a23 9bbe 0514 47bd
00000260: e6f2 13be 8fe0 9dbe 293d 74be 2212 5cbe
00000270: 1239 40be e83c 33be 89b6 a0be 2cbc 673e
00000280: 05c1 45bd f631 00c2 1d01 553e eeda 0ebd
00000290: 67c9 70be b4a3 0f3e 08ea 52bd f804 4fbd
000002a0: b944 4cbf 4c71 7e3e 2782 bd3e cb55 febb
000002b0: 1e9b 6fbc 47d5 36be 3326 133f ad00 6dbd
000002c0: 1470 943e cc8b 87bd fdd6 37bc 602d ba3d
000002d0: 0f33 213f f8c6 97be 664e 1e3d 0a2b 563d
000002e0: 6253 e93d ee3a e43d 2abb 2b3e 4a4d dbbe
000002f0: 2aad 5f3d ea05 56be 3603 c53e 37a6 013e
00000300: a230 08bd 60f7 0abd 315b 27be 7c77 85bd
00000310: a992 fd3e fafa 543d 81a2 05bc fe12 1c3d
00000320: c263 d93d 4051 89be feef eb3d 5878 0bbd
00000330: ec4b 443d 4ad0 283d 68eb ee3e 14b6 393d
00000340: bbb7 e53c a09d 65be 47bb d4bc 2d61 24bc
00000350: 2c7a 383f c598 a3bc 8643 6fbb 6944 babc
00000360: 6269 b6bd c5d9 383f 6c1c de3d 0fc0 b5bb
00000370: 8c30 5f3c e954 c9be 963e 88be 887b a03e
00000380: d6c8 75be b208 16c2 b1fe 563e 0ec0 6ebd
00000390: 4a53 81be 730b db3e 8d0b 06bd a6ca 94bd
000003a0: 122b c0bf 5613 853e 52ba e43e 9790 10bd
000003b0: 81ee 11bd 5d3c 80be 3628 f43f 3a44 ce3e
000003c0: cd3d 183d 3b61 0a3c efe0 68b9 2309 c93b
000003d0: 115a abbd ae2b 6f3a d45e 323b 0af7 8fbb
000003e0: 4c76 5ebc 6418 05bb baa9 83b9 6363 a7bb
000003f0: 5989 bcc1 4dd9 923b 238e a43c 93d7 87bb

decoder.0.bias f4 [32]
-0.052225437 3.724896 7.6744146 1.7619334 -4.2577686 0.37978026 -13.255301 1.5678725
5.8254457 -0.25853437 15.169159 2.153559 -1.0996692 6.91807 5.694226 4.774469
3.9186444 -2.8303993 1.3331083 4.1913724 0.74435407 0.8824979 -2.0741503 16.518435
5.824049 8.3136015 6.018551 -1.2107586 -3.1625464 -3.8775022 2.3337736 12.973832
00000000: 57ea 55bd b264 6e40 ce94 f540 0987 e13f
00000010: a43f 88c0 8f72 c23e b715 54c1 0cb0 c83f
00000020: 0d6a ba40 9e5e 84be e0b4 7241 e9d3 0940
00000030: f6c1 8cbf d460 dd40 1937 b640 73c8 9840
00000040: 12cb 7a40 4325 35c0 4ba3 aa3f b91f 8640
00000050: fd8d 3e3f 62eb 613f e1be 04c0 c125 8441
00000060: 9c5e ba40 8304 0541 f897 c040 23fa 9abf
00000070: 2967 4ac0 ff28 78c0 8c5c 1540 d194 4f41

decoder.2.weight f4 [60, 32]
-0.06505856 -0.74722 -0.13368675 0.5597532 -0.27302465 -0.2192421 0.12333036 0.000537584
-0.023005381 -0.10376772 -0.0014290365 0.32711032 -0.02849693 0.020772485 0.025145179 0.005617489
0.017853545 0.24927698 0.29475716 -0.023470633 -0.16656743 0.10531148 0.17560795 0.07706584
-0.19503476 2.8892078e-08 -0.0024946327 0.12615912 0.028240534 -0.28453183 0.12990421 0.21359913
-0.045599107 0.0043902625 0.018970884 0.011317554 -0.059135687 0.0020558038 0.02766929 -0.017308442
0.2218522 0.052722774 0.05540805 0.02438802 0.05431924 -0.008131526 -0.040943448 -0.0025058142
-0.0016864812 0.01175109 0.14353937 -0.008769998 0.037994806 -0.04576908 0.020898566 0.004674548
-0.1519512 0.006431724 0.006315825 -0.061108973 -0.014153036 0.008154463 0.04314197 0.021421576
-0.034814745 0.03764065 0.035279185 0.025379738 -0.030861283 0.008979573 0.048995636 -0.03602323
0.20221902 -0.025086926 -0.010726375 0.39191458 0.064603 -0.32887918 0.012212902 -0.001499736
0.0010671469 -0.018890683 0.03971155 -0.009496537 0.00032986724 -0.3067751 0.8765154 -0.0075083193
-0.22793238 0.013190113 -0.0047344714 -0.02506093 -0.019183742 -0.5951638 -0.030603185 -0.0152874105
-0.004902709 0.022645375 0.029785352 0.020456688 -0.044927146 0.005341115 0.041480936 -0.03034263
0.22069545 0.07808812 0.014550236 0.2656286 0.06296011 -0.20397083 -0.008167123 -0.001724198
0.0006857744 -0.00542043 0.102457196 -0.010420591 0.016625091 -0.2176689 0.584103 -0.0067704404
-0.21888697 0.0097933505 0.0018311965 -0.039459772 -0.018420773 -0.39679393 0.004177199 -0.002359895
-0.001410539 -0.04895756 -0.037513677 0.0042359857 0.019656591 0.00941486 -0.053889494 0.034872547
-0.21487357 -0.03369612 -0.029551575 -0.17194061 -0.042025328 0.18527304 0.018684706 0.002150272
-0.00092068576 -0.019021712 -0.08155419 0.01216693 -0.023673054 0.17772973 -0.41879848 -0.0039438964
0.19612084 -0.01640818 0.008669043 0.0427145 0.017838405 0.24193963 -0.019012863 0.0014930923
0.11127668 -0.00025137447 -0.006054934 0.007360158 0.076987095 -0.028536918 -0.046415832 0.0058735893
-0.19691719 -0.09341386 -0.07271006 -0.025981704 -0.060643226 -0.06301292 0.05246029 0.006555585
0.008553602 0.041228253 -0.21660359 0.0055735433 -0.03256024 0.032685384 -0.033089466 0.0030014298
0.22737333 -0.014100918 -0.008790578 0.042862054 -0.003536464 0.053151213 -0.11976927 -0.02326281
-0.028688043 0.0011109886 0.043899257 0.0014299996 -0.0074582235 0.026888946 -0.0022980724 -0.061814956
0.054888908 -0.072052255 -0.045215704 -0.017533667 -0.014273293 -0.019546283 0.037321847 0.0029147754
0.00308722 0.004389497 0.05273345 -0.00038951717 0.008098971 0.041162547 0.05000675 -0.0073241713
0.47966757 0.004656375 -0.001292875 -0.008551333 0.037521638 -0.07312854 -0.30527362 -0.0010748353
0.083626494 0.020203546 0.016549079 -0.017511128 0.012162448 0.0115861045 -0.022791216 -0.031407908
-0.055853754 -0.010703769 -0.07490146 -0.015249131 -0.034011938 -0.014986354 0.061085276 0.0023253227
-0.00042664123 0.010203175 -0.037864495 0.0035080516 -0.023239972 0.055175073 0.023964211 -0.002659253
0.38950428 0.0023112656 -0.006416725 0.029328119 0.039707694 -0.052279588 -0.23602684 -0.01453257
00000000: 6c3d 85bd cf49 3fbf 2ee5 08be fc4b 0f3f
00000010: e3c9 8bbe 0081 60be a194 fc3d a7ec 0c3a
00000020: c875 bcbc 2c84 d4bd 824e bbba 017b a73e
00000030: 6572 e9bc 0f2b aa3c 43fd cd3c ea12 b83b
00000040: 9941 923c 7742 7f3e 69ea 963e 7c45 c0bc
00000050: a790 2abe 8cad d73d 92d2 333e b2d4 9d3d
00000060: 31b7 47be 5a2e f832 fe7c 23bb db2f 013e
00000070: b158 e73c 28ae 91be 9c05 053e bbb9 5a3e
00000080: 21c6 3abd 31dc 8f3b d468 9b3c 436d 393c
00000090: 4338 72bd aaba 063b b5aa e23c 6fca 8dbc
000000a0: 392d 633e d6f3 573d 8df3 623d 63c9 c73c
000000b0: da7d 5e3d 183a 05bc 51b4 27bd 9638 24bb
000000c0: eb0c ddba a587 403c fcfb 123e 0ab0 0fbc
000000d0: 71a0 1b3d 5c78 3bbd 7833 ab3c f32c 993b
000000e0: 1899 1bbe 36c1 d23b fbf4 ce3b 674d 7abd
000000f0: 23e2 67bc 4c9a 053c a2b5 303d 4d7c af3c
00000100: e899 0ebd 152d 1a3d e880 103d 2be9 cf3c
00000110: cdd0 fcbc 0f1f 133c a6af 483d 188d 13bd
00000120: 8112 4f3e 1983 cdbc adbd 2fbc 07a9 c83e
00000130: 944e 843d da62 a8be a018 483c ca92 c4ba
00000140: 82df 8b3a a2c0 9abc 94a8 223d 5d97 1bbc
00000150: 08f2 ac39 a011 9dbe 5063 603f 5908 f6bb
00000160: 1b67 69be 581b 583c a023 9bbb 944c cdbc
00000170: 3927 9dbc a85c 18bf 88b3 fabc 0c78 7abc
00000180: e7a6 a0bb cb82 b93c 6900 f43c c994 a73c
00000190: 8705 38bd 8504 af3b eae7 293d 1b91 f8bc
000001a0: fdfd 613e aaec 9f3d 1d64 6e3c 7900 883e
000001b0: 3bf1 803d bbdd 50be 66cf 05bc 7cfe e1ba
000001c0: 8ac5 333a dd9d b1bb 14d5 d13d 20bb 2abc
000001d0: 5831 883c 99e4 5ebe c687 153f 92da ddbb
000001e0: e823 60be 4a74 203c c204 f03a 92a0 21bd
000001f0: 29e7 96bc 9328 cbbe e3e0 883b 78a8 1abb
00000200: d6e1 b8ba b987 48bd f1a7 19bd 06ce 8a3b
00000210: dc06 a13c c940 1a3c 3bbb 5cbd 84d6 0e3d
00000220: d107 5cbe f104 0abd 2516 f2bc 3311 30be
00000230: c022 2cbd 37b8 3d3e ab10 993c 94eb 0c3b
00000240: 2d5a 71ba 6cd3 9bbc e205 a7bd ce57 473c
00000250: feed c1bc c8fe 353e c16c d6be cd3b 81bb
00000260: e7d3 483e 736a 86bc 9a08 0e3c 66f5 2e3d
00000270: d921 923c 06bf 773e ddc0 9bbc ddb3 c33a
00000280: 07e5 e33d e9ca 83b9 7868 c6bb 7b2d f13b
00000290: 69ab 9d3d 41c6 e9bc 871e 3ebd 3d77 c03b
000002a0: a9a4 49be c44f bfbd 03e9 94bd 95d7 d4bc
000002b0: 0865 78bd eb0c 81bd 9ae0 563d 3cd0 d63b
000002c0: 6824 0c3c f5de 283d 55cd 5dbe 45a2 b63b
000002d0: e35d 05bd 1ce1 053d d288 07bd a3b3 443b
000002e0: 8ed4 683e 8907 67bc 5b06 10bc 1f90 2f3d
000002f0: 05c4 67bb 16b5 593d 9749 f5bd a691 bebc
00000300: 3003 ebbc 979e 913a b5cf 333d d36e bb3a
00000310: 1d64 f4bb 3546 dc3c 429b 16bb ae31 7dbd
00000320: 31d3 603d 2290 93bd 1a34 39bd c4a2 8fbc
00000330: 88da 69bc 871f a0bc cbde 183d d105 3f3b
00000340: f552 4a3b c5d5 8f3b 08ff 573d 1c38 ccb9
00000350: 8cb1 043c 0f9a 283d e1d3 4c3d 9aff efbb
00000360: fd96 f53e 8194 983b b075 a9ba e41a 0cbc
00000370: 4ab0 193d 6ac4 95bd d34c 9cbe 7de1 8cba
00000380: 5e44 ab3d e881 a53c ef91 873c 7f73 8fbc
00000390: 0145 473c a5d3 3d3c a5b4 babc 94a5 00bd
000003a0: e8c6 64bd dc5e 2fbc f065 99bd 7ed7 79bc
000003b0: 1a50 0bbd 5389 75bc 8e34 7a3d 7164 183b
000003c0: d1ae dfb9 382b 273c cd17 1bbd 57e7 653b
000003d0: c161 bebc 42ff 613d 9850 c43c dd46 2ebb
000003e0: 1b6d c73e 9a78 173b 6443 d2bb 8641 f03c
000003f0: 89a4 223d 1f23 56bd 05b1 71be 041a 6ebc

decoder.2.bias f4 [60]
-0.518835 -0.8555461 1.4569157 0.48802668 -0.5453429 1.3389869 -2.081189 -0.97489715
0.19451822 -3.5757625 1.2302113 3.702752 -1.8964807 -1.0334638 -1.2162856 -1.184883
0.91063136 0.6945275 0.91893595 0.4949661 -0.78838867 -0.47719872 -1.0939299 2.9942818
0.08801553 -0.30378625 -1.6786902 -1.3046532 0.8886504 -0.32404092 0.508958 0.17109779
-0.063621074 -0.6113883 -2.4325824 -0.98918974 1.7894982 -3.8871 -1.6506364 -2.668562
2.6049662 3.8356714 1.4186435 2.7904003 -2.5139096 -2.1252367 0.4820677 -1.6223246
-4.0545425 -2.6374662 1.4287659 -0.2988371 0.49189776 1.9001075 0.6459239 1.4647998
-2.06258 1.9144024 4.010677 -1.0895462
00000000: 5fd2 04bf 1205 5bbf 377c ba3f a2de f93e
00000010: 989b 0bbf ec63 ab3f 3332 05c0 dc92 79bf
00000020: c92f 473e 4bd9 64c0 9077 9d3f e4f9 6c40
00000030: e1bf f2bf 8b48 84bf 3faf 9bbf 3faa 97bf
00000040: 231f 693f 8ecc 313f 633f 6b3f 326c fd3e
00000050: d7d3 49bf 6453 f4be e505 8cbf 50a2 3f40
00000060: 7c41 b43d df89 9bbe 52df d6bf e0fe a6bf
00000070: 987e 633f b1e8 a5be 124b 023f 4234 2f3e
00000080: c44b 82bd f283 1cbf 6eaf 1bc0 8a3b 7dbf
00000090: 470e e53f 3fc6 78c0 0e48 d3bf b8c9 2ac0
000000a0: c4b7 2640 a47b 7540 1c96 b53f eb95 3240
000000b0: e5e3 20c0 e103 08c0 94d1 f63e 55a8 cfbf
000000c0: d0be 81c0 3fcc 28c0 cde1 b63f 2d01 99be
000000d0: 06da fb3e b936 f33f 455b 253f 8f7e bb3f
000000e0: 5001 04c0 230b f53f 7757 8040 4076 8bbf

exp_avg f4 [32, 60]
0.00064853264 0.0007583083 7.6028875e-05 0.0003375057 -0.00049437996 -0.00076790643 -0.00071316963 -0.0007445183
0.0007761996 -0.0007605224 -0.00095168647 -0.0009698462 0.0010665522 0.00058650813 0.0006408141 0.00064659934
-0.00063751737 -0.0005363239 -0.0004963063 -0.00052086555 0.00053402985 0.00015742405 0.00022802342 0.00020862356
0.00091891637 0.00085832196 0.00095614366 0.00095803355 -0.000948827 -0.0008273463 -0.0007903287 -0.00081428594
0.0008328415 0.00027754286 0.00028526472 -0.00042589594 0.00071808795 0.00052961556 0.00067563134 0.00064507866
-0.00061300787 -0.0005669588 -0.00052384654 -0.0005446093 0.00047014063 0.00032388695 0.00031058144 0.0002566494
0.0008314061 0.0011269231 0.0004120612 0.0007120023 -0.00084406347 -0.0010945926 -0.0010253534 -0.0010680496
0.0010839887 -0.0007859018 -0.00089395675 -0.0010530913 -6.053099e-05 -3.4937853e-05 4.942459e-05 5.808147e-06
-9.889683e-05 2.0851889e-05 1.2899006e-05 1.50067035e-05 -2.325777e-05 2.4929734e-05 0.00016076588 5.111913e-05
-7.599963e-05 -2.5759686e-05 3.1088011e-06 -5.997111e-06 2.364018e-05 1.9203631e-05 5.1364892e-05 3.1806343e-05
-6.7554414e-05 0.00012025367 3.167147e-05 2.8145349e-05 2.1100539e-05 3.4190394e-05 1.8765737e-05 2.715377e-05
-2.1860558e-05 -3.7144564e-05 -3.5853638e-05 -3.826764e-05 3.4112145e-05 -7.4889845e-06 -3.02721e-05 3.3384666e-05
1.8005516e-05 -8.3316074e-05 -5.451331e-05 -6.998077e-05 6.996187e-05 6.398434e-05 1.8824785e-06 4.8310998e-05
-6.247907e-05 -7.302347e-05 -3.3658747e-05 6.303746e-05 -0.00017615531 -3.5895523e-06 4.5884834e-05 1.2341243e-05
-8.753773e-05 -3.0391102e-05 -8.6135715e-06 -6.3664115e-06 1.3584199e-05 -1.700894e-05 0.00012164165 4.5108394e-05
0.00067780004 0.00039528284 0.00023892925 0.00030764562 -0.0003401556 -0.0003511514 -0.0002955237 -0.00035955588
0.00035894223 -6.7686655e-05 -7.560223e-05 -0.00020670223 0.0006728089 0.00065005134 0.00081230747 0.0007815136
-0.0007753314 -0.00060128525 -0.00062589534 -0.00069208705 0.00067560794 0.00027850154 0.0002815844 6.0194972e-05
0.00055907347 0.0002023922 0.00021763328 0.00022163741 -0.00021132854 -0.00020653158 -0.00015559237 -0.00017993322
0.00018788113 0.00012329596 7.85009e-05 -0.0003566052 0.00041172892 0.0008029585 0.0007943258 0.00082916004
-0.00083994726 -0.0004481323 -0.00039381225 -0.0004060844 0.00035536545 0.0007495551 4.316758e-05 6.6787766e-06
0.0004177485 0.0007447893 0.00093343423 0.00088441715 -0.0008418856 -0.00076106604 -0.0006878861 -0.0007080501
0.00072306016 0.00028001372 0.0004508982 -0.00022146881 -2.7753422e-06 -2.3922696e-05 -1.5562735e-05 -1.8386329e-05
1.7551672e-05 1.4277538e-05 1.1076953e-05 1.5745827e-05 -2.3564317e-05 1.6831941e-06 1.4681499e-05 -9.642807e-06
-3.618861e-05 -1.0054099e-05 -1.2599652e-05 -1.2096274e-05 1.1679448e-05 1.7168019e-05 1.5505784e-05 1.6502236e-05
-1.8358793e-05 8.620029e-06 -7.190723e-06 -1.2112363e-05 -5.451085e-05 2.204717e-05 3.0075455e-05 3.0554398e-05
-4.338198e-05 -1.1900701e-05 -3.5665541e-06 -6.0333186e-06 2.646297e-06 5.776066e-05 3.0456065e-05 1.25975375e-05
0.00015436888 1.2843409e-05 -6.598675e-06 1.2215723e-06 -1.51042905e-05 -1.19878e-05 -2.03983e-05 -1.7861277e-05
9.596795e-06 -2.359526e-05 -4.4407327e-05 -1.08834965e-05 2.7615471e-05 6.284539e-05 3.3172884e-05 4.5449393e-05
-4.8501322e-05 -6.8694266e-05 -5.033621e-05 -5.816151e-05 6.353577e-05 -2.898241e-05 -1.4588124e-05 3.9159604e-06
-2.9581359e-05 -1.6659329e-05 -1.4343296e-05 -1.6378199e-05 1.07768465e-05 1.8063462e-05 1.4952009e-05 1.6342972e-05
-1.7900957e-05 -2.3287696e-06 1.4106323e-06 2.6391579e-05 -2.169717e-05 5.8210244e-06 3.1113144e-05 2.2164957e-05
00000000: 4a02 2a3a 35c9 463a b171 9f38 40f3 b039
00000010: 4799 01ba 544d 49ba 01f4 3aba c72b 43ba
00000020: e079 4b3a cb5d 47ba 997a 79ba 473d 7eba
00000030: 8ecb 8b3a e5bf 193a 4efc 273a 8c80 293a
00000040: 111f 27ba 1698 0cba 8d1a 02ba b28a 08ba
00000050: 23fe 0b3a 3212 2539 9219 6f39 f6c1 5a39
00000060: 6fe3 703a 0301 613a b7a5 7a3a 8b24 7b3a
00000070: b4ba 78ba 45e2 58ba 102e 4fba ce75 55ba
00000080: 0c53 5a3a 2c83 9139 958f 9539 c94a dfb9
00000090: 113e 3c3a e6d5 0a3a da1c 313a 7f1a 293a
000000a0: 43b2 20ba f69f 14ba bf52 09ba 1dc4 0eba
000000b0: 357d f639 5fcf a939 89d5 a239 e68e 8639
000000c0: b8f2 593a 44b5 933a eb09 d839 aaa5 3a3a
000000d0: 2444 5dba 6f78 8fba 2765 86ba ccfd 8bba
000000e0: a014 8e3a fa04 4eba 6c58 6aba e107 8aba
000000f0: a8e2 7db8 3c8a 12b8 404d 4f38 9ae3 c236
00000100: d566 cfb8 17eb ae37 cf68 5837 4dc5 7b37
00000110: ae19 c3b7 3220 d137 4393 2839 bf68 5638
00000120: fe61 9fb8 8116 d8b7 cca0 5036 cb3a c9b6
00000130: e64e c637 7c17 a137 a270 5738 cd67 0538
00000140: 00ac 8db8 b330 fc38 fbd6 0438 ad19 ec37
00000150: 1001 b137 a867 0f38 1d6b 9d37 47c8 e337
00000160: 3161 b7b7 accb 1bb8 8d61 16b8 9181 20b8
00000170: a313 0f38 e349 fbb6 d7f0 fdb7 8306 0c38
00000180: 8d0a 9737 fab9 aeb8 39a5 64b8 a4c2 92b8
00000190: 7eb8 9238 552f 8638 78a9 fc35 8aa1 4a38
000001a0: 3207 83b8 2d24 99b8 ce2c 0db8 fb32 8438
000001b0: 55b6 38b9 0ae4 70b6 7774 4038 3c0d 4f37
000001c0: 7694 b7b8 65f0 feb7 0283 10b7 0f9f d5b6
000001d0: b1e7 6337 6cae 8eb7 dd19 ff38 c532 3d38
000001e0: 64ae 313a f73d cf39 1589 7a39 7f4b a139
000001f0: e956 b2b9 be1a b8b9 85f0 9ab9 c682 bcb9
00000200: 6930 bc39 fff2 8db8 a38c 9eb8 35be 58b9
00000210: 715f 303a 3568 2a3a 08f1 543a 7dde 4c3a
00000220: 9c3f 4bba 929f 1dba 2013 24ba 2d6d 35ba
00000230: 481b 313a d803 9239 9ea1 9339 dc79 7c38
00000240: c98e 123a 3e39 5439 7d34 6439 5767 6839
00000250: 1398 5db9 6690 58b9 8226 23b9 75ac 3cb9
00000260: f501 4539 0249 0139 daa0 a438 bdf6 bab9
00000270: 52dd d739 a27d 523a 4d3a 503a fd5b 593a
00000280: e82f 5cba 4df3 eab9 9678 ceb9 bae7 d4b9
00000290: 5850 ba39 cb7d 443a d60e 3538 411a e036
000002a0: 4105 db39 f73d 433a b6b1 743a 3bd8 673a
000002b0: fcb1 5cba 4782 47ba 4153 34ba 709c 39ba
000002c0: bf8b 3d3a cece 9239 8866 ec39 153a 68b9
000002d0: 0440 3ab6 99ad c8b7 b88c 82b7 573c 9ab7
000002e0: ee3b 9337 8f89 6f37 27d7 3937 e815 8437
000002f0: fcab c5b7 1cea e135 8f50 7637 8ac7 21b7
00000300: 39c9 17b8 07ae 28b7 1863 53b7 1af1 4ab7
00000310: d9f2 4337 0a04 9037 6b12 8237 486e 8a37
00000320: 3501 9ab7 be9e 1037 d747 f1b6 3436 4bb7
00000330: 94a2 64b8 f0f1 b837 8c4a fc37 8927 0038
00000340: 0cf5 35b8 1fa9 47b7 ef58 6fb6 d071 cab6
00000350: 0997 3136 0944 7238 e77b ff37 035a 5337
00000360: 15de 2139 067a 5737 306a ddb6 e8f4 a335
00000370: 6f68 7db7 351f 49b7 041d abb7 cdd4 95b7
00000380: ec01 2137 6fee c5b7 0142 3ab8 4398 36b7
00000390: c6a7 e737 ddcb 8338 1d23 0b38 eaa0 3e38
000003a0: e66d 4bb8 f40f 90b8 1820 53b8 72f2 73b8
000003b0: 823e 8538 401f f3b7 84bf 74b7 d865 8336
000003c0: 7c25 f8b7 a3bf 8bb7 fda3 70b7 ea63 89b7
000003d0: 34ce 3437 fd86 9737 64da 7a37 4418 8937
000003e0: 032a 96b7 f547 1cb6 f554 bd35 7c63 dd37
000003f0: 5102 b6b7 3852 c336 7c7f 0238 e2ee b937

exp_avg_sq f4 [32, 60]
2.3523653e-06 3.1657742e-06 3.281286e-06 3.169093e-06 3.6272713e-06 2.9060657e-06 2.8116526e-06 2.8905429e-06
2.9338396e-06 2.5524632e-06 6.9852967e-06 1.163091e-05 3.7272148e-05 2.7574797e-06 3.3413428e-06 3.3630329e-06
3.3503682e-06 2.545642e-06 2.1379428e-06 2.3750606e-06 2.420743e-06 3.9379563e-07 8.066897e-07 7.5627145e-07
4.4900426e-06 3.3024296e-06 2.9831504e-06 3.211356e-06 3.2344267e-06 3.3381145e-06 3.3564884e-06 3.214673e-06
3.2008659e-06 3.3117115e-06 2.549703e-06 1.0942223e-06 4.054071e-05 2.9959615e-06 3.3547647e-06 3.1378397e-06
3.3381527e-06 3.335029e-06 3.3305537e-06 3.2209534e-06 3.445395e-06 2.7058202e-06 3.1691427e-06 3.8571056e-06
1.666473e-05 3.3280578e-06 2.9871815e-06 3.245194e-06 3.2483483e-06 3.365273e-06 3.4223422e-06 3.4414911e-06
3.4352436e-06 1.6727496e-06 1.662979e-06 1.0489728e-06 2.9041973e-07 2.419488e-07 1.0029743e-07 1.0276325e-07
5.883811e-07 2.1168594e-07 1.9701649e-07 2.0615691e-07 2.1162205e-07 1.3596414e-07 2.5759657e-06 2.0071919e-07
2.6046794e-07 2.832396e-07 2.882344e-07 2.2480573e-07 2.1894081e-07 3.044394e-07 1.06410134e-07 1.5123332e-07
3.9087635e-07 2.8374773e-06 7.9123765e-07 4.4698584e-07 1.2916985e-07 3.4588112e-07 2.6371555e-07 3.106824e-07
3.2251398e-07 3.4900475e-07 3.6821353e-07 3.6726584e-07 3.686149e-07 1.7826531e-07 1.2908988e-07 2.6092454e-07
3.9392722e-07 2.3036766e-07 2.985034e-07 2.6226422e-07 2.5697477e-07 2.204359e-07 2.0620561e-07 1.9610037e-07
2.0149689e-07 4.911882e-07 4.4434913e-07 5.5993763e-07 1.16169616e-07 2.4297393e-07 1.0984397e-07 9.811755e-08
5.5594785e-07 2.1176277e-07 1.877841e-07 2.030923e-07 2.0731773e-07 2.2487973e-07 2.7901683e-06 3.8305097e-06
3.5311775e-06 1.6863873e-06 1.8946613e-06 1.7064581e-06 1.6472593e-06 1.751333e-06 1.6305997e-06 2.626688e-06
1.8728804e-06 2.5796433e-06 2.6257458e-06 2.5225077e-06 7.820729e-06 2.0272935e-06 1.9860909e-06 1.722201e-06
1.714708e-06 2.0183697e-06 2.0227499e-06 2.25987e-06 2.089675e-06 3.029033e-06 3.988607e-06 1.0773817e-06
2.589343e-06 1.315608e-06 1.6590626e-06 1.6556183e-06 1.6141137e-06 1.280575e-06 1.2328277e-06 1.2023172e-06
1.227623e-06 9.965074e-07 4.514004e-07 1.76536e-06 2.4295554e-05 1.9284955e-06 1.9593574e-06 1.7226209e-06
1.6763175e-06 1.9360853e-06 1.9802642e-06 2.1579385e-06 2.0327443e-06 2.8282132e-06 3.3905258e-06 1.4041394e-06
1.9220508e-06 1.6966824e-06 1.8171193e-06 1.7205424e-06 1.6896879e-06 1.6854107e-06 1.6771725e-06 1.8756749e-06
1.7309736e-06 1.9823167e-06 1.9894287e-06 9.5208287e-07 1.4187918e-07 2.94923e-07 2.1536701e-07 2.5953003e-07
2.7139117e-07 3.0520573e-07 3.2727547e-07 2.9125397e-07 2.8957973e-07 3.2230048e-07 2.1116907e-07 1.5292389e-07
2.5876528e-07 2.1075384e-07 2.4965266e-07 2.5314506e-07 2.463791e-07 2.0556334e-07 1.7796914e-07 1.9582153e-07
1.992896e-07 2.3865308e-08 2.0727603e-08 8.1127425e-09 2.2265908e-07 2.8248812e-07 2.112804e-07 2.5601423e-07
2.713056e-07 2.898728e-07 3.083237e-07 2.786608e-07 2.749744e-07 2.9373948e-07 1.70805e-07 1.4504256e-07
1.5536178e-07 2.0522661e-07 2.3767434e-07 2.3442111e-07 2.3003015e-07 2.0062231e-07 1.8328933e-07 1.9367188e-07
1.9998211e-07 9.131509e-08 1.003115e-07 1.9661886e-08 4.681854e-07 1.9485483e-07 2.2128624e-07 2.2856707e-07
2.2445452e-07 1.9229746e-07 1.7658293e-07 1.8835071e-07 1.9052044e-07 2.9782747e-08 3.104823e-08 2.978479e-08
3.8982415e-07 5.0926576e-07 7.1963206e-07 5.7243216e-07 5.3038383e-07 4.93913e-07 4.5745932e-07 4.266682e-07
4.3126326e-07 1.3917496e-06 1.2979276e-06 7.8470356e-07 4.3309927e-07 6.8663644e-07 7.6395094e-07 5.249914e-07
00000000: 54dd 1d36 9673 5436 1034 5c36 9aac 5436
00000010: 0c6c 7336 d405 4336 d3af 3c36 26fb 4136
00000020: fbe2 4436 fc4a 2b36 3e63 ea36 6122 4337
00000030: aa54 1c38 240d 3936 d53b 6036 77b0 6136
00000040: e3d6 6036 ccd5 2a36 9479 0f36 3b63 1f36
00000050: 0c74 2236 dc6a d334 4b8b 5835 9402 4b35
00000060: 2ca9 9636 4f9f 5d36 2232 4836 ad82 5736
00000070: 070f 5936 5f04 6036 0840 6136 a9bb 5736
00000080: 75ce 5636 c53e 5e36 901b 2b36 31dd 9235
00000090: 420a 2a38 3a0e 4936 6b22 6136 ad93 5236
000000a0: 0705 6036 5dcf 5f36 7a82 5f36 8f27 5836
000000b0: 6f37 6736 a395 3536 75ad 5436 496c 8136
000000c0: 3ccb 8b37 9957 5f36 6377 4836 02c8 5936
000000d0: 33fe 5936 f3d6 6136 64ab 6536 5ef4 6636
000000e0: 0989 6636 3d83 e035 8633 df35 6eca 8c35
000000f0: fcea 9b34 31e5 8134 1863 d733 b2ae dc33
00000100: 3ef1 1d35 ca4b 6334 7b8b 5334 fb5b 5d34
00000110: 3a3a 6334 8afd 1134 c1de 2c36 4585 5734
00000120: 71d6 8b34 2710 9834 a2be 9a34 2162 7134
00000130: fe15 6b34 d571 a334 9783 e433 b362 2234
00000140: a3d9 d134 7d6b 3e36 7065 5435 44f9 ef34
00000150: f0b1 0a34 8ab1 b934 ca94 8d34 ddcb a634
00000160: fc25 ad34 d95e bb34 e2ae c534 a22c c534
00000170: 0ce6 c534 3269 3f34 f59b 0a34 3215 8c34
00000180: f27c d334 fb5a 7734 ff41 a034 52cd 8c34
00000190: 58f6 8934 f5b0 6c34 5e69 5d34 a98f 5234
000001a0: 0b5b 5834 32da 0335 e18e ee34 9f4e 1635
000001b0: ec78 f933 1572 8234 5ce3 eb33 b2b4 d233
000001c0: 723c 1535 e860 6334 b3a1 4934 9611 5a34
000001d0: 109b 5e34 7876 7134 ba3e 3b36 d487 8036
000001e0: 2bf9 6c36 d457 e235 114c fe35 7409 e535
000001f0: 6617 dd35 580f eb35 fbda da35 2846 3036
00000200: ae5f fb35 ef1d 2d36 f835 3036 5a48 2936
00000210: c635 0337 a30c 0836 c848 0536 6026 e735
00000220: eb24 e635 5473 0736 94be 0736 45a8 1736
00000230: 583c 0c36 6446 4b36 e0d5 8536 8e9a 9035
00000240: 93c4 2d36 f293 b035 f5ac de35 9d36 de35
00000250: 86a4 d835 39e0 ab35 a377 a535 4e5f a135
00000260: cec4 a435 bcbf 8535 0058 f234 4ff1 ec35
00000270: 4ece cb37 4d6b 0136 817d 0336 ce34 e735
00000280: d5fd e035 b1ed 0136 aee4 0436 1ad1 1036
00000290: 486a 0836 55cc 3d36 ca88 6336 dd75 bc35
000002a0: 95fc 0036 90b9 e335 bee3 f335 63ed e635
000002b0: 3cc9 e235 4536 e235 351b e135 b3bf fb35
000002c0: cd53 e835 f107 0536 2082 0536 a392 7f35
000002d0: 7457 1834 e955 9e34 a23f 6734 8955 8b34
000002e0: b8b3 9134 28db a334 66b4 af34 a45d 9c34
000002f0: 8977 9b34 a408 ad34 b6bd 6234 6633 2434
00000300: 6eec 8a34 934b 6234 0008 8634 fee7 8734
00000310: 1646 8434 d2b8 5c34 c917 3f34 0343 5234
00000320: 4ffc 5534 5e00 cd32 7b0c b232 3860 0b32
00000330: 1014 6f34 dfa8 9734 50dc 6234 5472 8934
00000340: f5a7 9134 d09f 9b34 b087 a534 d99a 9534
00000350: 32a0 9334 3fb3 9d34 8566 3734 ffbc 1b34
00000360: 85d1 2634 435c 5c34 6d33 7f34 2fb5 7b34
00000370: 35fe 7634 a46a 5734 30ce 4434 1ff4 4f34
00000380: aaba 5634 0019 c433 d56a d733 f2e4 a832
00000390: e95a fb34 4a39 5134 b39a 6d34 0a6c 7534
000003a0: 9701 7134 537a 4e34 bf9a 3d34 733d 4a34
000003b0: dc91 4c34 f4d4 ff32 e459 0533 72d9 ff32
000003c0: 0649 d134 7ab4 0835 bd2c 4135 3da9 1935
000003d0: b35f 0e35 7195 0435 bb98 f534 d510 e534
000003e0: 5f88 e734 27cc ba35 7434 ae35 6ba4 5235
000003f0: b684 e834 4c51 3835 4f12 4d35 22ed 0c35

exp_avg f4 [32]
-0.0005848935 2.4379939e-05 -0.00020989256 2.1260288e-05 1.950134e-05 -0.00018649413 -9.476139e-05 -0.00011194968
5.0603627e-05 0.00030695187 -0.0001850425 0.00022147366 4.6813948e-05 0.0002324707 6.3497144e-05 0.00015768442
-8.680593e-06 0.00014031521 8.810735e-05 -0.00048294547 4.1546202e-05 -0.0002870069 0.00012440505 0.00017519007
6.260826e-05 -4.1054915e-05 3.1317937e-05 -1.1128046e-05 0.000103620114 0.00029695514 -0.0011841935 5.9308346e-05
00000000: 8a53 19ba 8583 cc37 9b16 5cb9 1f58 b237
00000010: cf96 a337 a38d 43b9 a2ba c6b8 87c6 eab8
00000020: 3b3f 5438 62ee a039 f807 42b9 623b 6839
00000030: 185a 4438 61c3 7339 c529 8538 1758 2539
00000040: dda2 11b7 9421 1339 46c6 b838 d833 fdb9
00000050: e541 2e38 6a79 96b9 ba72 0239 3ab3 3739
00000060: 8e4c 8338 6132 2cb8 615b 0338 98b2 3ab7
00000070: a04e d938 a5b0 9b39 f136 9bba dac1 7838

exp_avg_sq f4 [32]
2.9321775e-06 2.6312995e-07 1.8687703e-06 2.3694427e-07 6.5520106e-07 7.378026e-07 6.098368e-07 7.1834756e-07
6.8833526e-07 1.5544364e-06 5.092354e-07 2.5387494e-06 6.136431e-06 1.0306878e-06 7.85813e-07 2.2561626e-06
5.308586e-07 4.0473296e-06 7.411254e-06 2.4557278e-06 1.3206942e-06 1.770953e-06 6.8473486e-07 4.5395236e-06
8.5303054e-07 9.531701e-06 3.9349328e-07 7.8315156e-07 4.976631e-07 3.4181382e-06 4.1621224e-06 1.2862541e-06
00000000: 6dc6 4436 4e44 8d34 75d2 fa35 bf6a 7e34
00000010: 13e1 2f35 690d 4635 aab3 2335 78d4 4035
00000020: 0ac6 3835 07a2 d035 64b2 0835 625f 2a36
00000030: 8ae7 cd36 2a56 8a35 a8f0 5235 9468 1736
00000040: 5380 0e35 4cce 8736 30ae f836 15cd 2436
00000050: b542 b135 7bb1 ed35 9fce 3735 3652 9836
00000060: d0fb 6435 58ea 1f37 4e41 d334 c439 5235
00000070: 2697 0535 2b63 6536 5ca8 8b36 5ba3 ac35

exp_avg f4 [16, 32]
-3.4806535e-06 -2.4751575e-05 2.5643789e-05 6.714259e-05 -2.1805952e-28 6.0071854e-14 -1.52410175e-05 -3.7598504e-05
-2.5390834e-06 -6e-45 -6e-45 3.450369e-05 6e-45 3.875005e-16 2.8235947e-12 1.6184275e-24
7.1516697e-06 2.0398004e-29 -2.0791384e-05 -6.0082286e-05 6e-45 0.00018453362 -2.2454597e-05 -0.00011432447
5.596453e-15 9.827961e-05 3.5976135e-28 0.00032061213 0.00018670106 6.3085337e-15 6e-45 -8.333667e-05
0.00029106752 -0.00043849717 2.8267981e-05 -0.00027252833 -0.00024955353 -0.00014161551 0.00031259033 -6.883395e-05
-0.002123882 -0.00051482173 -5.843636e-06 -8.651393e-05 0.0013951634 -0.00084492075 0.00021522689 0.0002663265
0.0002550419 0.00053319137 0.0012322132 -0.0005811971 -0.00041501757 0.00011507808 0.0016370217 -0.00088736176
0.00013992179 0.0008155824 -0.0003202185 0.0013263857 -7.7638004e-05 -0.00039748882 0.0001374419 0.00015128953
6e-45 6e-45 -0.00050849206 1.5256426e-22 4.7483383e-05 0.00030285845 -3.6377233e-26 6e-45
2.8900515e-05 -4.482376e-11 1.2292116e-08 5.6831235e-05 0.00034633395 0.00062607374 1.2786799e-05 6e-45
5.5835295e-05 0.00013813781 4.7395626e-17 6e-45 8.514042e-17 0.00043369827 0.00060147344 0.0012197796
-8.853784e-06 3.9939445e-05 6.735202e-22 0.00032449656 -1.2984555e-06 0.0007378576 0.0008134863 -6e-45
-0.00018466121 -1.1068172e-05 -0.0020648504 0.00026157455 0.000696298 -0.0011554725 -0.00082025083 -0.00071368203
0.0012241736 0.00068734924 -0.00013950585 -0.00038138434 -9.773989e-08 -0.0033590905 0.00025432563 -0.0010968287
0.0003424628 0.0022309297 0.00076160196 0.0009822553 -0.004160583 -0.0022703258 0.0010963334 -0.0020392085
-6.591698e-05 -0.00096931605 0.001581415 0.0011113472 -0.0010529674 0.010455309 -0.00022613876 -1.5289834e-05
-6e-45 6e-45 0.00023007738 7.647013e-39 0.00038112476 6e-45 -5.6746914e-13 -5.5568426e-06
6e-45 6e-45 -6e-45 2.5723257e-06 6e-45 0.00021792254 -8.747829e-18 -6e-45
8.724213e-05 -2.4775775e-07 5.0068283e-13 6e-45 -7.3914152e-06 -4.363744e-05 -6e-45 -7.191682e-05
-6e-45 9.758264e-06 6e-45 2.1303936e-11 3.218324e-28 0.00018380138 0.00014253973 0.00016983326
0.0001334308 0.00030095575 0.0015340875 6.076514e-05 0.0011720717 -0.00019790704 0.00032278636 0.0008522494
0.0012513371 0.0010732336 0.00035988973 0.000624454 -0.0005616944 0.0009698516 3.990258e-05 -0.00048059545
0.00039326012 0.0008530647 0.00037348378 0.0002595423 0.00025035092 0.00059222715 0.0010068982 0.00090134615
-0.00012837227 0.0022690352 0.000618389 0.00016355993 0.00025860613 -2.7140359e-05 -0.000600442 7.0642076e-05
-0.0008400683 -0.0032007045 -7.09628e-05 0.00015419327 0.0034180193 0.0010269432 -1.50028645e-05 0.0003745489
-0.0006490351 0.0007754403 0.001794005 9.4537514e-05 0.00025238743 -0.0013050517 -4.3938103e-06 0.0110099735
-0.0034756074 3.072591e-05 0.00033507243 -0.0068000345 -0.0035294136 -8.421222e-05 -0.0027729357 -9.50075e-05
0.0032070081 -0.00015683107 -0.0015409065 -0.0013105929 -0.0016868633 0.0022794136 -0.0027602448 -0.0037122013
-6.710467e-05 0.00013910727 -1.8013621e-06 -1.9718498e-05 -0.0049025333 -0.00018752964 0.0002508568 -0.00017530163
-0.00053308764 0.0022273622 0.00066013436 -5.614307e-05 0.00096923555 0.0023927647 -0.00019315541 -0.0006423683
-6.48717e-05 0.0012529474 -0.0010530852 -0.0001987929 -0.0007560436 4.628948e-05 -9.788091e-05 0.0047162557
-6.582118e-05 0.000914844 -0.0013449267 0.00010566844 -5.6045025e-07 -0.011607766 0.013260928 0.000100035446
00000000: 2c95 69b6 9aa1 cfb7 9e1d d737 e7ce 8c38
00000010: 2e36 8a91 1145 8729 acb3 7fb7 16b3 1db8
00000020: 1f65 2ab6 0400 0080 0400 0080 0eb8 1038
00000030: 0400 0000 fb60 df25 5cb1 462c 8570 fa17
00000040: 60f8 ef36 3fdc ce0f 2869 aeb7 dd00 7cb8
00000050: 0400 0000 5e7f 4139 e15c bcb7 7cc1 efb8
00000060: 2ba2 c927 771b ce38 9e06 e411 d517 a839
00000070: 2fc5 4339 f449 e327 0400 0000 09c5 aeb8
00000080: 6c9a 9839 18e6 e5b9 0721 ed37 22e2 8eb9
00000090: 82d6 82b9 a07e 14b9 2ae3 a339 f25a 90b8
000000a0: d430 0bbb 1af5 06ba 7314 c4b6 d06e b5b8
000000b0: eadd b63a ac7d 5dba 87ae 6139 bda1 8b39
000000c0: 25b7 8539 dec5 0b3a 3782 a13a 7a5b 18ba
000000d0: b796 d9b9 1356 f138 5591 d63a d79d 68ba
000000e0: f8b7 1239 cfcc 553a 00e3 a7b9 1eda ad3a
000000f0: 96d1 a2b8 0c66 d0b9 471e 1039 79a3 1e39
00000100: 0400 0000 0400 0000 534c 05ba 5a70 381b
00000110: e528 4738 f9c8 9e39 9f21 3495 0400 0000
00000120: 626f f237 1123 45ae 4c2d 5332 135e 6e38
00000130: 2894 b539 191f 243a e286 5637 0400 0000
00000140: b130 6a38 16d9 1039 e192 5a24 0400 0000
00000150: 0952 c424 ff61 e339 33ac 1d3a 03e1 9f3a
00000160: b68a 14b7 a784 2738 1a8f 4b1c 3121 aa39
00000170: 9746 aeb5 c96c 413a 2440 553a 0400 0080
00000180: 9ea1 41b9 70b1 39b7 7152 07bb f123 8939
00000190: c587 363a 3973 97ba 1a06 57ba 6416 3bba
000001a0: 7374 a03a 3a2f 343a 5148 12b9 8af4 c7b9
000001b0: 13e5 d1b3 3024 5cbb 0257 8539 77c3 8fba
000001c0: 948c b339 ca34 123b 3ea6 473a 05bf 803a
000001d0: 8055 88bb bfc9 14bb d8b2 8f3a 3ea4 05bb
000001e0: e93c 8ab8 b319 7eba 7b47 cf3a a0aa 913a
000001f0: b903 8aba bf4c 2b3c a91f 6db9 ab42 80b7
00000200: 0400 0080 0400 0000 ed40 7139 c344 5300
00000210: b3d1 c739 0400 0000 76ba 1fab ea74 bab6
00000220: 0400 0000 0400 0000 0400 0080 38a0 2c36
00000230: 0400 0000 2382 6439 745e 21a3 0400 0080
00000240: c3f5 b638 9103 85b4 00ee 0c2b 0400 0000
00000250: c603 f8b6 5807 37b8 0400 0080 0cd2 96b8
00000260: 0400 0080 6db7 2337 0400 0000 3364 bb2d
00000270: 4bfc cb11 cfba 4039 b876 1539 4515 3239
00000280: 8fe9 0b39 99c9 9d39 6f13 c93a 12de 7e38
00000290: 33a0 993a 4485 4fb9 a73b a939 7d69 5f3a
000002a0: e803 a43a beab 8c3a 95af bc39 66b2 233a
000002b0: ac3e 13ba a43d 7e3a 125d 2738 6ef8 fbb9
000002c0: 7b2e ce39 34a0 5f3a 25d0 c339 2e13 8839
000002d0: 8841 8339 b13f 1b3a e6f9 833a 5148 6c3a
000002e0: ab9b 06b9 18b4 143b 621b 223a 4981 2b39
000002f0: 8795 8739 7aab e3b7 fb66 1dba ad25 9438
00000300: 0738 5cba e9c2 51bb ddd1 94b8 f1ae 2139
00000310: d900 603b 7f9a 863a d0b4 7bb7 1a5f c439
00000320: 0224 2aba eb46 4b3a d224 eb3a 7142 c638
00000330: de52 8439 450e abba 8b6e 93b6 2d63 343c
00000340: 04c7 63bb b2df 0038 a9ac af39 d3d2 debb
00000350: bc4d 67bb 179b b0b8 24ba 35bb c33e c7b8
00000360: ab2c 523b 0573 24b9 3ef8 c9ba 33c8 abba
00000370: bd19 ddba 3762 153b 39e5 34bb 6748 73bb
00000380: 8cba 8cb8 53dd 1139 55c6 f1b5 2769 a5b7
00000390: 6ea5 a0bb 9ba3 44b9 6e85 8339 2cd1 37b9
000003a0: e8be 0bba f0f8 113b de0c 2d3a 2a7b 6bb8
000003b0: 4c14 7e3a eecf 1c3b c389 4ab9 9b64 28ba
000003c0: bb0b 88b8 f039 a43a ad07 8aba 1073 50b9
000003d0: 3a31 46ba f326 4238 6a45 cdb8 d28a 9a3b
000003e0: 7a09 8ab8 24d2 6f3a 4048 b0ba 509a dd38
000003f0: d971 16b5 802e 3ebc 5d44 593c 1fca d138
