save_model/autoencoder_model_64_32_16.pth (torch, 154614 bytes, 24 tensors)

encoder.0.weight f4 [64, 60]
00000000: 2f26 e23e e6dc 3ebd 5ae5 9dbc 5504 543e
00000010: 47c8 58bd 682a 0fbc f62b a43c b25a fb3d
00000020: e55f 0abb d05b fbbc bb01 c5bb 7358 b6bc
00000030: 48f7 34bd be5b 18be 51f2 ff3f 05e6 5bbe
00000040: 06c8 e8bc 2944 993d 90a3 8d3c a678 bebc
00000050: 8693 0cbd 3308 6b3d f85c 4a3d 9ab4 01bd
00000060: e314 293c 44ea b6be c3e3 853f f04f d6be
00000070: be42 043e 43a5 fabe 19c3 0a3e c024 c9be
00000080: a691 c63e 8bc1 ae3d 4634 ae3d be43 293e
00000090: 2ba0 b2bc e9a9 ab3e 260a 953f e280 633e
000000a0: 648d 073c 76ab 053f daca 8ebe 69e3 ed3e
000000b0: 961b 3cbe 4452 81be 21db 55be 51c9 d1bd
000000c0: f7b0 7440 e1a0 70bf 8f41 4a40 e7db 9c40
000000d0: ec72 bc3d a2ac d8be 51a7 313d 37fb 1dbf
000000e0: 29c8 59be ae3b b33d 214c d03d eb1b 9fbe
000000f0: 871e b93b 4f6e 50bf df2f cd3e b19a a43e
00000100: c392 9b3e 2625 42bf c862 203f cf11 da3e
00000110: ec6b 9b3e 76c5 b8be 33d5 99bf daf1 a33c
00000120: a032 81be fe76 2dbf 7905 493f 94e5 de3e
00000130: 8ab9 00be e1b7 0abf d185 09be 0e7f 043f
00000140: 1401 dcbe a33e c03e 6892 b43e 4753 7cbd
00000150: 1e34 f93e 4205 27bf 5247 713f 0d8e 713d
00000160: e646 83be 8742 e8bf 3476 b73d 3a66 d53c
00000170: 4f82 9abf aadc e6be 38d4 0cbe 6e04 95bd
00000180: 69f4 44bc 4c8d 0a40 1b23 d93f cbe5 0a40
00000190: 9396 943e 61e5 1cbf 5943 5fc0 f799 d1be
000001a0: 198b 1b3f c71c ab3f e2b1 ff3d b6d9 d93e
000001b0: 1e65 5e3d 744a 9bbf ae5d a33f 5b2e 353f
000001c0: 5b00 da3a e684 01bf 37fe 19bf 657f 2f3e
000001d0: e248 a43b 447b 463c 2350 95ba e26e b13b
000001e0: 7f8e 59ba 6d0a 0dbf a1d9 4b3f 73dd 043e
000001f0: 12cc 3abd ba22 c7bf 572d 8c3c fbb4 b63f
00000200: 2613 cb3d e0e4 793c e0a3 0f3c 0e28 723e
00000210: 030e 353b c964 ad3f aac6 8f3d d00c 6dbf
00000220: ab01 3abd 5186 f23e 6a32 f43e b4b9 ee3d
00000230: e644 653d 838c d9bc cc30 0a3c 6b4e 89bd
00000240: aeab 0d3f a4e6 173e 4ff7 b0bd 1733 27bf
00000250: e006 25bd 45fd 80bf c30c 53bf 6af4 d13e
00000260: d9f1 8c3b 5640 653d 43c3 483d aa25 413d
00000270: cadb cdbd e75a 703f a72d 343f 9429 2abf
00000280: c75b eb3d a99d 893f 67ae 2a3f 5d90 37bf
00000290: 4dce edbd 5a5b 5c3e 9351 423d bcdf 4c3d
000002a0: c93c 0d3d 0e25 06c0 783d 893e 7a22 1740
000002b0: 62c0 c33d 8b70 483f e89a 1e3f bc5f 2dbe
000002c0: d750 303d 84ca c13e d1e0 3cbe 15e5 d33d
000002d0: 1fb0 10bc 441d 25bf 9b4f 8b3c c4fe 0ebf
000002e0: aee2 fabd c2c7 f7bf 1f2f 60bf 9548 4e3f
000002f0: ffb0 f2be 4c42 543e 7e9c 3f3e aa6d 573e
00000300: c038 01bf a237 57bf 59f1 2a40 91b9 9f3f
00000310: d78b 09bd 7772 923f 3d9d 0d3f c31b 693d
00000320: 1252 c23e 7671 01bd b93b 69be 3584 58bd
00000330: 52a9 e23f 33cf 4440 ec29 883f 0a2e 123e
00000340: 87fc 863e 567f 0840 a91c b23f a00d 3ebf
00000350: 137e 3e3e 5fd6 9fbd 7452 38bd a233 2bbe
00000360: 33f4 24bd 2a87 453f 91e6 a43f cab7 cb3f
00000370: 69bf 2a3e 865f b23f 6285 78bf 746e bd3f
00000380: c38d cb3d 65c5 313a 6219 97be 3134 c5be
00000390: 6ebe 5aba 4d01 c9bf fcf9 113f 7250 cfbf
000003a0: 056f edbe b65e 393f e8fe 0f40 2f3c 343f
000003b0: 8944 a6bd bdcb 0e3c 5a9f 2a3e 03ee 82be
000003c0: def2 0d3b 35b9 9dbf 8358 043e d5ab 0740
000003d0: a7d3 0b3e 157a 133e 9d0c 0e3f 7636 503f
000003e0: 9151 6b3c 7f83 563c bdfd edbd c9eb c53d
000003f0: 28d8 623f c466 143f af31 2c3e ede9 84be
0.44169757 -0.046597384 -0.019274402 0.20704778 -0.052925374 -0.008738138 0.020040493 0.12273158
-0.0021114287 -0.030683428 -0.006012169 -0.022258973 -0.04418114 -0.14878747 1.9995824 -0.21474464
-0.028415691 0.07483704 0.017289907 -0.023250889 -0.034320377 0.057380866 0.04940507 -0.031666376
0.010319921 -0.35725605 1.0460132 -0.41857862 0.12916085 -0.4895421 0.13550986 -0.3928585
0.38782996 0.08533009 0.08506064 0.16529748 -0.02180489 0.3352807 1.1643722 0.22217134
0.008273456 0.52214754 -0.27889138 0.46462563 -0.18369898 -0.25258076 -0.20884372 -0.10243476
3.823301 -0.9399548 3.1602514 4.9018435 0.09201607 -0.42319208 0.043372456 -0.6171145
-0.21267761 0.08751617 0.101707704 -0.31075987 0.005649391 -0.8141832 0.40075585 0.3214927
0.30385408 -0.75837934 0.6265073 0.42591712 0.30355775 -0.3608815 -1.2018188 0.020012785
-0.25233936 -0.6775969 0.78523976 0.4353453 -0.12570778 -0.54186827 -0.13429953 0.5175637
-0.42969573 0.37547788 0.3526795 -0.061602857 0.48672575 -0.652424 0.9424945 0.05897336
-0.2564003 -1.8145303 0.08958092 0.026049722 -1.2071017 -0.45090228 -0.1375283 -0.072762355
-0.012021163 2.164874 1.6963838 2.1702754 0.2902113 -0.61287504 -3.4884856 -0.40937778
0.6075912 1.3368157 0.124851 0.42548913 0.05429565 -1.2132096 1.2762964 0.7077386
0.0016632186 -0.5059341 -0.60153526 0.17138441 0.005013571 0.01211435 -0.001139168 0.0054148296
-0.00082991266 -0.55094033 0.7962895 0.12975101 -0.045604773 -1.5557473 0.017111463 1.4273981
0.09915762 0.015252322 0.008767098 0.23648092 0.002762676 1.3546382 0.07020314 -0.92597675
-0.045411747 0.473681 0.47694713 0.11656514 0.05597391 -0.026556259 0.008434486 -0.0670441
0.5534009 0.14834076 -0.0864092 -0.6531233 -0.04028976 -1.0077292 -0.8244135 0.41006786
0.0043012914 0.05596956 0.04901434 0.04715506 -0.10051687 0.93888706 0.7038216 -0.66469693
0.114921145 1.0751239 0.66672367 -0.71704656 -0.116116144 0.21519223 0.047441076 0.050018057
0.034481797 -2.0960116 0.2680471 2.3614793 0.095581785 0.78296727 0.6195512 -0.16931051
0.043045845 0.3784982 -0.18445136 0.10346428 -0.008831053 -0.6449778 0.017005732 -0.5585749
-0.12250267 -1.9357836 -0.875719 0.805795 -0.47400662 0.20728415 0.18712041 0.21037927
-0.5047722 -0.84069264 2.6709807 1.2478505 -0.033580627 1.1441182 0.5531805 0.05691124
0.3795324 -0.031602345 -0.22776689 -0.052860457 1.7707922 3.0751464 1.0637794 0.14275375
0.26364538 2.132772 1.3914996 -0.7423954 0.18602781 -0.0780456 -0.04500051 -0.16718915
-0.04027195 0.7715937 1.2882863 1.5915463 0.1667458 1.3935401 -0.97078526 1.4799333
0.09939148 0.0006781428 -0.29511553 -0.3851638 -0.0008344416 -1.5703522 0.5702207 -1.6196425
-0.46373764 0.7241014 2.2499332 0.7040433 -0.08118541 0.008715567 0.1666235 -0.25572214
0.0021659653 -1.2322146 0.1292439 2.1198628 0.13654958 0.1440204 0.55487996 0.813331
0.014362709 0.013092875 -0.11620662 0.09664113 0.8861108 0.5796931 0.16815828 -0.2595972

encoder.0.bias f4 [64]
00000000: 8f01 8bc0 f25c a4c0 8c54 07bf ebb5 a6c0
00000010: 7e82 53bf 171c 5ec0 2a41 f2c0 96b3 a5c0
00000020: cd44 b7c0 2d7b c6c0 c312 a8c0 ac13 fdc0
00000030: a07e 00bf 2234 e8c0 532e b1c0 454d 14c1
00000040: 28cb 33c0 1d41 17c1 e35c c4c0 e479 c9bf
00000050: 4785 3cc0 e228 c9c0 a0cd d7c0 4d08 cfbf
00000060: 6b0d 95bf a36b c4c0 2162 c4c0 33a0 04c1
00000070: adc7 0cc1 fcce 69c0 167f 96bf b416 48c0
00000080: 76b3 c6be 8644 efbf 4f95 d1c0 1893 68c0
00000090: 3b32 8bc0 f991 1fc1 2282 81c0 a1ed e7c0
000000a0: 8607 a7c0 04f2 cdc0 4e74 0bbe 77fa 8ec0
000000b0: 6f73 8ec0 7ab7 83c0 f8c8 acc0 db99 04c1
000000c0: 2efb 28c0 6e91 a4c0 b4e2 1fbe bf92 76bf
000000d0: 359f 92c0 5839 933e 7355 d1c0 6989 09c1
000000e0: 00ec 97c0 2e75 bbc0 503b 75c0 6dc2 cdc0
000000f0: 5794 10c1 c79a 6cbf 6171 cdc0 2dcb f0c0
-4.3439403 -5.136346 -0.52863383 -5.209707 -0.8262099 -3.4704645 -7.5704546 -5.178172
-5.7271485 -6.202536 -5.2522902 -7.9086514 -0.50193214 -7.256364 -5.536905 -9.268865
-2.8092747 -9.453397 -6.1363387 -1.5740323 -2.9456346 -6.2862406 -6.7438507 -1.6174408
-1.164472 -6.1381392 -6.1369786 -8.289111 -8.798749 -3.6532583 -1.1757534 -3.1263857
-0.38808793 -1.8692787 -6.549476 -3.633978 -4.3498816 -9.973138 -4.0471354 -7.2477574
-5.2196684 -6.435793 -0.13618585 -4.4680743 -4.451591 -4.116147 -5.3995323 -8.287562
-2.6403308 -5.1427526 -0.15613824 -0.96317667 -4.5819345 0.28754687 -6.541681 -8.596047
-4.7475586 -5.858054 -3.8317451 -6.4299836 -9.036216 -0.9242367 -6.42009 -7.5248017

encoder.3.weight f4 [32, 64]
00000000: c5f2 06c2 dd0e cac1 8fe7 03c2 c0a2 28c2
00000010: 972e 163e c85c 23c2 55e9 92c1 fcb3 80c2
00000020: 0c94 8cc1 b7ab 02c2 57e5 82c1 58ff c0c1
00000030: 43c4 12c2 ecda 5ec1 d672 efc1 9767 22c2
00000040: ae6b 7d3c 08bd cbc0 6381 29be 8b49 08bd
00000050: 0b2a ffc1 6af9 1ec2 223a 33c2 d15f 2a3e
00000060: d690 03c2 b73c 7dc1 fe23 d3c1 cb53 5fc2
00000070: d97a 17c1 ee73 a2c2 ea7f 0ec2 be4d 133e
00000080: 5ce1 773d bfcd a5c1 99bc 3fc2 443f 8dc1
00000090: d48b 6fc1 8f44 d5bd 2005 2bc1 e1e2 9ec1
000000a0: b1b6 42c2 2c02 bac1 7188 dbc1 2b50 773e
000000b0: d5d5 30c1 58dc 85c1 4685 2cbd a90f 09c2
000000c0: 54d0 5fc2 db72 aac1 966d afc1 48cf a7c1
000000d0: 2be1 2abe bd2b 77c2 5fc6 b1c0 ac0a 7bc1
000000e0: fef4 06be bb52 bfc1 faf1 d1c1 1e4d 9ac0
000000f0: 89f9 17bd 3fee f4c1 7200 cebd 0f35 95be
00000100: a924 d0c1 4778 15c2 5bd2 f4c0 5cfd 05c2
00000110: 7268 88c0 54a2 f3bf bd4d 89c1 7733 99c1
00000120: 4648 23c1 2d8b e9c1 10f3 87c1 bb86 fcc0
00000130: f89f 71c1 a155 4cc1 d237 0bc0 f1fa 4ec1
00000140: 0e53 20c1 931b f0bf 9511 94c0 0777 e0c1
00000150: e06b 93c0 e355 c3c1 b676 dbc1 243c 07c2
00000160: e310 66c1 d657 5fc1 3dc7 93c1 d005 d5c1
00000170: 361c d7bf 1a0b 97c0 6de2 9cc1 333f 05c2
00000180: 5272 bebd d5ed 4bc0 99f4 abbf a45d cdc0
00000190: bfff 61c0 1cc0 e2c1 ecb6 2bc0 00a7 25c1
000001a0: 071b 02c2 d3f2 ebc1 7847 6ec1 adaa 73be
000001b0: f815 28c0 de58 8cc1 452b 2fc1 5c90 efc0
000001c0: c49d 98c1 8ca8 88c1 bc17 a4c1 4295 a5c1
000001d0: c77e 26bf f964 51c1 2bd3 82c1 ed18 2bc2
000001e0: 4923 43c1 8225 09bc 7a6a 82c1 f5ba 50c1
000001f0: 6d18 7ec0 7f1b 91c0 e30e e8c1 9209 eac1
00000200: 000a bdc2 e007 8ac2 482b d43d 471e 66c2
00000210: 4eac 86c2 ca2a 93c1 e404 49c2 f036 bec2
00000220: 142f 64c2 0cbd 51c2 6632 67c2 b81f 01c2
00000230: 1098 02bb 3245 01c2 ec25 1fc2 189c a3c1
00000240: 8374 0abf b761 26c1 6013 c6bc 7fe4 11bc
00000250: a3c3 a1c2 7ea2 f03d 5cb8 22c2 c00c 59bd
00000260: 91a4 8dc2 2d62 20c2 5525 7bc2 ee3b 81be
00000270: 6393 bec1 513f a6c2 6070 78c2 87de ccbc
00000280: cb77 8b3d 2fa5 8ac2 7705 b2c2 24ee 5eba
00000290: db58 3ec2 f8cf 173c 07c6 4eb9 77a2 8cc1
000002a0: 2a86 a6c2 560d 31be 2050 6fc2 8266 afbd
000002b0: 8657 d3c1 ef81 1ac2 e0a2 9abc 9651 75c2
000002c0: 886a 5ec2 34d7 58c2 65ff 79c2 2aee b7c2
000002d0: 8b40 9abb c422 733d f80f 9ac2 c5d2 22c1
000002e0: dc93 c7bc eccf 923c 3102 cc3c 7013 3ec1
000002f0: d0d3 46bd a4a4 8dc2 1a8a e53a 0349 b8ba
00000300: 4050 a1c1 5ec4 98c1 0508 cbc1 ea0c 4cc2
00000310: ac54 a6c1 f1b2 8fc0 985a 4bc2 8b44 c1c1
00000320: 0860 05c1 f149 08c1 e023 4dc1 b104 a9c1
00000330: 9728 ed3e 100c aac1 4bf5 7ac2 577f 4dc0
00000340: c899 27c2 7ac3 59c0 391c 1bc2 bf2b 0abd
00000350: 779e b8c1 2749 9bbe 1836 5fc2 bb91 453e
00000360: eb7f c3c1 1f0e 23c1 f142 77c2 ea90 9cc1
00000370: ade5 edc0 c749 a0c1 de03 31c2 1328 5b3e
00000380: 5850 ebbe 9e05 60c1 09d8 66c1 76dc 21bd
00000390: 6ee9 68c1 87e8 a0c0 6029 33c2 1b2b 1ac2
000003a0: de1d 8dc1 3af6 0dc2 81c3 46c1 48b2 233e
000003b0: 1042 aac0 b07c 0dc1 5a63 96bd 57f4 19c1
000003c0: 8609 37c1 17aa dcc0 0a24 90c1 dc07 85c1
000003d0: 0714 d3bd 4796 17bf e95c 90bf dc64 8ec0
000003e0: 46d0 003f 198f 0bbe 2a87 8abf bcc9 51c0
000003f0: f344 b9bd d00c 96c1 38e8 5dbf 86d6 bbbd
-33.73708 -25.257257 -32.97613 -42.158936 0.1466621 -40.840607 -18.363932 -64.35153
-17.572289 -32.66769 -16.361982 -24.12468 -36.69166 -13.928448 -29.931072 -40.601162
0.015467567 -6.366825 -0.16553263 -0.03327326 -31.895529 -39.74357 -44.80677 0.16638114
-32.89144 -15.827323 -26.392574 -55.83183 -9.467492 -81.226425 -35.624916 0.14385125
0.060517654 -20.725462 -47.934177 -17.655891 -14.971638 -0.10413467 -10.688751 -19.86078
-48.67841 -23.25106 -27.441622 0.24151675 -11.052205 -16.73259 -0.042119287 -34.265293
-55.953445 -21.306082 -21.928509 -20.976212 -0.16687457 -61.792713 -5.555465 -15.690105
-0.13179395 -23.915396 -26.243153 -4.8219137 -0.03710321 -30.616331 -0.10058679 -0.29142043
-26.0179 -37.36746 -7.650678 -33.49742 -4.2627497 -1.9033914 -17.162958 -19.15013
-10.205145 -29.192957 -16.993683 -7.8914466 -15.101555 -12.7709055 -2.175282 -12.936265
-10.020277 -1.8758415 -4.6271462 -28.058119 -4.6069183 -24.416937 -27.432964 -33.80873
-14.379123 -13.958944 -18.472284 -26.627838 -1.6805484 -4.720105 -19.61056 -33.311718
-0.092991486 -3.186391 -1.343402 -6.4176807 -3.5312345 -28.343803 -2.6830397 -10.3532715
-32.526394 -29.493567 -14.892448 -0.23795576 -2.6263409 -17.543392 -10.948064 -7.486372
-19.077034 -17.082298 -20.51159 -20.69788 -0.65037197 -13.087152 -16.35311 -42.77434
-12.196115 -0.008370759 -16.30199 -13.045644 -3.9702408 -4.5346065 -29.007269 -29.254673
-94.51953 -69.01538 0.10359818 -57.529568 -67.33653 -18.395893 -50.254776 -95.1073
-57.045975 -52.434616 -57.799217 -32.280975 -0.0019927062 -32.317574 -39.787033 -20.451218
-0.5408403 -10.398856 -0.02417916 -0.008904575 -80.8821 0.11749743 -40.68004 -0.052990675
-70.82142 -40.095875 -62.786457 -0.25241035 -23.821966 -83.123665 -62.10974 -0.025008453
0.06809958 -69.322624 -89.01067 -0.00085041136 -47.586773 0.009265892 -0.00019719462 -17.579329
-83.26204 -0.17290244 -59.828247 -0.08564474 -26.417736 -38.62689 -0.018876493 -61.329674
-55.604034 -54.21016 -62.49941 -91.965164 -0.004707401 0.059359327 -77.03119 -10.176457
-0.024362497 0.01792141 0.024903389 -11.8797455 -0.048541844 -70.82156 0.0017512471 -0.0014059845
-20.164185 -19.095882 -25.378916 -51.01261 -20.791344 -4.4905934 -50.83847 -24.158468
-8.335945 -8.518052 -12.821259 -21.12729 0.4632003 -21.25589 -62.739544 -3.2108972
-41.900177 -3.402556 -38.77756 -0.033733126 -23.077375 -0.30329248 -55.802826 0.19293873
-24.43746 -10.190948 -61.815372 -19.570759 -7.4342866 -20.036024 -44.253777 0.21402006
-0.45959735 -14.001371 -14.427743 -0.03951689 -14.55699 -5.0283847 -44.790405 -38.542095
-17.639584 -35.490456 -12.42273 0.15985978 -5.3205643 -8.842941 -0.073431686 -9.622153
-11.439825 -6.895763 -18.017597 -16.628838 -0.10306554 -0.5921368 -1.1278354 -4.449812
0.503178 -0.13628806 -1.0822499 -3.277938 -0.09046354 -18.756256 -0.8668246 -0.091717765

encoder.3.bias f4 [32]
00000000: 7b99 8d40 48f9 bd3f 0cdf c740 284c 8940
00000010: 73ea 313f 64d5 0c3f 795f 593f 3bf6 503f
00000020: 7253 9a40 2173 8a40 ddc4 8d40 8a2e f93f
00000030: 082a 5840 6ee0 2f3f eed5 3640 96c8 1240
00000040: 263b 943f e734 733d 04f2 7240 01fa 9b40
00000050: 7adc 3240 406b 35bf 2bf3 4a40 3b5b 943f
00000060: 374b db3f 44af 9f40 065b 5c40 9f75 8940
00000070: 7bc2 d9bf dff3 cf40 a42a 1640 c7b9 c5be
4.4249854 1.48417 6.2459774 4.2905464 0.69498366 0.5501311 0.84911305 0.8162572
4.822686 4.326554 4.430281 1.9467328 3.3775654 0.6870183 2.8568072 2.2934928
1.1580551 0.059376623 3.7960215 4.874268 2.7947068 -0.70866776 3.1710918 1.1590341
1.7132329 4.9901447 3.4430556 4.295608 -1.7012476 6.4985194 2.3463526 -0.386183

decoder.0.weight f4 [64, 32]
00000000: 8217 853f 7bb1 b2be 318e ebbf d25a 4b3f
00000010: 8856 69bf 49ce debf 828b 323d 306d a6bf
00000020: b673 173f ab59 3b3e 6ec8 6140 c247 a63e
00000030: 5931 c93d 6a9f 4a3c 41e7 0dbf 3214 f1bf
00000040: b191 f73d 7d1f 1b3d e55e 113e 5fe6 a13e
00000050: ecba 1b3e 2f4e 41bf 1adb 9dc0 b960 ee3e
00000060: 212d 2e3f 58ae a2bd 9744 c7be 028c 22be
00000070: d3e1 923f 6221 be3d 2dd0 2340 38f4 acc1
00000080: bbda 1b40 3769 4b3f 4001 123f 3235 94be
00000090: cd91 0d3f 6740 893e 9364 3d3e c2a3 723f
000000a0: 033e 16bb 4cf0 e5be 5248 01c0 4664 003d
000000b0: 6108 86bd 9fe0 65be 3970 9c3f fddb 5fbf
000000c0: c774 9abd 3bfa bf3f 389e 8a3e 0578 933c
000000d0: 2069 813c d31d 413c 45ab fc3f 6ccb 09c0
000000e0: 82fb 8e3f 4146 0f3f 0504 8e3f 3eba e33c
000000f0: 0fd3 b83e 83f3 8f3c a676 d5be 6f9c 383f
00000100: 5749 02bd d3ec 993e 5829 1bbd d83a 213e
00000110: 18eb 4fbf eb7e 27bf 77d3 04bd 27e4 d6bf
00000120: c23f 383f 034b aa3f e2c1 c13f d74d b03e
00000130: dfec 61be df71 38be e5e5 423f 09e9 03c0
00000140: 0953 9fbe bf1f 363e 8799 923f 2ef7 49bf
00000150: 7908 bd3d 95cd a43f 6b42 05bf b576 523e
00000160: ae88 cdbf e75a 93be 1863 a13e 497a 25be
00000170: a5b4 dabe a2d4 1a3f 49dd 4abf 3beb a8be
00000180: 1dfc 35be 70fa 883e 8ed6 f93c 4efb 27be
00000190: fad2 e53d 1000 0bbe 9f81 40bb 7014 babe
000001a0: 8f01 643c 4b75 933d b0b6 073e e667 c23d
000001b0: c926 8ebc 393b d9ba d4e7 d93e ff89 34bf
000001c0: 8a09 38bd 6a47 90bf b003 fe3d 80ab 3dbd
000001d0: 1b3d 83bc 2717 0fbe 19b0 033f 536a 22be
000001e0: 7723 1fbf 2dd8 3f3e 1288 b53f 5ee8 1ebd
000001f0: ec60 1ebd 1fc4 7cbd f045 1bbf 01bc c63e
00000200: ad80 113f 9080 843f 5e94 ca3f 26d7 a23e
00000210: 14cb e5be 62bd b4be 4665 96bc 4321 6abf
00000220: 6de5 b23e 1fc8 203e db4f 2dc0 90b4 ed3e
00000230: 5f2a ed3e 2aa8 433f 8a11 ba3f 8794 0c40
00000240: 78bb a53f 9e4d 733e d2bc 0abe f129 7abe
00000250: c301 05be 5312 4bbe e5d0 3340 85c3 76bf
00000260: 103f 82be 076d d33e 2bf9 ebbe 1c41 a83e
00000270: 6628 f4be 3211 e73e 6398 0ec0 0a46 4640
00000280: 6eb2 3e3f f57b 1dbe 1946 a7be dbc5 b73e
00000290: 25b8 50bf 2864 8bbf 911f 203e 186b a4be
000002a0: c742 243e 2e07 193f 7b1b 193f 3f1c 423e
000002b0: ceae b8bd deeb 24be 9d72 0e3e a584 41bf
000002c0: 958f 013e fd0a 693e 4603 883e f28f 11bf
000002d0: 0dfc 3dbe 5c4d df3e 8417 86be e581 b9bc
000002e0: 585b c0bf b43a 25bd 66b2 b63e 9d17 a8be
000002f0: a414 0f3e 356a 003f 1120 87be d6b7 423f
00000300: 2b66 e43d 7260 14bf d381 ae3e 606f a53e
00000310: d0fe 07bd 585d f23e 84d2 f23e 1765 5cbf
00000320: 91c0 17bb 13fd a33e ebb5 c13f 1842 103e
00000330: 7050 0f3b 5c0c 113f b941 d83f af69 b63f
00000340: adf0 b6bd 024a 5cbe 047c 3b3e 9c45 16bd
00000350: 7a7d 1f3c ce14 d8be 76cf 40c0 3475 dbb9
00000360: f80c c0bf 336f bfbe 2e08 b23e c1a3 083d
00000370: 7b6d 2d3f 1bbe b5bc cdfc 203d c7b3 fc3f
00000380: 8394 b73e f651 16be 7eb0 383f 09fd 033e
00000390: 07db 7a3e b114 0f3e 1d6a b13b 6ae8 fbbf
000003a0: 8be5 c6bc 18c7 96be 66fa e1bf 861b 453f
000003b0: c7dc 353c 6761 643d 0903 af3f 2881 f53f
000003c0: 7c87 e53f 10d0 493c cee9 05bd ff88 773f
000003d0: 3a0a 48bc 8882 923f 80d0 963f 7724 0bbe
000003e0: 2d05 6ebf f33f 503f c694 ad3c 604e c9bd
000003f0: 3cb7 61be aa24 413d be2e f1bf 3bb6 5e40
1.0397799 -0.34901032 -1.8402768 0.79435456 -0.9114766 -1.7406703 0.043590076 -1.3002071
0.59160936 0.18295924 3.5278583 0.32476622 0.098238654 0.012367109 -0.5543099 -1.8834288
0.12088335 0.037871826 0.14196356 0.31621072 0.15208024 -0.75509924 -4.932996 0.4655817
0.6803761 -0.0794341 -0.38919517 -0.15873721 1.1475166 0.09283711 2.559581 -21.619247
2.4352252 0.7945742 0.5703316 -0.28946835 0.553006 0.26806948 0.18495397 0.94781125
-0.0022925145 -0.44909894 -2.020039 0.03134563 -0.06544567 -0.22448967 1.2221748 -0.8744505
-0.07541805 1.4998239 0.27073836 0.018001566 0.015797198 0.011786896 1.9739767 -2.153041
1.1170504 0.55966574 1.1094977 0.027798768 0.36098525 0.01757217 -0.41692084 0.721137
-0.031808224 0.30063495 -0.037881225 0.15745103 -0.812181 -0.65428036 -0.03242823 -1.6788377
0.71972287 1.3304142 1.5137293 0.34434387 -0.22063015 -0.18012188 0.7613204 -2.0610983
-0.31118038 0.17785548 1.1453103 -0.7889279 0.09230132 1.2875239 -0.5205447 0.20553096
-1.6057336 -0.2878029 0.31520915 -0.1615993 -0.42715946 0.604807 -0.79243904 -0.32991967
-0.17771955 0.2675357 0.030497815 -0.16404459 0.11221881 -0.13574243 -0.0029374135 -0.36343718
0.013916387 0.07200106 0.13253284 0.09492473 -0.017352479 -0.0016573436 0.42559683 -0.70523065
-0.044930972 -1.1271794 0.12403047 -0.046306133 -0.016020348 -0.13973676 0.5144058 -0.15860872
-0.6216349 0.18734808 1.418215 -0.03879582 -0.03866665 -0.061710473 -0.6065359 0.3881531
0.5683697 1.0351734 1.5826528 0.3180477 -0.448815 -0.35300738 -0.018358838 -0.91457003
0.34940663 0.1570134 -2.707999 0.4642682 0.4632139 0.76428473 1.4536602 2.1965654
1.2947836 0.23760077 -0.13548592 -0.24430062 -0.12988953 -0.19831209 2.809625 -0.9639209
-0.25438738 0.4129412 -0.46088538 0.32862175 -0.47687072 0.45130306 -2.228051 3.0980248
0.7449101 -0.15379317 -0.32670668 0.3589314 -0.8153098 -1.088994 0.15637042 -0.32112956
0.16041099 0.5977658 0.59807557 0.18956088 -0.09017716 -0.16105601 0.13910909 -0.75593024
0.12652428 0.22758098 0.26564997 -0.5686027 -0.18553181 0.43613708 -0.26189816 -0.022644946
-1.5027876 -0.040339187 0.35682982 -0.32830516 0.13972718 0.5016206 -0.26391652 0.7606176
0.111522995 -0.57959664 0.34083423 0.32311535 -0.033201993 0.4733684 0.47426236 -0.8609175
-0.002315555 0.32029018 1.5133642 0.14087713 0.0021868013 0.56659484 1.6895057 1.4251002
-0.08932624 -0.21512607 0.18309027 -0.03668748 0.009734506 -0.42203373 -3.0126624 -0.00041858258
-1.5003958 -0.37389526 0.34771866 0.033359293 0.6774518 -0.022185376 0.03930359 1.9742364
0.35855493 -0.14679703 0.72144306 0.12889494 0.24497615 0.13972737 0.005414261 -1.9680302
-0.024279376 -0.2944877 -1.765454 0.7699512 0.011100001 0.055756953 1.3672801 1.918004
1.7931972 0.012317672 -0.032693677 0.96693414 -0.012209469 1.1446085 1.1782379 -0.13588129
-0.9297665 0.8134758 0.021189105 -0.09829402 -0.22042555 0.047154106 -1.884239 3.4798725

decoder.0.bias f4 [64]
00000000: 6a9c f43f ec6b b8bf c68c 8c3e 655d 73c0
00000010: 7d2b c43d b147 0240 80c2 8cbd d04a c1bf
00000020: 9248 e23f c878 20c0 c43d 2fbf b6ea f3bd
00000030: d48b ad3f d58a ad3f c094 1c40 a61e 1640
00000040: 4a17 523f aa33 f83f 638e a43e 62af 4f3c
00000050: 284c b6bf dc4f f23e 33b0 2a40 fa6a 20bf
00000060: cb1f 7fc0 f21c 19bf e651 4bbf aa82 4240
00000070: 9e6c 993f 84a5 ad3f 55ff 0cc0 a098 9d3f
00000080: 2b05 bb3e 9481 4240 94b2 10c0 5722 9b3f
00000090: 9365 463f 252c 0dc0 4daa 3140 8397 adbe
000000a0: 4cf1 4c40 1b1f 23bf faf7 553e 1b74 7740
000000b0: 471c b83f 0af9 39be 1959 1bbd cf2d 0bbf
000000c0: 2b15 1b40 dda2 cb3f ee7f 733f 8b90 2440
000000d0: 87d8 b33f dcec d6be 533d f43f 42fc 083f
000000e0: c0ad 1140 7121 0ac0 2b7c e63d acd6 e83e
000000f0: 11b2 26ba c077 7b3f c4dc 0440 2687 e03f
1.9110234 -1.4407935 0.27451152 -3.8025753 0.09578607 2.0356257 -0.068730354 -1.5100956
1.7678397 -2.507372 -0.6845362 -0.11910002 1.3558297 1.3557993 2.446579 2.3456206
0.82066786 1.9390767 0.32139882 0.012676092 -1.4241991 0.47326553 2.6670043 -0.62663233
-3.9863155 -0.5980979 -0.7942184 3.039225 1.1986272 1.3566136 -2.2030842 1.2312202
0.3652738 3.0391588 -2.2608995 1.2119855 0.7749874 -2.2058194 2.7760193 -0.33904657
3.2022276 -0.6371934 0.20895377 3.8664615 1.438363 -0.18161407 -0.037926767 -0.54366773
2.423167 1.5909077 0.9511708 2.5713222 1.4050454 -0.41977584 1.9081215 0.53509915
2.2762299 -2.158291 0.11254152 0.45476282 -0.00063589314 0.982296 2.0759745 1.7541244

decoder.2.weight f4 [60, 64]
00000000: 5dae 35bd 2a80 9bbc 592d 793c dde8 febb
00000010: c5f7 c9bd 1fa4 f03c 06c0 af3b 5803 3cbc
00000020: f726 8b3d 3775 6dbc 76fc 11bd 47c5 b1be
00000030: 74c2 573d 975f 2e3d 72f3 3540 752b 47bc
00000040: 40dc f6be 41df c0bc 57f0 da3e 432f 993d
00000050: 1347 1fbf ce8b 273e 8e38 6dbd c553 abbe
00000060: 309a c33c 1222 07bd bf3f 863e e751 183d
00000070: 5fe6 323f 1bf1 17bf 559a 8abd aedc ee3c
00000080: be7f 9d3b 2fa2 0b3d d0df e2bc dc9a 29bd
00000090: 3e70 80bd 99e7 023e 0da1 79bf 6938 333f
000000a0: 7c17 adbf c95b 743c 3ce5 833d 707f 03bd
000000b0: 9ccd a93d 6c6d 3cbf fd44 c8bc c3b5 8cbd
000000c0: 1d8c ebbb 4fff ce3d d236 f73b bc5e 683d
000000d0: 2b41 7fbe 10c4 73bb 3b3f e9bc eb92 9b3d
000000e0: 277a 6c3d 4b01 4bbd 4cba 9e3d 3582 0abe
000000f0: 0aca 76bd 3d5e 86bd 9bcc 0d3d dcd3 94be
00000100: b586 d8bd e097 3f3c 7636 c4bd e811 8abb
00000110: cc7a b83d 8f72 523d cc53 963c 9abd 07bf
00000120: bb17 8d3d aa8d febe 2f93 e0bc 3d3a 83bc
00000130: b5d0 5abc 1558 ce3c d835 193e 4ceb 9dbe
00000140: 8efd bdbe 4a69 d03c 2168 08bd bde9 b43e
00000150: f0e0 653e 871d 2f3d 3c29 f6bc 768a 3ebe
00000160: 1490 213c 9cac debe cf58 393e f2ed 09bc
00000170: 6a7f 773c 877c 98bc fa1a 74bd 0bbd 7a3c
00000180: 557f 32bd 888b f5bc 66e8 ce3e 9b9b f13d
00000190: a1fd cbbd f4c0 de3e cefb 0b3e fc38 26bd
000001a0: 4d08 d8bd 13a1 2bbd baae 54bd c672 b13e
000001b0: 6e3f 843c 1cb3 06be 94a4 2ebd c383 853e
000001c0: 0c39 193e 0392 20bc c5e9 17be b10e a6bd
000001d0: 2f03 d2be 9525 853e 5fb0 aabd 9832 523e
000001e0: c047 59be 24c3 163e 55e7 0f3c fb4e 013e
000001f0: d521 56bf dfda a23d 4491 cb3d 427f 90be
00000200: 8c43 903d 44b8 9c3b 5cfa a63e 1489 b5bb
00000210: e00b e83c af0f 81be 6af1 9a3b 67cd dbbd
00000220: 6781 443c e6ba 33c0 526d 843e 82af ce3e
00000230: bc74 283b 63bf 18bb 04d2 223d 901f 6bbe
00000240: 0f53 b5be ef8a d2ba 11a2 e93c 0246 903f
00000250: e129 d13e 3418 c3be 0ab1 2abc ecc1 1a3f
00000260: 9a6e 9539 c7b3 313e c421 073f d731 f1ba
00000270: 78c8 883a 5df7 613e fded 08bc fc51 58ba
00000280: ada1 85bc c7ee 35bb 167b 953d 56e1 7e3c
00000290: 992d c73e b631 94bf 80ca d7be f174 fdbe
000002a0: 2da3 e9bf 7a9a 5dbe fe3d f2bb 1bc9 0e3f
000002b0: 6cd4 f43b 85e4 41be e914 803e 1026 84bd
000002c0: 4e4e 023d 59ec ce3b 57dc b13e 6b17 78bc
000002d0: 015a e4be e09e 1fbf d2d1 31bc a1d0 2d3e
000002e0: ef8b d6bc 38d6 703e 8d6b dd3f ba28 883d
000002f0: f377 27be 859f 753c f95b c73c 48e0 08be
00000300: 3098 51bd 81af 0d3c ae0d 9abb d41a 3039
00000310: d67f 253d b42c 593c d1a8 bd3c 1c52 07bf
00000320: 71bc 873d 5a51 463e 8ffb bc3c 6bb9 c0bd
00000330: a97a d2bc d936 ea3c c4d8 103e 3598 18be
00000340: f527 243e 98a0 063d 6358 86bc 3881 a0bb
00000350: bb73 4f3e 1c19 253d 1782 edbc 40d3 88be
00000360: 2220 513c 3ed8 193c 984b 3e3e be5d 46bc
00000370: fac8 77bc e374 143e 2fed 7bbd 72a7 88bc
00000380: de42 1bbd 0ec8 eebc 5044 cb3e 4630 fa3d
00000390: 89b6 303d 3c76 db3c 05dc 8e3e 5495 18be
000003a0: ba53 8abd 2d69 86bd 203c 5fbd 4446 96bd
000003b0: 8f94 193c 5e42 8c3b 6b69 b73d 9fae ddbc
000003c0: 8004 153e 5644 87bc 3de2 95bd 5b87 a6bd
000003d0: 5c5f 9cbe f447 983d 0612 aebd 74a3 1a3e
000003e0: 5bcd 5bbe 145b 69bb 0457 24be a8d9 d83d
000003f0: 2334 55bf dd88 ab3d 9475 cd3d 7dbc 74be
-0.04435574 -0.018982012 0.015208566 -0.0077792243 -0.098617114 0.029375134 0.005363467 -0.011475407
0.06794541 -0.014493278 -0.035641156 -0.34720823 0.05267568 0.04257163 2.8429837 -0.012156357
-0.48214912 -0.023543956 0.4276149 0.074797176 -0.62217826 0.16361925 -0.057915263 -0.3346235
0.023877233 -0.032991476 0.2622051 0.037187483 0.6988277 -0.5935227 -0.06767718 0.029157963
0.004806488 0.034090217 -0.027694613 -0.04140745 -0.062714085 0.1278366 -0.9751137 0.7000795
-1.3522792 0.014914461 0.06440207 -0.032103956 0.0829117 -0.73604465 -0.024446959 -0.06870606
-0.0071883337 0.1010729 0.007544377 0.05673097 -0.24927203 -0.003719572 -0.028472533 0.07596382
0.05773368 -0.04956178 0.07750377 -0.13526233 -0.060251273 -0.06560943 0.034618955 -0.29067886
-0.10572568 0.011693925 -0.095807 -0.0042135604 0.09007797 0.051378783 0.018350504 -0.53023684
0.06889292 -0.49717456 -0.027413933 -0.016018981 -0.013355424 0.025188485 0.14961946 -0.3084358
-0.3710751 0.02544083 -0.03330243 0.35334578 0.22449088 0.04275277 -0.030048959 -0.18607506
0.009861011 -0.43491066 0.18100284 -0.008418547 0.0151060615 -0.018614067 -0.05959604 0.01530386
-0.043578465 -0.02997376 0.4041168 0.117972575 -0.09960485 0.43506587 0.13670275 -0.04058169
-0.10548458 -0.04190166 -0.051924445 0.34657878 0.016143527 -0.13154262 -0.042637423 0.2607709
0.14963168 -0.009800437 -0.1483527 -0.08108271 -0.41018054 0.26005235 -0.08334421 0.20527112
-0.21218777 0.14722878 0.008783181 0.12627785 -0.83645374 0.079519026 0.099398166 -0.2822209
0.070441335 0.0047827084 0.32612884 -0.0055400226 0.028325975 -0.25207278 0.004728486 -0.10732537
0.011993743 -2.8082824 0.25864655 0.40368277 0.0025704345 -0.0023307435 0.039751068 -0.22961259
-0.3541493 -0.0016063134 0.028519662 1.1271365 0.40852264 -0.38104403 -0.010418186 0.6045215
0.000285019 0.17353736 0.527859 -0.0018401694 0.0010435721 0.22067018 -0.008357522 -0.0008251963
-0.016312445 -0.002776073 0.072988674 0.015556654 0.38901976 -1.157767 -0.42146683 -0.49503282
-1.8252922 -0.2164096 -0.007392644 0.5577561 0.0074716117 -0.1893483 0.25015953 -0.06452572
0.03181296 0.006314796 0.34738418 -0.015142302 -0.44599918 -0.623518 -0.010853248 0.16974117
-0.026189772 0.23519218 1.7298447 0.06648393 -0.16354351 0.014991646 0.024335848 -0.13366807
-0.051170528 0.0086478 -0.004701338 0.00016794662 0.040405117 0.013255287 0.023151787 -0.52859664
0.06627739 0.1936697 0.023069171 -0.09410366 -0.025693255 0.028590607 0.1414519 -0.14901812
0.16030867 0.032867998 -0.016399568 -0.0048982166 0.20258991 0.04030715 -0.028992696 -0.2672367
0.012764009 0.009389935 0.18583524 -0.012107311 -0.0151236 0.14497714 -0.061505493 -0.016681407
-0.037905566 -0.029148128 0.39700556 0.12216239 0.04314283 0.026789777 0.27902237 -0.14900714
-0.06754251 -0.065630294 -0.0545007 -0.07337621 0.009373798 0.0042803725 0.08955654 -0.027060805
0.14552498 -0.016512077 -0.07318542 -0.08131286 -0.30541503 0.07435599 -0.084995314 0.15101415
-0.21465056 -0.0035607265 -0.16048819 0.1058839 -0.8328268 0.08375714 0.10032192 -0.23900028

decoder.2.bias f4 [60]
00000000: 3264 17bf 46be 943f 0a19 1cc0 56f4 e73f
00000010: b4e0 253d 4dc6 43bf 0d31 3fbf 6214 b2be
00000020: 8724 0040 b165 a6bf 933a f4be 161f 87bf
00000030: 55f2 3fbf c3d0 1cbf 01c8 bfbe cf20 0e3e
00000040: 1907 923e 6736 823f 24a1 b2bf af99 be3f
00000050: 3c42 5240 5591 75bf d958 afbf 84b5 6b3f
00000060: 6f5c 21bf a1d5 c33e 9591 4e3f 8163 4f3f
00000070: 29dd c9bf 7ff6 4dbe 63c4 95be 9ee7 86be
00000080: dbe1 1e40 75c3 2bbf f032 7abf 2277 03bf
00000090: 17cc 913f 18ff 943f 135d a1bf a0f4 e83f
000000a0: 5151 5b3e 874b 913e 7ad4 cfbf 598f e53e
000000b0: 7644 1540 fd42 94bf 6266 98bf 5415 c7bf
000000c0: 0f50 b63f 5635 3cbf 5595 073e 1a50 2ebf
000000d0: 06ab 783e 8273 7d3f ed36 71be 6d5c 583f
000000e0: aea0 a13e ffca 14bf 7d58 9fbd 84ed 8cbf
-0.5913726 1.1620567 -2.4390283 1.812144 0.040497497 -0.7647446 -0.7468422 -0.34781176
2.0022295 -1.2999784 -0.4770094 -1.0556362 -0.74979144 -0.61256045 -0.37457278 0.13879703
0.2852104 1.0172852 -1.3955426 1.489065 3.2852926 -0.95924884 -1.3698989 0.92073846
-0.6303167 0.38248923 0.8069089 0.81011206 -1.5770618 -0.20113562 -0.29251394 -0.26348585
2.4825351 -0.6709512 -0.97733974 -0.5135366 1.1390408 1.1640348 -1.2606529 1.8199654
0.21417738 0.28377935 -1.6236718 0.44835928 2.3323035 -1.1582943 -1.1906245 -1.5553384
1.4243182 -0.73518884 0.1324056 -0.68090975 0.2428399 0.99004376 -0.23556109 0.8451603
0.315679 -0.5812225 -0.0778055 -1.1009984

exp_avg f4 [64, 60]
00000000: 54a8 8738 d3e7 17b9 28bf 1ab8 0f3f 14b9
00000010: e377 44b9 8d48 a038 597f 2338 4520 a038
00000020: b792 9bb6 7fd8 e338 d764 ca38 826b c438
00000030: 2665 b6b7 dd53 75b9 41b4 33b8 ced8 76b9
00000040: 9321 97b9 ca6e cdb6 7c07 5639 f5dc bdb7
00000050: 68ea 2238 3204 8438 739e 0439 0b87 b8b8
00000060: bf78 d737 9caa f337 d630 d436 3aba f337
00000070: c0b5 e6b8 cb8e 54b8 936b bb37 8325 53b8
00000080: d444 dc37 7ccc b4b8 e7a6 0b39 c630 8337
00000090: d628 a3b8 1e6c 3f39 da3d 1438 bd52 4039
000000a0: add8 c5b8 870a 94b9 942f df38 1501 92b9
000000b0: 9fbe ce36 86d2 4eb9 9fdf 3d39 72d3 a9b7
000000c0: cd9a 0bb7 2414 b336 c1e5 0136 dee4 ae36
000000d0: 8f49 44b8 a49e e0b8 6581 c638 5afb e6b8
000000e0: b8de 0ab7 d6db 3b38 02e1 c3b8 a51d a9b8
000000f0: a199 40b7 3aff 05b8 001b 33b6 a3d3 0eb8
00000100: a6c7 0b38 0921 13b7 4a8b 2238 583e 5fb7
00000110: ddea d137 daac 8db8 a49b 0639 5479 ec38
00000120: bad1 1837 96da d8b7 5319 8eb6 68b4 dab7
00000130: 9ce1 f0b7 b3fc b7b5 cf8b c237 c0d7 5ab6
00000140: c2ec 4b38 0751 0cb9 a707 3539 02cf fb38
00000150: 6023 77b6 0d79 bf36 cb66 ec35 2385 bc36
00000160: 9a5a 5b38 bf31 c1b7 dfb5 8a37 2f9a c4b7
00000170: 2c98 cc37 d024 be38 c301 bbb8 925e d8b7
00000180: 48dd cbb5 c0de aa36 a438 dd35 46d2 a736
00000190: ef18 7338 4e1a 98b7 870b 5237 8e9a 9ab7
000001a0: 8ceb c637 0bcc eb38 018a c6b8 1162 b9b7
000001b0: a71b 1fb7 dc2a 2339 3b85 fc37 c4f4 2339
000001c0: eedd c8b7 fde0 25b9 8640 7337 1fc1 1fb9
000001d0: 57d6 c537 daf9 8538 007d d338 ddbd 8eb6
000001e0: cf3e 2d38 caaf 63b7 9b01 25b7 ee32 2fb7
000001f0: 29b3 1f38 2761 2138 31ae f0b7 2466 2e38
00000200: 93c8 5437 5489 e637 f8c3 c736 f773 5d38
00000210: 5636 21b6 4035 85b5 6e38 c2b7 e74d 09b5
00000220: 42ee 4038 e0a7 4c38 3e84 23b8 47aa 5038
00000230: 925c 23b6 8df6 cd37 86a5 9537 3ab1 5637
00000240: ba7b 8237 7543 93b6 6717 11b6 d149 94b6
00000250: 9d86 ba37 33b5 2038 1377 03b8 db16 2438
00000260: 9758 c433 cda6 d035 4c07 ea37 62d4 20b8
00000270: 95f8 7336 4bef 00b8 3f15 4b37 597f 03b8
00000280: 1453 0db8 d7be aab7 fa99 2b38 6063 bfb7
00000290: 6d2d 6f36 def4 d437 6472 c637 206a a3b8
000002a0: 4687 8cb7 b837 a3b7 cb8a 9cb8 9618 23b7
000002b0: bef5 1ab8 586d 50b8 f153 3638 32d1 15b8
000002c0: 30bb 5137 8c1c 0db6 824a 2238 d72d 4fb8
000002d0: e6d3 db36 a0e4 6d38 3795 e037 dd3e 6438
000002e0: a8b5 6237 9d3d 8d37 2576 81b8 0ccf 9d37
000002f0: 0473 7eb6 ba8c 0136 9850 06b7 87c4 bf36
00000300: 6fd8 d739 351f 0838 2877 9437 a8a9 0038
00000310: 61aa 2b39 8996 5439 42a0 60b9 4cd0 5b39
00000320: f79d 10b8 799d 94b6 1a60 07b9 f399 b838
00000330: 1325 d037 2724 4138 b774 ac37 73aa 3938
00000340: a36d 0d39 96a0 0a39 d716 28b9 cf82 1039
00000350: 5122 f0b7 a24a a0b8 23a4 55b8 4841 cf38
00000360: ae1b 1237 1fc7 d6b8 4c88 0cb7 f82c dcb8
00000370: 6386 c6b8 fa49 4037 33b1 a238 c7dd 4d36
00000380: 393b 89b6 0d1a 83b6 c441 a038 2751 c7b6
00000390: ed32 b735 53a3 1eb9 e2bf 93b7 e066 21b9
000003a0: 023e b7b8 dc82 7338 d627 9e38 c805 4938
000003b0: 8935 5635 542a 2a38 e29b 7f37 971d 95b7
000003c0: cef3 1334 0b01 4537 436a 0338 307f 1337
000003d0: 8373 4038 008d 42b7 8e96 cbb5 b54a 54b7
000003e0: 8026 69b7 fd13 6fb6 01ef 6537 d519 d3b7
000003f0: 4681 1fb8 1670 7e35 fcd5 d436 10ed 02b6
6.468655e-05 -0.00014486843 -3.689449e-05 -0.00014137871 -0.00018736678 7.642908e-05 3.898083e-05 7.635405e-05
-4.63644e-06 0.00010864529 9.6508935e-05 9.366033e-05 -2.1743192e-05 -0.00023396262 -4.28448e-05 -0.00023541154
-0.0002882598 -6.1223736e-06 0.00020411419 -2.2633447e-05 3.8842118e-05 6.295032e-05 0.00012647528 -8.7989574e-05
2.5686224e-05 2.9047304e-05 6.3237776e-06 2.9054576e-05 -0.00011001108 -5.0677725e-05 2.234223e-05 -5.0341256e-05
2.6258094e-05 -8.621157e-05 0.00013318249 1.5639129e-05 -7.780052e-05 0.00018255456 3.5343553e-05 0.0001834137
-9.434051e-05 -0.00028236603 0.00010642331 -0.00027848096 6.1614696e-06 -0.00019724117 0.0001810775 -2.0244832e-05
-8.321088e-06 5.3369604e-06 1.9356232e-06 5.2122477e-06 -4.679855e-05 -0.000107107015 9.465477e-05 -0.000110140725
-8.277297e-06 4.4789012e-05 -9.3402356e-05 -8.06407e-05 -1.1479861e-05 -3.194737e-05 -2.6688795e-06 -3.405254e-05
3.332612e-05 -8.769574e-06 3.8753533e-05 -1.3306351e-05 2.5024108e-05 -6.7556e-05 0.00012837216 0.00011275956
9.108737e-06 -2.5850994e-05 -4.234878e-06 -2.6071633e-05 -2.8715287e-05 -1.3708108e-06 2.3191706e-05 -3.2610114e-06
4.861947e-05 -0.00013381625 0.00017264356 0.00012007171 -3.682646e-06 5.7063357e-06 1.7613287e-06 5.6183358e-06
5.2298048e-05 -2.3030558e-05 1.6535572e-05 -2.3436818e-05 2.4389556e-05 9.066763e-05 -8.917183e-05 -2.5793244e-05
-1.518908e-06 5.0923263e-06 1.6482268e-06 5.001467e-06 5.7958936e-05 -1.8132061e-05 1.2519659e-05 -1.84302e-05
2.3713124e-05 0.00011243679 -9.467081e-05 -2.2099384e-05 -9.483577e-06 0.00015560858 3.0102781e-05 0.00015636074
-2.3945202e-05 -0.00015819441 1.4498952e-05 -0.00015235365 2.358404e-05 6.388473e-05 0.00010084547 -4.254033e-06
4.130491e-05 -1.3571183e-05 -9.83514e-06 -1.0442671e-05 3.807541e-05 3.847587e-05 -2.8691344e-05 4.157996e-05
1.26828845e-05 2.7482085e-05 5.953476e-06 5.2798507e-05 -2.4022497e-06 -9.92477e-07 -2.315288e-05 -5.114984e-07
4.5998262e-05 4.8793736e-05 -3.898539e-05 4.9749648e-05 -2.4342776e-06 2.4552714e-05 1.7839262e-05 1.2796658e-05
1.5554822e-05 -4.3887944e-06 -2.1620306e-06 -4.419337e-06 2.2235612e-05 3.8315728e-05 -3.134373e-05 3.9121933e-05
9.1430756e-08 1.5545753e-06 2.7898372e-05 -3.834477e-05 3.6354515e-06 -3.0740437e-05 1.210469e-05 -3.1351436e-05
-3.3694392e-05 -2.0354446e-05 4.091298e-05 -2.281525e-05 3.5640217e-06 2.5386395e-05 2.3656707e-05 -7.792213e-05
-1.6752292e-05 -1.945706e-05 -7.464512e-05 -9.7212815e-06 -3.6945326e-05 -4.96929e-05 4.3470358e-05 -3.5719197e-05
1.2500954e-05 -2.1027254e-06 3.86932e-05 -4.9395338e-05 6.551377e-06 5.6718127e-05 2.6772364e-05 5.4417982e-05
1.3512945e-05 1.68372e-05 -6.1732055e-05 1.8812272e-05 -3.7915897e-06 1.9304412e-06 -8.005787e-06 5.7151224e-06
0.0004116925 3.245399e-05 1.7698461e-05 3.0675583e-05 0.00016371302 0.00020273974 -0.00021422005 0.00020963064
-3.447939e-05 -4.429076e-06 -0.00012910404 8.802479e-05 2.4812796e-05 4.6048455e-05 2.0558347e-05 4.426618e-05
0.0001348765 0.00013220528 -0.00016030237 0.0001378164 -2.862621e-05 -7.643296e-05 -5.093602e-05 9.882689e-05
8.708723e-06 -0.000102414044 -8.376384e-06 -0.000104987936 -9.466407e-05 1.1461316e-05 7.757768e-05 3.0676472e-06
-4.0898126e-06 -3.907137e-06 7.641644e-05 -5.9401095e-06 1.3649384e-06 -0.00015128897 -1.7613118e-05 -0.0001539248
-8.73767e-05 5.8057587e-05 7.541447e-05 4.792752e-05 7.9799116e-07 4.057058e-05 1.5235479e-05 -1.7775963e-05
1.3779137e-07 1.1742358e-05 3.1331798e-05 8.791496e-06 4.5883946e-05 -1.159613e-05 -1.5168496e-06 -1.2653579e-05
-1.3896846e-05 -3.562541e-06 1.3705111e-05 -2.5165189e-05 -3.802895e-05 9.478548e-07 6.3430034e-06 -1.9509498e-06

exp_avg_sq f4 [64, 60]
00000000: cca8 8234 c99f 0c36 9ce5 8235 b623 0b36
00000010: fd28 e236 423c 4636 415c d036 80d9 5b36
00000020: 33ca 6d34 3d5d 2c36 7c91 f835 1ece a236
00000030: 60e7 ec34 a063 0a36 f91d 3a34 267a 0836
00000040: 2dd8 e636 8519 4836 8614 cd36 599d 5d36
00000050: 2bf0 4634 ed3c 9336 cd80 e335 1ee0 1f36
00000060: 56c1 6835 7eb0 0d36 81d0 2934 4902 0c36
00000070: 893d ec36 ccdf 4736 2318 c736 af59 5c36
00000080: ceb6 1734 2402 9236 f668 ed35 e314 c035
00000090: eaa0 8132 19bb fa35 5baf 3034 3745 f535
000000a0: 5db6 f036 854d 5836 0f0d c836 5039 6e36
000000b0: ceee 1834 7042 2b36 358e 0e36 a6b5 ba35
000000c0: 8096 0234 19e3 d935 cb6e 3534 f756 d235
000000d0: 0ef8 f236 a42d 6a36 76e0 c636 2e93 8036
000000e0: 7bdd 1534 7ed5 2436 70b2 2236 7024 b435
000000f0: a73e 9433 0795 bd36 3196 a533 6e74 c436
00000100: 4801 9535 97a0 4235 8dd1 d135 7c13 0035
00000110: 69cb 8032 f7c6 f635 9de3 8835 3ffc b835
00000120: 6c17 9633 d39c 5e35 873e 0c33 afee 6735
00000130: 2cd1 9835 2ccb a835 7882 b735 3390 b535
00000140: 322c 3a32 51af 2535 3a95 2736 ef4b aa34
00000150: c3c9 4f33 585e d935 a414 3634 569d d135
00000160: 0258 9635 aa25 b736 5651 a435 455b b836
00000170: dd21 4932 d80a c434 9bfd 8236 2d55 b435
00000180: 817b 4d32 cd24 da35 a6d3 3634 2870 d235
00000190: 956f 9635 418d b736 1880 a435 09bc b836
000001a0: c187 4a32 9afb c334 3e15 8336 c64a b635
000001b0: 86fd b733 87a8 c835 4285 2a34 b296 c135
000001c0: 5158 9635 2520 ab36 8b7d a335 ee9a ac36
000001d0: 5557 4532 1f28 ba34 0165 7636 b140 b435
000001e0: 679b 9832 a3ec 4033 8569 7032 9697 4633
000001f0: 20f1 1b33 3cf3 8032 b16d 3633 5207 8832
00000200: 7742 0c33 da03 dc32 114c 3533 5131 3933
00000210: c179 b731 6d40 c932 06c9 5f32 9628 c632
00000220: fc03 1933 d3bc 2233 52bd 3333 25b6 3033
00000230: de7d 9430 11e1 d132 2c34 9a33 2ab5 1e33
00000240: 9930 a132 1a0f e932 c8e7 c232 b8c4 dc32
00000250: 1e70 0c33 5232 7233 953f 3233 4a09 8033
00000260: 37bb bc30 f65a 0133 dd17 bd33 a7a2 b133
00000270: e6db c82f ef54 6a33 aa53 2532 1309 7a33
00000280: d34f 0633 6ece c232 8fdf 5a33 c019 c932
00000290: 8217 7e30 dcbc 4334 e375 cc32 5881 ad33
000002a0: a51c 2732 0276 2234 88f8 0434 9108 2a34
000002b0: a8b0 1b33 b5d2 3333 2389 8a33 1a19 1833
000002c0: 8e83 e031 cbe4 a434 29ca eb32 ed70 8d34
000002d0: 2b64 2833 d7d4 fa33 cd88 3132 dfb9 f533
000002e0: 8229 3b34 2773 9134 3a96 5034 8419 9634
000002f0: ad41 1032 8dca 5f34 6990 5634 43c3 9833
00000300: af99 6936 1d8e ea33 5c14 3032 a54d e433
00000310: 097a 9534 8fbb 4534 ab3e da34 2aab 5e34
00000320: 264a 3632 909b 3e34 3167 dc33 c47e ba33
00000330: b132 2833 031e f133 38d2 3b32 3283 ea33
00000340: fb7e 9834 edc0 5634 7eee d534 27f4 6e34
00000350: c647 3432 08cb 3734 f349 0434 c37b bc33
00000360: 175f 2b33 bce1 a834 5923 aa31 36fc ae34
00000370: 8a55 2134 72c6 7033 3049 c133 0029 3633
00000380: 8e43 bc31 7385 fa33 0ab6 7134 2937 f533
00000390: 0454 1633 5e0a b434 f005 9a31 75c2 ba34
000003a0: af7c 1d34 81d2 4b33 ccca c433 e8af 0a33
000003b0: 12cc be31 a305 0134 cbf5 6234 4fb7 f833
000003c0: 6aae a032 1fb9 4d34 b390 3d33 0d20 5534
000003d0: bbbb 1833 deaa 0733 34fd 7f33 3ce1 ca32
000003e0: 9f59 8831 88e7 aa33 17e8 a232 8a84 8933
000003f0: 7a7c 5132 8b24 cf32 35a9 b931 aa62 d232
2.4337203e-07 2.0954633e-06 9.75258e-07 2.07334e-06 6.7400965e-06 2.9539374e-06 6.209623e-06 3.2760145e-06
2.2145905e-07 2.568427e-06 1.8519781e-06 4.8519714e-06 4.4126773e-07 2.0621592e-06 1.7333504e-07 2.033668e-06
6.8797003e-06 2.9817177e-06 6.1118653e-06 3.3023155e-06 1.852756e-07 4.388034e-06 1.6950304e-06 2.38233e-06
8.6708076e-07 2.111337e-06 1.5815205e-07 2.0862956e-06 7.0405117e-06 2.9783578e-06 5.933472e-06 3.2834757e-06
1.4129475e-07 4.3513883e-06 1.7688424e-06 1.4311194e-06 1.5090752e-08 1.8680904e-06 1.6455071e-07 1.8274067e-06
7.1737873e-06 3.223163e-06 5.9619847e-06 3.5498124e-06 1.424298e-07 2.5519657e-06 2.1242424e-06 1.3910947e-06
1.2161945e-07 1.6233854e-06 1.6897245e-07 1.5671529e-06 7.2410394e-06 3.4895284e-06 5.9269905e-06 3.8318312e-06
1.395728e-07 2.4562173e-06 2.4243745e-06 1.342165e-06 6.9031834e-08 5.649988e-06 7.710731e-08 5.8548094e-06
1.1101738e-06 7.250432e-07 1.5632701e-06 4.771207e-07 1.4993661e-08 1.8386335e-06 1.0199034e-06 1.3782482e-06
6.98918e-08 8.2929654e-07 3.265316e-08 8.6401536e-07 1.138576e-06 1.2576106e-06 1.3672534e-06 1.3527518e-06
1.0836674e-08 6.172241e-07 2.49718e-06 3.1720216e-07 4.8379444e-08 1.6195218e-06 1.695758e-07 1.5617504e-06
1.1201485e-06 5.4582097e-06 1.2242624e-06 5.4942525e-06 1.17074395e-08 3.6515735e-07 3.9038255e-06 1.3435834e-06
1.1960652e-08 1.6252976e-06 1.7027068e-07 1.5678861e-06 1.1208346e-06 5.470269e-06 1.2256232e-06 5.5055175e-06
1.1788814e-08 3.6504645e-07 3.906577e-06 1.3581819e-06 8.567717e-08 1.4950209e-06 1.5880963e-07 1.4423479e-06
1.1201574e-06 5.0999392e-06 1.2180984e-06 5.1440356e-06 1.1486766e-08 3.4674392e-07 3.6715649e-06 1.3429873e-06
1.7765798e-08 4.4918703e-08 1.3993831e-08 4.6238334e-08 3.630805e-08 1.5011771e-08 4.247494e-08 1.5835813e-08
3.265674e-08 2.5613122e-08 4.221153e-08 4.3118522e-08 5.339843e-09 2.3428777e-08 1.3026016e-08 2.306869e-08
3.5626712e-08 3.78903e-08 4.184887e-08 4.1143853e-08 1.0804191e-09 2.443315e-08 7.180674e-08 3.695201e-08
1.8764966e-08 2.7131637e-08 2.2689974e-08 2.5700828e-08 3.269826e-08 5.6390782e-08 4.1501682e-08 5.962154e-08
1.373201e-09 3.011788e-08 8.805339e-08 8.271791e-08 3.6536035e-10 5.4559617e-08 9.623287e-09 5.8215914e-08
3.1271906e-08 2.2678446e-08 5.0960406e-08 2.341119e-08 9.243807e-10 1.8229497e-07 2.3802334e-08 8.079468e-08
9.727192e-09 1.5130357e-07 1.2383873e-07 1.58356e-07 3.6249418e-08 4.1868322e-08 6.451071e-08 3.5413088e-08
6.534214e-09 3.071385e-07 2.7449532e-08 2.634546e-07 3.920665e-08 1.16802475e-07 1.0333861e-08 1.1442511e-07
1.7430833e-07 2.709214e-07 1.9426162e-07 2.7958242e-07 8.396836e-09 2.0842181e-07 1.9982839e-07 7.1135695e-08
3.4809161e-06 1.09223244e-07 1.02491775e-08 1.0631201e-07 2.7842205e-07 1.8415288e-07 4.065126e-07 2.073763e-07
1.0610654e-08 1.7751722e-07 1.0263319e-07 8.6843585e-08 3.916165e-08 1.1227896e-07 1.0932631e-08 1.09203384e-07
2.8404597e-07 2.0000489e-07 3.9847868e-07 2.22543e-07 1.0493698e-08 1.7117065e-07 1.232036e-07 8.776944e-08
3.9900524e-08 3.1456682e-07 4.9516697e-09 3.2593533e-07 1.5025412e-07 5.605984e-08 9.0005756e-08 4.2412466e-08
5.4792e-09 1.16658065e-07 2.25111e-07 1.1418735e-07 3.500101e-08 3.3535156e-07 4.482665e-09 3.4786686e-07
1.4667124e-07 4.7456073e-08 9.16385e-08 3.2290615e-08 5.552928e-09 1.2016112e-07 2.1137309e-07 1.15817436e-07
1.8705766e-08 1.915946e-07 4.4136595e-08 1.9848831e-07 3.5560998e-08 3.158754e-08 5.96021e-08 2.361832e-08
3.9683097e-09 7.958357e-08 1.8964824e-08 6.403668e-08 1.2193704e-08 2.411459e-08 5.4034452e-09 2.4492085e-08

exp_avg f4 [64]
00000000: 283d 1637 717b e936 0d08 2536 eafd f738
00000010: 7501 8a36 aa46 6237 8623 2b37 0ab0 0cb5
00000020: 0890 9b37 cf15 2dba 46e1 b436 2520 2837
00000030: 0548 0539 6540 c5b7 a1ff 1db5 3488 8637
00000040: d463 a2b7 68b0 fbb7 5cab 4a38 ca74 3a37
00000050: b45f e637 0b92 83b6 bb6e cc37 05da 0cb8
00000060: a0ac 9e37 e04b 9d38 8546 0837 351a b037
00000070: 7ec9 68b7 3061 bc37 cf53 2fb7 1d6d db38
00000080: b146 f936 f318 15b8 0cd4 f0b8 230c e6b6
00000090: 6dad f9b7 5e6f c635 1bfd c2b3 fd47 3037
000000a0: fc08 4738 21ca 96b7 ee09 4b37 9815 35b7
000000b0: fbda c0b8 3403 0c37 d9f1 81b5 a1a3 c6b7
000000c0: 87e1 0837 dd3f 2ab7 a5ba 8bb7 b143 05b7
000000d0: fbfd 9cb9 218c efb6 d355 8b38 9be6 6339
000000e0: fe76 25b4 8af7 3537 cfdc ff36 e739 9838
000000f0: 04a9 db36 8b1c 4db8 413b ee37 ef63 a4b8
8.954936e-06 6.9583116e-06 2.4591602e-06 0.00011825173 4.11289e-06 1.34871025e-05 1.0200665e-05 -5.2410235e-07
1.854451e-05 -0.0006602676 5.3906433e-06 1.0021065e-05 0.00012710698 -2.3514216e-05 -5.8859047e-07 1.603747e-05
-1.9358391e-05 -3.0003677e-05 4.8320144e-05 1.1113656e-05 2.7462702e-05 -3.921106e-06 2.4370258e-05 -3.3581648e-05
1.8915453e-05 7.500476e-05 8.122651e-06 2.0993039e-05 -1.3875191e-05 2.2456603e-05 -1.0450326e-05 0.00010463058
7.429008e-06 -3.5547604e-05 -0.000114835886 -6.855947e-06 -2.976387e-05 1.4784562e-06 -9.0798686e-08 1.0507179e-05
4.7453665e-05 -1.7975517e-05 1.2102055e-05 -1.0793468e-05 -9.196062e-05 8.345396e-06 -9.681636e-07 -2.3679635e-05
8.158741e-06 -1.0147659e-05 -1.6657004e-05 -7.943178e-06 -0.0002994387 -7.139068e-06 6.6440225e-05 0.00021734314
-1.5410112e-07 1.0846075e-05 7.6252977e-06 7.25871e-05 6.5463846e-06 -4.890239e-05 2.8399403e-05 -7.8387435e-05

exp_avg_sq f4 [64]
00000000: 51fd 4936 a0a6 4b36 48a9 6e34 b2f6 4e34
00000010: 20e8 0734 cb7e 2034 dcbe 5335 6388 a234
00000020: 9507 6133 06a7 3b36 7301 6432 e09b ae31
00000030: c80c 4a36 294e d837 769b b431 6fb5 6933
00000040: c087 d836 8710 5032 86f8 2834 9b5f 1735
00000050: 1fd5 8e33 28aa f831 fc57 8938 239d a933
00000060: 4738 8234 0a3c 9f33 f457 2b33 2a60 7d32
00000070: 037e 2f32 d44f 9734 1ecd 5733 cc66 1b35
00000080: 2c89 bc33 e7a7 8a34 6c9e 2134 6ff7 af32
00000090: dc19 6733 77e1 9933 9cfb 2933 a6e1 a032
000000a0: 7179 b534 9964 9332 c49a e632 4e81 1c33
000000b0: 8b26 3934 7e0e cb32 277b 9532 d9a1 9432
000000c0: bd9b 2e34 dcf5 d832 5f84 a133 c880 6933
000000d0: 419f 0634 4147 8432 6eda 1e35 f0b1 3c33
000000e0: d646 8c32 9443 3132 35b8 3432 5401 8533
000000f0: 161f bb31 5ec5 8e32 2726 1433 9534 4333
3.0098784e-06 3.0346346e-06 2.2227061e-07 1.9274992e-07 1.2657301e-07 1.4947288e-07 7.888136e-07 3.0274086e-07
5.239379e-08 2.7962392e-06 1.3271676e-08 5.0817874e-09 3.0107785e-06 2.5785603e-05 5.2563633e-09 5.4414553e-08
6.453105e-06 1.2110951e-08 1.5736632e-07 5.639101e-07 6.651157e-08 7.2370945e-09 6.5490574e-05 7.898259e-08
2.4255334e-07 7.4149355e-08 3.9894033e-08 1.4748403e-08 1.0214992e-08 2.8184024e-07 5.024514e-08 5.789159e-07
8.7793836e-08 2.5826668e-07 1.5051927e-07 2.0485201e-08 5.3807398e-08 7.1656295e-08 3.9577216e-08 1.8729065e-08
3.3802237e-07 1.7158799e-08 2.6845903e-08 3.6439182e-08 1.724349e-07 2.36389e-08 1.7401886e-08 1.7303067e-08
1.626167e-07 2.5257513e-08 7.521225e-08 5.4366666e-08 1.2537659e-07 1.5399225e-08 5.9177444e-07 4.3933994e-08
1.6330358e-08 1.03181215e-08 1.0519263e-08 6.193537e-08 5.4459504e-09 1.6620728e-08 3.4493635e-08 4.54498e-08
