save_model/autoencoder_model_64_32_v1.pth (torch, 154206 bytes, 24 tensors)

encoder.0.weight f4 [64, 60]
0	0xbc86c260	-0.016450107
1	0xbd0d4433	-0.034488868
2	0x3cdf23c3	0.027238732
3	0x3d7a76c7	0.06114843
4	0xbda592b4	-0.08084622
5	0x3b2e8065	0.0026626822
6	0xbc8fbcc4	-0.017546065
7	0x3b0de5c8	0.0021651853
8	0x3d09854b	0.033574384
9	0x3d29c900	0.041451454
10	0xbc207661	-0.009793849
11	0x3a8e92bc	0.001087747
12	0xbce5628d	-0.028001094
13	0xbd937de8	-0.07201749
14	0x3dcdfb71	0.10057724
15	0xbd538ade	-0.051646106
16	0x3dbf4fbd	0.09341381
17	0x3c276411	0.010216729
18	0x3d1a1a6d	0.037622858
19	0xbcf8600e	-0.03031924
20	0xbdae1d0e	-0.085016355
21	0xbd2f67a5	-0.042823453
22	0xbdb41cf3	-0.08794584
23	0xbb235a3e	-0.0024925615
24	0xbc02f748	-0.007993527
25	0x3d30a9f6	0.043130837
26	0xbc9fb53d	-0.0194956
27	0x3bb5c658	0.005547326
28	0x3d87a733	0.066236876
29	0xbd87b954	-0.066271454
30	0x3cd54b01	0.026036741
31	0xbb10f322	-0.0022117575
32	0x3d3e3964	0.04644145
33	0xbcdc29e9	-0.026875453
34	0x3c886773	0.016650891
35	0xbce093bb	-0.027414193
36	0xbc05fd58	-0.008178078
37	0x3d44b5b2	0.04802484
38	0xbc19598c	-0.009359729
39	0xbb67ea97	-0.003538763
40	0xbc338530	-0.010957047
41	0x3cd21beb	0.025648078
42	0x3d531477	0.05153319
43	0x3d6d1bff	0.057888027
44	0x3cae4054	0.021270908
45	0xbd2f5073	-0.04280133
46	0xbc915686	-0.017741453
47	0xbcc4dd9c	-0.024031453
48	0x3c6ca1e5	0.014442896
49	0xbfade803	-1.3586429
50	0x3f813e9a	1.009723
51	0x408ff9e3	4.4992537
52	0x3e51ee09	0.2050096
53	0x3bc65c1a	0.00605346
54	0x3e4d0645	0.20021923
55	0xbe69fcb8	-0.22850311
56	0xbe89e128	-0.26929593
57	0x3da5f8d9	0.081041045
58	0xbe614483	-0.21998791
59	0xbeb713c4	-0.35757267
60	0xbde559ee	-0.11198793
61	0xbf6ea97d	-0.9322737
62	0x3f3130ca	0.6921507
63	0x3da09ac5	0.0784202
64	0xbdb69a83	-0.089161895
65	0xbe49ef30	-0.19720149
66	0x3e942574	0.28934824
67	0x3f142f6c	0.5788486
68	0x3e0b7747	0.1361972
69	0xbda1f0ed	-0.07907281
70	0xbe33d1d0	-0.17560506
71	0x3dbfa34d	0.09357319
72	0xbee91981	-0.4552727
73	0xbf157810	-0.58386326
74	0x3f850cc2	1.0394518
75	0x3f0e0223	0.5547201
76	0xbce8dc39	-0.028425323
77	0xbef886a7	-0.48540232
78	0xbf3e50d7	-0.743421
79	0x3f1d2562	0.61385167
80	0x3ecee09c	0.40405738
81	0xbf12ebca	-0.57391036
82	0x3f430ee2	0.76194584
83	0x3d871563	0.06595876
84	0xbd352514	-0.044224814
85	0xbe923b95	-0.28561082
86	0x3f2409b2	0.64077294
87	0x3ef91411	0.48648122
88	0xbe82a5a5	-0.25517002
89	0xc02c4df7	-2.6922586
90	0x402cd7d5	2.7006733
91	0xbf4910f8	-0.7854152
92	0x3e5b06b4	0.21389276
93	0xbe815a61	-0.25264266
94	0xbef9ff64	-0.4882766
95	0xbf2e6392	-0.6812068
96	0xbe769780	-0.2408123
97	0x3fa82184	1.3135228
98	0x3d4ac9ab	0.04950873
99	0x3fa50f78	1.2895346
100	0xbe9fa9e0	-0.31184292
101	0xbd960538	-0.07325214
102	0xbfc75776	-1.5573566
103	0x3d89148c	0.06693372
104	0xbfc2cb38	-1.5218267
105	0xbe91a6a1	-0.2844744
106	0x3e1fc1cd	0.15601273
107	0x3ed217bf	0.41033742
108	0xbd627701	-0.055289272
109	0xbf87b0b7	-1.0600804
110	0x3f69a93d	0.9127386
111	0x3f466aed	0.77506906
112	0xbd018a1d	-0.031625856
113	0xbf38724f	-0.7204942
114	0x3eb6fb0a	0.35738403
115	0xbdbdb9f1	-0.09263981
116	0xbe2a43ec	-0.16627473
117	0x3e7f8db6	0.24956402
118	0xbf932205	-1.1494757
119	0xbdf93f23	-0.121702455
120	0xbdbc73fc	-0.0920181
121	0x3fd5b1b1	1.6694852
122	0x3fb04110	1.3769855
123	0x3f1f64c9	0.6226316
124	0xbdc59986	-0.09648423
125	0xbed389a4	-0.4131595
126	0x3e8846d9	0.26616552
127	0x3f92fcb5	1.148337
128	0x3f80b326	1.0054672
129	0xbec99a11	-0.39375356
130	0x3f8fae2b	1.1225027
131	0x3e149a87	0.14512073
132	0xbddf7ce7	-0.10912495
133	0x3cb62d79	0.02223848
134	0x3f44b56b	0.7683932
135	0x3f9dd859	1.2331649
136	0x3fa133d8	1.2593946
137	0x3f16f9ed	0.58975106
138	0xbff01f47	-1.8759545
139	0x3fbcecba	1.4759743
140	0xbf46b41f	-0.7761859
141	0x3ee15a77	0.44014332
142	0x3dc79e0b	0.09746941
143	0xbf1ed5af	-0.62044805
144	0xbe44484b	-0.19168203
145	0xbe8f4afc	-0.27986896
146	0x3f0a478e	0.54015434
147	0x3f00002c	0.5000026
148	0xbe2cc460	-0.16871786
149	0x3ea98d5e	0.33115667
150	0x3f0c6f76	0.54857576
151	0xbe8879eb	-0.26655516
152	0xbf06ab53	-0.5260517
153	0x3ef30bfc	0.4747008
154	0xbeac7de0	-0.33689785
155	0x3f493995	0.7860349
156	0xbca8d721	-0.020610394
157	0x3f1ea8e8	0.6197648
158	0xbe45f3fa	-0.19331351
159	0xbf0e88df	-0.556776
160	0x3fda892c	1.7073112
161	0xbecf300c	-0.40466344
162	0x3f43768f	0.7635278
163	0xbfb903cb	-1.4454283
164	0xbdbdff19	-0.09277172
165	0xbd95c811	-0.0731355
166	0xbef34a5a	-0.47517663
167	0x3de4d942	0.11174251
168	0x3fb5a9fb	1.4192499
169	0xbf859876	-1.0437152
170	0x3da701c2	0.08154632
171	0xbe8138aa	-0.25238544
172	0xbf52a0af	-0.82276434
173	0xbee9c9cf	-0.4566178
174	0x3d0fbc77	0.035091843
175	0xbe590f62	-0.21197274
176	0xbec88d1b	-0.39170155
177	0x3ec6ca50	0.38826227
178	0xbe66bcac	-0.2253291
179	0x3b26cc73	0.002545145
180	0x3d09a380	0.03360319
181	0xbbdea1d7	-0.006794195
182	0x3d9f3fe5	0.07775859
183	0x3dbea07b	0.09307953
184	0x3ef3add5	0.4759356
185	0xc0368f04	-2.852479
186	0xbf084c63	-0.53241557
187	0xbe7caf4b	-0.24676244
188	0x3e7e2adc	0.24821037
189	0xbe8297cf	-0.25506446
190	0x3f4935e4	0.78597856
191	0x3df4bab8	0.11949676
192	0xbe895df7	-0.26829502
193	0x3e1ad1cc	0.15119094
194	0x401ceb27	2.4518526
195	0x401945d2	2.3948865
196	0x3fa7cc68	1.3109255
197	0x3f69819d	0.912134
198	0x3ea2fe69	0.31834725
199	0xbdef2849	-0.11677606
200	0x3ec5d801	0.3864136
201	0x3f6189ae	0.8810071
202	0xbf15d8e7	-0.5853409
203	0x39065706	0.00012811655
204	0xbec8e795	-0.39239183
205	0x3ff3d62a	1.9049733
206	0x3fcc8537	1.5978154
207	0xbf756f25	-0.9587272
208	0x3f8ce641	1.1007768
209	0x40386d0e	2.8816562
210	0x3f1f05ae	0.6211804
211	0xbc832cca	-0.016012568
212	0x3ea25abd	0.31709853
213	0x3d6d8cb0	0.0579955
214	0x3f5d4493	0.8643276
215	0xbf7fa6b7	-0.9986376
216	0xbfb3b088	-1.4038248
217	0x3f8ee9e5	1.1165129
218	0x3feb083f	1.8361892
219	0x3fec652f	1.8468379
220	0xbf1ddc88	-0.6166463
221	0xbd7d06b7	-0.061773982
222	0x3df15d8b	0.1178542
223	0xbd113756	-0.035453163
224	0x3f2f4837	0.68469566
225	0x3fafcd77	1.3734578
226	0xbf1b5efc	-0.6069181
227	0xbf08d93f	-0.5345649
228	0x3d0444fb	0.032292347
229	0x3f4a9b3f	0.79143137
230	0x3f4037e3	0.75085276
231	0x3f253b1c	0.6454332
232	0xbe7838e0	-0.24240446
233	0xbd1c7a79	-0.038202737
234	0xbeb5d41b	-0.35513386
235	0x3dcf8b73	0.1013402
236	0x3ddcec28	0.10787231
237	0x3f02fada	0.5116402
238	0xbd7d00f4	-0.061768487
239	0xbd716bc7	-0.058940675
240	0xbfc91852	-1.5710547
241	0xbde66df5	-0.112514414
242	0x3c6bc5e2	0.014390441
243	0x3e3edec8	0.18639672
244	0xbe4fabda	-0.202804
245	0x3ed44a70	0.4146304
246	0x3f0c3494	0.5476773
247	0x3f6be1fd	0.92141706
248	0xbd7c0c36	-0.061535083
249	0xbe2d5cac	-0.16929883
250	0xbc53a986	-0.0129188355
251	0xbf4ff539	-0.81233555
252	0x3f51092e	0.8165463
253	0xbfca438b	-1.5801862
254	0x3f4b8fe1	0.79516417
255	0xbf8ed92b	-1.1160024

encoder.0.bias f4 [64]
0	0x40048e14	2.0711718
1	0xc01e0fe0	-2.469719
2	0xc03424f9	-2.8147566
3	0xc05f8c51	-3.4929392
4	0xbfe39270	-1.7779064
5	0xc091f638	-4.561306
6	0xc04682f7	-3.1017435
7	0xc016d8e9	-2.3569891
8	0xc0719b5b	-3.7751071
9	0xc06aa7d5	-3.6664937
10	0xbfa7e99d	-1.3118168
11	0xbfc3aac2	-1.5286486
12	0xc0515526	-3.270822
13	0xc08bb80a	-4.3662157
14	0xc07aabaa	-3.9167275
15	0xc04407a6	-3.0629668
16	0xc00aa466	-2.166284
17	0xc0866212	-4.1994715
18	0xc0836502	-4.10608
19	0xc0002151	-2.0020335
20	0xbe9b57f2	-0.30340534
21	0xc0c32991	-6.098824
22	0xc08d3118	-4.412243
23	0xbfe28ba3	-1.7698864
24	0xc0113e25	-2.269418
25	0xc01af229	-2.4210303
26	0xc0443196	-3.0655265
27	0xc02a6e4d	-2.6629822
28	0xc00fdc6d	-2.2478287
29	0xbf62495c	-0.8839319
30	0xc096a9ed	-4.708243
31	0xbfb81850	-1.438242
32	0xbf5e224d	-0.8677109
33	0xbeaba4b9	-0.3352411
34	0xbfb45365	-1.408795
35	0xbff4a40f	-1.9112567
36	0xc032e418	-2.7951717
37	0xc0bc7345	-5.889071
38	0xc046bd18	-3.1052914
39	0xc0967a46	-4.702426
40	0xc04ead09	-3.2293112
41	0xc088abfe	-4.270995
42	0xbfea656a	-1.8312199
43	0xc09e4b26	-4.9466734
44	0x3dd3a3ae	0.10333954
45	0xbf177d2b	-0.59175366
46	0xc03c64b2	-2.943646
47	0xc08fe1a7	-4.4962955
48	0xc017b850	-2.3706245
49	0xbfdde440	-1.7335281
50	0xbf6ed57d	-0.9329451
51	0xbee6ebcd	-0.45101777
52	0xbfa29603	-1.270203
53	0xc02f07c6	-2.7348495
54	0xc0a0acc5	-5.02109
55	0xc0ca1b44	-6.3158283
56	0xc08d484b	-4.415075
57	0xbf894ca6	-1.0726516
58	0xbf357c67	-0.7089295
59	0xbf9e758e	-1.2379625
60	0xc09efe29	-4.9685254
61	0xc0206635	-2.5062382
62	0xc02ad5d9	-2.6693022
63	0xc0872e2b	-4.2243857

encoder.3.weight f4 [32, 64]
0	0xb9bd2980	-0.0003607981
1	0xbc0bed7d	-0.008540508
2	0xbb154406	-0.002277614
3	0xc10582b4	-8.34441
4	0x3bd69f7f	0.006549775
5	0xc223c338	-40.940643
6	0xbb81fefc	-0.003967164
7	0xc25439f7	-53.056606
8	0xba9e6b29	-0.001208638
9	0xc112d17c	-9.176144
10	0xbb8d1c52	-0.0043063546
11	0xc1663f38	-14.390434
12	0xba956160	-0.0011396818
13	0xbc3a9b49	-0.011389562
14	0x3b3bbea1	0.002864756
15	0xc222515b	-40.57945
16	0x3b4f3165	0.0031615135
17	0xc08c73c8	-4.3891335
18	0xbc4eb115	-0.012615462
19	0x3bb364f8	0.005474683
20	0x3b8e25ed	0.004338017
21	0x3a0e3627	0.00054249394
22	0xc232751d	-44.61437
23	0x3cdd829e	0.027039822
24	0x3b69d676	0.0035680807
25	0xc11b2d93	-9.6986265
26	0xbb006636	-0.0019592172
27	0xc22571bb	-41.361065
28	0x3e47fb62	0.19529489
29	0xc299861c	-76.76193
30	0xc1435727	-12.208777
31	0xbc4c09f2	-0.012453543
32	0x3c605839	0.013692909
33	0xb99bf72b	-0.00029748058
34	0x3bd785cf	0.0065772305
35	0xbaf3c9d4	-0.0018599578
36	0xc125539b	-10.3329115
37	0x3da34bfe	0.07973479
38	0x3af48617	0.0018655685
39	0xc105b71b	-8.3572035
40	0xc241f05d	-48.48473
41	0xbbbb0f6a	-0.0057086246
42	0x3918c5e8	0.00014569575
43	0x3d5603b6	0.052249633
44	0x3a08b418	0.00052148243
45	0xbbce9d6c	-0.0063053872
46	0x3dd21a36	0.102589056
47	0x3c088726	0.008333003
48	0xc25e9430	-55.644714
49	0xc17392dc	-15.223354
50	0x3a9c0632	0.0011903702
51	0x3b9503e8	0.004547585
52	0xc1119dde	-9.101042
53	0xc27578ce	-61.367973
54	0x3b4d19ad	0.0031295822
55	0xc0bbd4f1	-5.869744
56	0xbc4b1ba7	-0.01239673
57	0xc1671002	-14.441408
58	0xc19d8ee6	-19.694775
59	0x3e8318d9	0.25604895
60	0x3d9695dd	0.07352803
61	0x3a5a4ab9	0.00083271746
62	0xbc7913d1	-0.0152024785
63	0xbbf678e0	-0.0075217336
64	0x3c497a6b	0.012297253
65	0x3a838015	0.0010032678
66	0x3f990001	1.1953126
67	0xbcd817ee	-0.026378598
68	0x3d889ed0	0.06670916
69	0x3e21d161	0.15802528
70	0xbeb10b37	-0.3457887
71	0x37f11d9c	2.8743227e-05
72	0xbc0fff78	-0.008788936
73	0xc0964b4c	-4.6966915
74	0x3ccab054	0.024742283
75	0x3bbfd159	0.0058538136
76	0x3c7519eb	0.014959793
77	0x3d0c8225	0.034303803
78	0x3d605a7b	0.05477379
79	0x3d83029d	0.06396983
80	0x3b9d749e	0.0048051616
81	0x3c0ad065	0.008472537
82	0x3caf389a	0.021389294
83	0x3d0fe62d	0.035131622
84	0x3c4668f7	0.0121099865
85	0x3d8d0029	0.06884796
86	0xc06e9110	-3.727604
87	0xbc39c72f	-0.011338993
88	0x3cd52d7c	0.026022665
89	0xbdd6899b	-0.10475465
90	0x3d064477	0.032780137
91	0xbcb8e69b	-0.022570899
92	0xbce4fdd4	-0.027953066
93	0xbc9fc61b	-0.019503644
94	0xbeb1238a	-0.34597427
95	0xbd141538	-0.03615305
96	0xc0a89829	-5.268574
97	0x3902e59b	0.00012483301
98	0x3ba4f56a	0.0050341384
99	0xbc91d20c	-0.017800353
100	0xbc12ccc9	-0.008959957
101	0x3c23e068	0.010002233
102	0x3d54f481	0.05199099
103	0xbd336afc	-0.0438032
104	0xbe7dd14a	-0.24786869
105	0xbef465b6	-0.4773385
106	0x3cdbfe05	0.026854524
107	0x3c3cb231	0.0115170935
108	0x3cb7f98b	0.022457859
109	0xbbfc5311	-0.007700332
110	0xbd2ee5fe	-0.042699806
111	0xbc3b458c	-0.0114301555
112	0xc040434f	-3.0041082
113	0x3c3cb051	0.0115166465
114	0xba804088	-0.0009784857
115	0xbc16d5b6	-0.009206226
116	0xbf1957ee	-0.59899795
117	0xbc084264	-0.00831661
118	0xbe630f28	-0.2217375
119	0xc13b75e6	-11.716284
120	0xbfcdc5aa	-1.6075947
121	0xbc10357b	-0.008801813
122	0x3da9bcf6	0.082879946
123	0xbee42a08	-0.44563317
124	0xbea6bcef	-0.3256602
125	0x3cee50a5	0.029091189
126	0x3b2836dc	0.0025667464
127	0xba89af7e	-0.0010504571
128	0xc1fa56db	-31.29241
129	0xbc06d416	-0.008229276
130	0x3d905d94	0.070490986
131	0xbd90220f	-0.07037746
132	0x3ce90d5d	0.028448755
133	0xbf27b7c0	-0.65514755
134	0xbbf61442	-0.007509739
135	0xbf155e19	-0.58346707
136	0xc2244b01	-41.073246
137	0xbf559c95	-0.8344205
138	0xc2363ce6	-45.55947
139	0x3d864e86	0.06557946
140	0x3d2bef06	0.041975997
141	0xbbe55c75	-0.006999547
142	0xbea20131	-0.31641534
143	0xbd740a9d	-0.059580434
144	0xbc221141	-0.009891809
145	0xbe4a4b1c	-0.19755214
146	0x3df2dbab	0.118583046
147	0x3d2cca49	0.0421851
148	0x3bcf9cc5	0.006335827
149	0xbe120762	-0.14260629
150	0x3e714b07	0.23563777
151	0x3d8de841	0.069290645
152	0x3b823e11	0.003974684
153	0x3e4ce582	0.20009425
154	0xbd0e4987	-0.03473809
155	0xbc9caac9	-0.019124405
156	0x3dc47f3c	0.095945805
157	0x3d7cf9fa	0.061761834
158	0xc0866c6d	-4.2007356
159	0xbc15c487	-0.009141094
160	0x3e94b43d	0.2904376
161	0xc168da2e	-14.553267
162	0xc113471e	-9.204863
163	0x3eb0ca83	0.34529504
164	0x3bd483f6	0.0064854575
165	0x3dbad645	0.091229
166	0xbf3c400e	-0.7353524
167	0xbf857dc4	-1.0429006
168	0xbba70cb2	-0.005097949
169	0x3b035bc0	0.00200437
170	0xbc6c494a	-0.01442177
171	0x3c3578eb	0.011076192
172	0xbe1013a8	-0.14069998
173	0xbb4cc88c	-0.0031247465
174	0xbea0d069	-0.31409004
175	0xc1e58874	-28.691628
176	0x3dfced4e	0.1234995
177	0xc23d8ffa	-47.390602
178	0xbc2aab01	-0.010416747
179	0xc2691bdb	-58.277203
180	0x3df9b36c	0.12192425
181	0x3e3113a1	0.17292644
182	0xc1976ffc	-18.92968
183	0x3e38b7e4	0.18038899
184	0xbc8b9d27	-0.01704271
185	0x3d4ebc2a	0.050472416
186	0xbf122122	-0.57081807
187	0xc01019b0	-2.2515678
188	0x3d968bda	0.07350893
189	0xbe58464b	-0.21120565
190	0xbc91d79b	-0.017803004
191	0x3cdcc4d3	0.026949322
192	0xb9df940b	-0.00042644175
193	0xbc377619	-0.01119759
194	0x3c8168ba	0.015797008
195	0xc248ba0d	-50.18169
196	0x3a6083d1	0.0008564564
197	0x3d467922	0.048455365
198	0xc24ba8c3	-50.914806
199	0xc1181dfb	-9.507319
200	0xc0cbabe7	-6.364734
201	0xbc01eb6b	-0.007929663
202	0xc1373564	-11.450535
203	0xc1472dde	-12.448698
204	0x3bed2f8e	0.007238335
205	0xbc1323a0	-0.008980662
206	0xc27f1b38	-63.77658
207	0xbe828c24	-0.25497544
208	0x3b5deb4a	0.0033862167
209	0xbfebf5c1	-1.8434373
210	0xc269d76f	-58.460384
211	0xbda5ae39	-0.08089871
212	0xbb9dcf5e	-0.00481598
213	0xc0e3d02d	-7.119162
214	0xc25c5f48	-55.09305
215	0xba2352ee	-0.0006230314
216	0xc14f9904	-12.974857
217	0xbd8ece5f	-0.06972956
218	0xc277431e	-61.815544
219	0x3c0ada7f	0.008474945
220	0xc1139263	-9.223239
221	0xc053eb4b	-3.3112361
222	0xc22da11a	-43.407326
223	0x3cefa0af	0.029251425
224	0xc127eff1	-10.496079
225	0xbb039f44	-0.0020083943
226	0xbc519e95	-0.012794157
227	0xba9f4f26	-0.0012154325
228	0xc10a19fe	-8.631346
229	0x3a5e69ba	0.00084843824
230	0xc279f0af	-62.485043
231	0xc21afa39	-38.744358
232	0x3d0262d7	0.031832542
233	0xbb9f7f18	-0.0048674457
234	0xbb8e276d	-0.004338196
235	0x3bf63d09	0.0075146
236	0xba70b388	-0.00091820257
237	0x3ac13a1d	0.001474205
238	0xbb0b399e	-0.002124406
239	0x3d338548	0.04382828
240	0x3b7ea7be	0.0038857306
241	0x3c32c071	0.010910139
242	0xc1596b04	-13.588627
243	0x3ccf07e5	0.02527232
244	0xc117ff64	-9.499851
245	0x3ce956d4	0.028483786
246	0xbb950769	-0.0045480025
247	0xc06eb9b2	-3.730084
248	0x3b155b64	0.0022790069
249	0xbafc108c	-0.0019231006
250	0xbaeed6a7	-0.001822193
251	0xbb491e1e	-0.0030688117
252	0xbb8472d9	-0.004042011
253	0x3d251a72	0.040308423
254	0xbcb06713	-0.021533525
255	0x3c1fe5c0	0.0097593665

encoder.3.bias f4 [32]
0	0x4005669b	2.0843875
1	0xc0035f47	-2.0526903
2	0x3fdd046a	1.7266972
3	0x4032a4ad	2.791301
4	0x3e687d3d	0.22704025
5	0x3fb28b4a	1.3948758
6	0xbda8e4d1	-0.08246768
7	0x3fc3e6e5	1.5304838
8	0x3fcf3968	1.6189394
9	0x403601b9	2.8438551
10	0x40253d8e	2.581882
11	0x3efaff37	0.49022838
12	0x3f8a23a3	1.0792125
13	0x3fde1273	1.734938
14	0x3febaf82	1.8412936
15	0x401e6792	2.4750714
16	0x4044021d	3.062629
17	0x3e807c69	0.25094917
18	0x4071a204	3.7755136
19	0x406a1be6	3.6579528
20	0x4041b6f9	3.0267928
21	0xbee996a7	-0.4562275
22	0x3f3514b9	0.70734745
23	0x3ed3e838	0.41388106
24	0x4061b14b	3.526446
25	0x3ff51f98	1.9150267
26	0x403d5200	2.95813
27	0x3fb72886	1.4309242
28	0x3fbbb1f3	1.4663681
29	0x40567ffa	3.351561
30	0x3ffd365b	1.9782213
31	0x3f06b661	0.5262204

decoder.0.weight f4 [64, 32]
0	0x3f6306bb	0.88682145
1	0x3e893b14	0.26802886
2	0xbc6e3634	-0.01453929
3	0xbdea6eb3	-0.114468955
4	0xbe6467ea	-0.22305265
5	0x3f783739	0.96959263
6	0xbbfa7c1f	-0.007644191
7	0x3e86c65c	0.2632321
8	0x3e7aec66	0.24504241
9	0xbdcc727e	-0.09982775
10	0x3ed635b0	0.41837835
11	0x3ebaaf4e	0.36461872
12	0x3daca9f5	0.08430854
13	0x3dfbfc6e	0.123040065
14	0xbece069b	-0.40239415
15	0x3f14173f	0.5784797
16	0x3ea1c2e6	0.31594008
17	0x3c857f75	0.016296128
18	0x3db980c5	0.09057764
19	0xbe86fcde	-0.26364797
20	0x3e8aebea	0.27133113
21	0xbf58913d	-0.84596616
22	0x3ceca47b	0.028887024
23	0xbf899ce6	-1.0751007
24	0x3e0ed1dd	0.13947244
25	0x3e0597ba	0.1304616
26	0x3e58ae1f	0.21160172
27	0xbd3398dc	-0.04384695
28	0x3e95ec14	0.29281676
29	0xbe805c5f	-0.25070474
30	0x3f114f6c	0.56761813
31	0x3e0870b4	0.13324243
32	0xbd976828	-0.07392913
33	0xbe806413	-0.2507635
34	0x3c0905d4	0.008363206
35	0xbe404df3	-0.18779735
36	0x3c4bfe5e	0.012450783
37	0xbdd4ef71	-0.10397232
38	0xbd289e43	-0.041166555
39	0xc05df385	-3.4679883
40	0x3d985e6b	0.07439884
41	0xbca026c5	-0.019549737
42	0xbeeaa2af	-0.45827243
43	0xbee23aa0	-0.44185352
44	0x39f73ba2	0.0004715594
45	0xbe8495c3	-0.2589551
46	0x3d8fcf93	0.070220135
47	0xbdb0ad84	-0.086268455
48	0xbf057a74	-0.52139974
49	0xc098bb4c	-4.7728634
50	0xbc660383	-0.014038923
51	0x3b882f6f	0.004156045
52	0x3c13be1e	0.009017495
53	0x3d517af3	0.051142644
54	0x3edafccc	0.42770994
55	0x3df4140b	0.119178854
56	0xbdc0adc8	-0.09408146
57	0xbf0ea857	-0.55725616
58	0x3bfb8228	0.007675428
59	0xbdaaf5ee	-0.083476886
60	0xbf0227a2	-0.50841725
61	0x3c89c2a7	0.01681645
62	0xbeb95943	-0.36200914
63	0x3c458ece	0.012057973
64	0xbf43d695	-0.764993
65	0x3dae055a	0.084971145
66	0xbd97da1e	-0.074146494
67	0xbf0a7666	-0.5408691
68	0xbd893762	-0.067000166
69	0x3fb9eeb4	1.4525971
70	0x3def1c20	0.11675286
71	0xbd81459e	-0.063121065
72	0x3f16f3c2	0.58965695
73	0x3eb92d03	0.36167154
74	0x3f447963	0.7674772
75	0xbda2bfce	-0.0794674
76	0x3dc570ee	0.0964068
77	0xbe1799be	-0.14804742
78	0x3f07d620	0.53061104
79	0x3ef05d0b	0.46945986
80	0xbd49cf83	-0.049270164
81	0xbd22d76b	-0.03975622
82	0xbec1b3e2	-0.37832552
83	0xbed9f815	-0.42572084
84	0x3e8679ab	0.262647
85	0x3faf93b5	1.3716952
86	0x3f0db946	0.5536083
87	0x3f1e2090	0.61768436
88	0x3f1fe563	0.6245939
89	0x3f1d9464	0.6155455
90	0x3d95ed97	0.07320707
91	0xbe0dcf6a	-0.13848653
92	0x3ea52a9e	0.32259077
93	0xbd22e0dc	-0.039765224
94	0xbf31643a	-0.6929356
95	0xbdc57057	-0.09640568
96	0xbef18345	-0.47170463
97	0xc09cfd43	-4.9059157
98	0xbeaf62a2	-0.34254938
99	0xbf634b6c	-0.8878696
100	0x3deb7c7c	0.11498353
101	0xbdc45a88	-0.0958758
102	0xbf2860a2	-0.6577245
103	0xbe35f7b7	-0.17770277
104	0x3d81e2c1	0.06342078
105	0x3efb44c9	0.49075916
106	0xc040d5b0	-3.0130424
107	0xbd69ec64	-0.057110205
108	0xbf2ac36d	-0.66704446
109	0x3eba4ad7	0.36385223
110	0xbea9716a	-0.3309434
111	0xbeb7ed26	-0.35923117
112	0xbbe0179e	-0.006838753
113	0x3f3efca3	0.74604243
114	0x3d1faab6	0.038981162
115	0xbe01971b	-0.12655298
116	0xbefdb44f	-0.49551627
117	0xbe0f1727	-0.13973676
118	0xbeb7d187	-0.35902044
119	0xbe899158	-0.268687
120	0xbed7c560	-0.42142773
121	0xbf59825a	-0.84964526
122	0x3fc0f64e	1.5075166
123	0xbd9dd399	-0.07706375
124	0x3df71190	0.12063897
125	0x3c83f87f	0.016109703
126	0x3e7a370e	0.24435064
127	0xbe65f132	-0.2245529
128	0xbd185e12	-0.037199087
129	0x3e3dc177	0.18530832
130	0xbd63e5f2	-0.055639215
131	0x3f115782	0.5677415
132	0x3f3f8e11	0.7482615
133	0x3f9a7d87	1.2069558
134	0x3e4f5e80	0.20250893
135	0x3f859ffd	1.043945
136	0x3e5db027	0.21649228
137	0x3f2f4264	0.6846068
138	0x3eb007c7	0.34380934
139	0x3f134c71	0.57538515
140	0x3bc09afe	0.0058778515
141	0x3e045738	0.12923896
142	0x3f6d516f	0.9270238
143	0x3fa0d126	1.2563827
144	0x3ddb1430	0.1069721
145	0xbd454943	-0.04816557
146	0x3df70baa	0.120627716
147	0x3ec5c4bf	0.38626668
148	0x3d120138	0.035645694
149	0xbe8d6ab7	-0.2762048
150	0xbe8f9544	-0.28043568
151	0x3d310255	0.043215115
152	0x4004d27a	2.0753465
153	0x3d2e1860	0.042503715
154	0xbe959ac9	-0.29219654
155	0xbd83cb07	-0.06435209
156	0x3f09c537	0.5381655
157	0x3d6a4368	0.05719319
158	0x3f017e52	0.50583375
159	0xbb169884	-0.002297909
160	0xbeb66873	-0.35626563
161	0xbd5613ef	-0.052265104
162	0xbca8aa2a	-0.020588953
163	0xbf16d491	-0.589181
164	0x3da92a86	0.08260064
165	0x3eaa4070	0.33252287
166	0x3e2266c4	0.15859514
167	0x3e0f029c	0.13965839
168	0x3e0bc388	0.13648808
169	0x3e262ef9	0.16228856
170	0xbdbd847b	-0.09253784
171	0xbdde62ec	-0.108587116
172	0xbd974668	-0.07386476
173	0xbd9984ce	-0.074960336
174	0xbdb661aa	-0.08905347
175	0x3f1d6b0e	0.6149148
176	0x3dccb4f2	0.0999545
177	0xbc653653	-0.013990003
178	0xbe48d9fd	-0.19614406
179	0xbd797b9c	-0.0609089
180	0x3c1c3b6f	0.009535654
181	0x3eb012f4	0.3438946
182	0xbf2957ba	-0.66149485
183	0xbf0c699d	-0.54848653
184	0x3f675376	0.90361726
185	0x3f6ecc84	0.93280816
186	0x3dc4db83	0.09612181
187	0xbe3aa567	-0.18227158
188	0xbd0a9f64	-0.033843413
189	0x3dd28849	0.102799006
190	0xbe167301	-0.14692308
191	0xbd54d580	-0.051961422
192	0xbef8f4b1	-0.48624185
193	0x3c855154	0.016274132
194	0xbce4982c	-0.027904592
195	0xbe48500e	-0.19561788
196	0x3e23c223	0.15992026
197	0x3e46cbc9	0.19413675
198	0x3e215d6c	0.15758294
199	0x3e530326	0.2060667
200	0x3e93f0ec	0.28894746
201	0x3e4ccfee	0.20001194
202	0x3df3519a	0.11880799
203	0xbe56a3b0	-0.2096088
204	0xbd9ff230	-0.078098655
205	0xbe134633	-0.14382248
206	0xbe075e53	-0.13219576
207	0x3e9392df	0.2882299
208	0xbe06ae4c	-0.13152426
209	0x3c5e5d3e	0.013572035
210	0xbe2339bd	-0.15939994
211	0x3e4a4804	0.19754034
212	0xb9ed679a	-0.00045281352
213	0xbeb86a0e	-0.36018413
214	0x3ca41b95	0.020032683
215	0x3fcdabc8	1.6068048
216	0x3f2cd362	0.67510045
217	0x3ed568f0	0.41681623
218	0x3e353f63	0.17699961
219	0xbe6e6583	-0.23280911
220	0x3e63308d	0.2218649
221	0x3db4da52	0.08830704
222	0xbf7bc318	-0.98344564
223	0xbdf1cd23	-0.11806705
224	0x3d1e4473	0.038639497
225	0x3a9be5ff	0.0011894106
226	0xbdb292b6	-0.08719389
227	0x3cf4baa4	0.029874153
228	0xbb14e410	-0.0022718944
229	0xbe9a6214	-0.30152953
230	0xbca72f55	-0.020408312
231	0xbe836056	-0.25659436
232	0xbc453bd0	-0.012038186
233	0xbd630a6e	-0.05542987
234	0xbef2c256	-0.47413892
235	0x3c657b16	0.014006397
236	0x3c8f97a3	0.01752836
237	0xbcbcab41	-0.023030879
238	0x3e788b54	0.242719
239	0xbe95fc13	-0.2929388
240	0x3b75c2b0	0.0037500076
241	0xbc474dda	-0.012164557
242	0x3efb8f6b	0.49132857
243	0x3f6ed8e5	0.93299705
244	0xbcd8da99	-0.026471423
245	0x3f95b2c4	1.169518
246	0x3e8dbe11	0.27684072
247	0x3f203d26	0.62593305
248	0xbe29217f	-0.16516684
249	0x3da9fd50	0.08300269
250	0xbbf8b752	-0.007590213
251	0x3d145503	0.036213886
252	0xbc49c117	-0.012314103
253	0xbc7e79a6	-0.015531933
254	0xbc87909b	-0.016548445
255	0xbb69753d	-0.0035622858

decoder.0.bias f4 [64]
0	0x3f7d6499	0.98981625
1	0x3fbaec2a	1.4603322
2	0x3f6f949e	0.93586147
3	0xbf800be3	-1.0003628
4	0xbea68526	-0.3252346
5	0x3fd5eed6	1.6713512
6	0x3fb181cd	1.3867737
7	0xc001ac04	-2.026124
8	0x3e71a841	0.2359934
9	0xbf0fda34	-0.56192327
10	0x3f0d1aca	0.55119
11	0x3f4311ef	0.7619924
12	0x3f811f4a	1.0087674
13	0x3f6c9278	0.92410994
14	0x3f5f4844	0.87219644
15	0x3fbd2eb8	1.4779882
16	0x3fd9f8e2	1.7029078
17	0x400eeb87	2.2331254
18	0x3fabb4a8	1.3414507
19	0x3fac6321	1.3467752
20	0xbdb09444	-0.086220294
21	0x3f619b13	0.8812725
22	0x40227e14	2.5389452
23	0xbf7ced45	-0.98799545
24	0x3eeb5d31	0.45969537
25	0xbdc50922	-0.096208826
26	0xbf55fdbc	-0.8359029
27	0x3ff8ffdf	1.9453086
28	0x3f857709	1.0426952
29	0x3f5b7859	0.8573051
30	0xbf0097a9	-0.50231415
31	0x3f9d98a0	1.2312202
32	0x3f89b076	1.0756977
33	0x402fc76d	2.746547
34	0xbfb3e390	-1.4053822
35	0x3ee72caa	0.45151263
36	0x3fb76d0f	1.4330157
37	0xbec31573	-0.38102302
38	0x3fd1b8fd	1.6384579
39	0x3e7375ae	0.2377536
40	0x3fce13fa	1.6099846
41	0xbeece5a4	-0.46268952
42	0xbd72a76f	-0.05924171
43	0x400da91d	2.2134469
44	0xbf95d04c	-1.1704192
45	0xbf3c7e8f	-0.73630613
46	0xbea1875c	-0.31548584
47	0xbd9f404b	-0.07775935
48	0x40207771	2.5072901
49	0xbfdd2023	-1.7275432
50	0x3edfb55a	0.43693048
51	0x4017d6d2	2.3724866
52	0x3faa5091	1.3305837
53	0x3e5cc292	0.21558598
54	0x401350e1	2.3018115
55	0x3f046fbb	0.5173299
56	0x3f7bf3e4	0.9841902
57	0xbfaf6134	-1.3701539
58	0x3f864879	1.0490867
59	0x3f6d574b	0.92711323
60	0x3ee3dc3d	0.44503966
61	0x3f263af2	0.64933693
62	0x3e643203	0.22284703
63	0x3fb8733e	1.4410169

decoder.2.weight f4 [60, 64]
0	0x3e44ee99	0.19231643
1	0xbd90026b	-0.07031711
2	0xbd00ed75	-0.031476457
3	0x3bcd6fe3	0.0062694415
4	0xbe578e0f	-0.21050285
5	0xbd819c7e	-0.06328677
6	0x3d950505	0.07276348
7	0x3d8bc36f	0.068243854
8	0xbe34aa8f	-0.17643188
9	0xbe50daeb	-0.2039601
10	0xbe9dfd45	-0.30857292
11	0xbe975e56	-0.2956416
12	0xbdc77da8	-0.09740764
13	0x3cfeae7a	0.031089056
14	0xbda8bd97	-0.082392864
15	0x3e2dad8d	0.16960736
16	0xbdb581e9	-0.08862669
17	0x3e2e8465	0.17042692
18	0x3e8c3107	0.27381155
19	0x3ef4ab9b	0.47787175
20	0xbe7af53d	-0.24507613
21	0xbc6eff7f	-0.014587282
22	0xbd03fb11	-0.032221857
23	0x3d7365f3	0.0594234
24	0xbc094948	-0.008379288
25	0xbca18e2b	-0.019721111
26	0x3d0a134b	0.033709805
27	0xbdae37ba	-0.08506723
28	0xbe3390d4	-0.17535716
29	0xbc532d86	-0.012889272
30	0x3de94faf	0.113921516
31	0x3ceedcae	0.029157963
32	0x3d14d00d	0.036331225
33	0x3d66a50a	0.056309737
34	0xbd8f68ac	-0.070023865
35	0x3d26478f	0.040595587
36	0xbd6ff8e7	-0.05858698
37	0x3ed41909	0.4142535
38	0xbf44fb4a	-0.76945937
39	0x3ed0ee7f	0.40806958
40	0xbe5ed493	-0.21760778
41	0xbde8bbbd	-0.11363933
42	0xbd4571a1	-0.048204068
43	0x3d942f4b	0.07235583
44	0x3e918a84	0.28425992
45	0xbde5f29c	-0.11227915
46	0xbe67ada6	-0.22624835
47	0x3ed0c22e	0.40773147
48	0xbe08a731	-0.13345028
49	0xbe8c85e4	-0.274459
50	0x3d6ae9a8	0.05735174
51	0x3d5366bb	0.051611643
52	0xba919b31	-0.0011108873
53	0x3e2fdc53	0.17173891
54	0xbd59548e	-0.053059153
55	0x3d4d73a9	0.05015913
56	0xbd7cf3f0	-0.061756074
57	0x3d150cd2	0.03638918
58	0x3ea13dae	0.3149237
59	0xbe21c9b9	-0.15799607
60	0x3d41e74b	0.04733972
61	0xbd120081	-0.03564501
62	0x3ba1342e	0.0049195504
63	0x3e18c5c6	0.14919195
64	0xbdcf9a59	-0.10136861
65	0xbc50637c	-0.012719031
66	0xbded3c9e	-0.115838274
67	0x39d926dc	0.00041418418
68	0x3d02de5a	0.031950332
69	0xbd8e7c86	-0.06957345
70	0xbc6832f2	-0.014172303
71	0x3d199271	0.037493173
72	0x3c8e2984	0.01735378
73	0xbf1d1c6a	-0.6137148
74	0xbe19c1bc	-0.1501531
75	0x3d917547	0.07102447
76	0x3d42a40d	0.047519732
77	0x3e1f98a0	0.15585566
78	0xbe389b58	-0.18028009
79	0x3d171f5b	0.036895137
80	0x3da7e527	0.08198004
81	0xbd07dd4f	-0.03317004
82	0x3e4166b7	0.18886839
83	0x3ec9aff1	0.39392045
84	0xbc8cc63a	-0.017184366
85	0x3bbf29f4	0.0058338586
86	0xbd70c78b	-0.05878405
87	0x3bdb5533	0.006693506
88	0x3d6d365d	0.057913173
89	0x3d2a59c6	0.04158952
90	0x3e1b1328	0.15144026
91	0x3d229aba	0.03969834
92	0x3f14e374	0.58159566
93	0xbf1bddc4	-0.6088526
94	0x3cec629a	0.02885561
95	0x3c7abd0b	0.01530386
96	0x3d979931	0.07402266
97	0x3e024256	0.12720618
98	0xbddc5ff7	-0.10760491
99	0xbdb95eb5	-0.09051267
100	0xbd15458d	-0.036443282
101	0x3e5331db	0.20624487
102	0xbe2f8bd2	-0.17143181
103	0xbe2d2693	-0.16909246
104	0x3de34950	0.110979676
105	0x3dfb8582	0.12281324
106	0x3b06f5ad	0.0020593212
107	0xbecd9ed3	-0.40160236
108	0xbc0c33e6	-0.008557295
109	0xbc32766c	-0.010892492
110	0xbd92b524	-0.07163456
111	0xbd8993d4	-0.06717649
112	0x3bffb3dd	0.007803424
113	0x3cd10c11	0.025518449
114	0xbe30d01a	-0.17266884
115	0xbd74d6ed	-0.05977528
116	0xbae20bde	-0.0017245968
117	0x3e04158c	0.12898844
118	0x3d7f02e6	0.062258624
119	0xbcf56829	-0.029956894
120	0xbe41dfd5	-0.18933041
121	0xbd7886d7	-0.06067547
122	0x3ebaba5d	0.3647031
123	0x3bfc845b	0.0077062077
124	0x3e13c9f4	0.14432508
125	0xbd9c0caf	-0.07619607
126	0x3ce06c6f	0.027395455
127	0xbe55dad3	-0.20884256
128	0x3e051f61	0.13000251
129	0x3d977338	0.07395023
130	0x3ebfbd5e	0.37449163
131	0x3cb41711	0.021983655
132	0xbf039b99	-0.514093
133	0xbf0065a5	-0.501551
134	0x3f7888cc	0.97083735
135	0xbdaf2729	-0.08552391
136	0xbc8bdd84	-0.0170734
137	0xbfaae969	-1.3352481
138	0x3ea651a6	0.32484168
139	0xbe9956d3	-0.29949054
140	0x3e373d79	0.17894544
141	0xbef47e38	-0.47752547
142	0x3e8a4a57	0.27009842
143	0xbdcc350e	-0.09971057
144	0xbe097e0e	-0.13426992
145	0x3c8b9203	0.017037397
146	0x3db159e2	0.08659722
147	0x3ef909fc	0.4864043
148	0x3e94c09d	0.29053202
149	0x3bec1d06	0.0072056083
150	0x3d5d063f	0.053961035
151	0x383da7fc	4.521756e-05
152	0xbd9189a6	-0.071063325
153	0x3e4c267f	0.1993656
154	0x3ca6a8e8	0.020344213
155	0xbe3af71c	-0.18258327
156	0x3ef8f88a	0.4862712
157	0x3f3cba14	0.7372143
158	0x3ad4c846	0.0016234003
159	0xba5851fc	-0.0008251963
160	0x3d384655	0.04498895
161	0x3b4b5fcb	0.003103244
162	0x3dbe7f03	0.09301569
163	0xbddac397	-0.10681837
164	0x3d8c8ca1	0.0686276
165	0x3e679230	0.2261436
166	0xbe16c9a1	-0.14725353
167	0xbecf7ef1	-0.40526536
168	0xbf4cb990	-0.79970646
169	0x3eb0f945	0.34565178
170	0xbd3d3e27	-0.04620185
171	0xbf05b309	-0.5222631
172	0xbb1c9c0a	-0.0023896717
173	0xbe477a09	-0.19480146
174	0xbe482845	-0.19546612
175	0x3dfa124d	0.12210522
176	0xbdc00aec	-0.09377083
177	0xbcc51be9	-0.02406116
178	0xbd1121c6	-0.0354326
179	0x3d409884	0.04702045
180	0x3ba36288	0.004986111
181	0x3d0f94a8	0.03505388
182	0xbea21be0	-0.31661892
183	0x3ca910c8	0.020637885
184	0x3e35892f	0.17728113
185	0x3c345c7b	0.011008377
186	0x3f63ef33	0.89036864
187	0xbd893821	-0.06700159
188	0xbd2a3506	-0.041554473
189	0x3ddc8e6b	0.107693516
190	0xbd060e0d	-0.032728244
191	0xbef27561	-0.47355178
192	0x3e29694f	0.16544078
193	0xbcc2c4f2	-0.023775551
194	0x3dbc272c	0.09187159
195	0xbd51bbd1	-0.051204506
196	0x3c6134ce	0.0137455
197	0xbea0b229	-0.31385925
198	0x3f041ac7	0.5160336
199	0x3da6607b	0.08123871
200	0xbc901d05	-0.017591963
201	0x3f287974	0.6581032
202	0x3d91bbd2	0.07115902
203	0xbe0b88d3	-0.13626413
204	0xbca03cab	-0.019560179
205	0xbe7f8958	-0.24954736
206	0x3e92fc5b	0.28708157
207	0xbd02f20d	-0.03196912
208	0xbe17e9ba	-0.14835253
209	0x3c1504bd	0.009095368
210	0xbb502f67	-0.0031766535
211	0xbec5f77f	-0.38665387
212	0x3e192d01	0.14958574
213	0x3db7b685	0.0897036
214	0x3e8f6eaa	0.28014117
215	0xbe6bfb63	-0.23045115
216	0xbe1ede38	-0.15514457
217	0xbdd6882d	-0.10475192
218	0xbe7c358a	-0.24629799
219	0xbe0adc44	-0.13560587
220	0xbf3472c2	-0.70487607
221	0x3eacdcd7	0.33762237
222	0xbd0cf2ce	-0.034411244
223	0xbc88a772	-0.016681407
224	0xbe05e604	-0.13076025
225	0x3dc0a0af	0.09405648
226	0xbe2c7a47	-0.1684352
227	0xbd697222	-0.05699361
228	0xbdd28334	-0.10278931
229	0xbc3dcb5c	-0.011584129
230	0x3e482a79	0.19547452
231	0x3eed6608	0.46366906
232	0xbe743645	-0.23848827
233	0xbe15a063	-0.14611964
234	0x3c69b95b	0.014265384
235	0x3ea1bf3d	0.31591216
236	0x3d1b5e15	0.03793152
237	0x3e0502dd	0.12989374
238	0x3e2d4d3b	0.16923992
239	0x3c915eba	0.017745364
240	0xbe0a4267	-0.13501893
241	0xbdfdb2cb	-0.12387618
242	0x3e27ba1e	0.16379592
243	0x3dd41261	0.10355068
244	0x3d12220e	0.03567701
245	0x3decefc7	0.115691714
246	0x3e3ebe60	0.1862731
247	0x3d522de6	0.051313303
248	0x3eada0df	0.33911797
249	0x3d4ceae9	0.050028715
250	0xbf12c98a	-0.57338774
251	0xbd910021	-0.07080103
252	0xbe078f3e	-0.13238236
253	0x3f1fa13a	0.6235539
254	0x3dc10fe6	0.094268605
255	0x3d28cbe3	0.041210067

decoder.2.bias f4 [60]
0	0xbe10dda0	-0.14147043
1	0x3dff3518	0.12461299
2	0x3c85c6aa	0.016330082
3	0xbebde95a	-0.37092096
4	0xbd512432	-0.05105991
5	0xbee7003b	-0.45117363
6	0xbf4ed34d	-0.8079117
7	0xbf322d7d	-0.6960066
8	0x3ed6c889	0.4194987
9	0xc003c468	-2.0588627
10	0xbec6b398	-0.38808894
11	0xbf1cd875	-0.6126779
12	0x3f2a5f62	0.6655179
13	0x3e298a7f	0.16556738
14	0x3f7ccb9a	0.9874817
15	0xbd6bfc9d	-0.057613958
16	0x3ecdfe3b	0.40233025
17	0xbe4b63c8	-0.19862282
18	0x3d0eef0d	0.034895945
19	0x3e718240	0.23584843
20	0xbe4f1a47	-0.20224868
21	0x3ef423f3	0.47683677
22	0xbf6a8d91	-0.91622263
23	0x3f4a1c8d	0.78949815
24	0xbf92f4af	-1.1480922
25	0x3f228da8	0.634974
26	0x3f6ae432	0.9175445
27	0x3ec4abcf	0.3841233
28	0xbf18eca5	-0.5973609
29	0xbf1e195c	-0.61757445
30	0x3f414c3d	0.75506955
31	0x3ecce281	0.4001656
32	0x3e83eba3	0.25765714
33	0xbf6e8ad6	-0.93180597
34	0xbf8f1925	-1.1179549
35	0xbf23993d	-0.639057
36	0x3ed935d3	0.42423877
37	0xbfa6722d	-1.3003594
38	0xbff239df	-1.8923911
39	0x3fb7b0be	1.4350812
40	0xbd8eb7c3	-0.069686435
41	0x3ff4e991	1.9133779
42	0x3f7da393	0.9907772
43	0xbf626963	-0.8844206
44	0x3e6d9717	0.23202167
45	0xc00a25d5	-2.158559
46	0xbed53f61	-0.41649917
47	0xbed796a2	-0.4210711
48	0x3fa5303f	1.2905349
49	0x3eb6ff0b	0.35741457
50	0x3f57ee90	0.8434839
51	0x3f1f672b	0.62266797
52	0x3eae7978	0.34077048
53	0x3c63bc24	0.013899837
54	0xbf163727	-0.58677906
55	0xbe9b834c	-0.3037361
56	0xbdefc156	-0.11706798
57	0x3e0da21d	0.13831373
58	0x3e06d9c6	0.13169011
59	0xbebd9b1b	-0.370324

exp_avg f4 [64, 60]
0	0xb732389a	-1.0622805e-05
1	0xb78367f7	-1.566483e-05
2	0xb8124447	-3.48727e-05
3	0xb73742ca	-1.09232005e-05
4	0x380b1d3a	3.3167402e-05
5	0xb852726a	-5.0174458e-05
6	0xb8994064	-7.307602e-05
7	0x37814592	1.5410395e-05
8	0x389a0380	7.343944e-05
9	0x3820d993	3.8349604e-05
10	0xb80f8401	-3.4216795e-05
11	0x37e1bf21	2.6911091e-05
12	0xb7b7f88c	-2.1931039e-05
13	0xb80d2a7a	-3.365658e-05
14	0xb8b2e6cd	-8.5306914e-05
15	0x37ad4616	2.0655843e-05
16	0xb7c48941	-2.3428935e-05
17	0x37a23dbe	1.9340656e-05
18	0xb841af76	-4.6178196e-05
19	0xb7300934	-1.049256e-05
20	0x381c924d	3.732955e-05
21	0x367cb134	3.7654072e-06
22	0x37ef6798	2.853926e-05
23	0x37540d6a	1.2639308e-05
24	0xb7b2fdb5	-2.1337395e-05
25	0x380982c9	3.278515e-05
26	0xb7714d0b	-1.4382657e-05
27	0xb7211e96	-9.603469e-06
28	0xb65ce981	-3.2918472e-06
29	0xb8ab751a	-8.175727e-05
30	0x379a8241	1.8418885e-05
31	0x38868983	6.4152315e-05
32	0xb7efd027	-2.8587949e-05
33	0x38b69a72	8.707204e-05
34	0x37e43be4	2.7207607e-05
35	0xb78dd488	-1.6907477e-05
36	0x3821ca3f	3.8573748e-05
37	0xb8ae75fe	-8.318944e-05
38	0xb9083cc0	-0.00012992602
39	0x389109bf	6.915954e-05
40	0x3823997b	3.900517e-05
41	0xb882e097	-6.240716e-05
42	0xb7bedfdf	-2.2754013e-05
43	0xb6647ae6	-3.4046184e-06
44	0xb7cef7ec	-2.4672561e-05
45	0xb7d2118f	-2.5042127e-05
46	0x380f2873	3.4131528e-05
47	0xb7a696fc	-1.985905e-05
48	0x38c65926	9.457981e-05
49	0x37855995	1.589655e-05
50	0x371b25fc	9.247564e-06
51	0xb7bf44db	-2.2801038e-05
52	0x38724f83	5.7771347e-05
53	0xb82fb291	-4.1889554e-05
54	0x3886774d	6.4118394e-05
55	0x380c3a66	3.343299e-05
56	0xb7f168da	-2.8778264e-05
57	0x385edc28	5.313396e-05
58	0x385e2cb7	5.297057e-05
59	0xb8867708	-6.411789e-05
60	0xb78d86f8	-1.687136e-05
61	0xb676863c	-3.6734991e-06
62	0xb749c11f	-1.2025498e-05
63	0xb7d236bf	-2.5059444e-05
64	0xb81dbb3e	-3.76061e-05
65	0x35519c78	7.808626e-07
66	0x3796f235	1.799418e-05
67	0xb57a8814	-9.333028e-07
68	0xb89d2e3b	-7.4949545e-05
69	0xb6e5135a	-6.8269846e-06
70	0x37d9ab50	2.594819e-05
71	0x38059b43	3.185427e-05
72	0xb788d5fb	-1.6312106e-05
73	0xb5d2f887	-1.571855e-06
74	0x36b9d929	5.5387104e-06
75	0x37378f31	1.0940989e-05
76	0xb8b7ec24	-8.7701046e-05
77	0x384204b9	4.6257603e-05
78	0xb66b48d9	-3.5060132e-06
79	0xb8b3764b	-8.557419e-05
80	0x3781a0d1	1.5452884e-05
81	0xb8f97e93	-0.000118968215
82	0x377b8dd6	1.499379e-05
83	0xb7113f93	-8.6574755e-06
84	0x368e4c63	4.2408224e-06
85	0x381d69f6	3.75304e-05
86	0x3848603f	4.7773352e-05
87	0xb83e7e6a	-4.5417262e-05
88	0xb84e1f66	-4.914347e-05
89	0xb75aa1f1	-1.30315175e-05
90	0xb7688eb7	-1.3861506e-05
91	0xb8089b9b	-3.2569846e-05
92	0x33c6e4d2	9.261716e-08
93	0xb8518134	-4.9949813e-05
94	0x37bcfbfb	2.2528684e-05
95	0xb4b2b820	-3.3289052e-07
96	0x383eb5cd	4.5468845e-05
97	0xb5908758	-1.0768226e-06
98	0x3678463b	3.699576e-06
99	0xb7ad2bb4	-2.0643558e-05
100	0x3762dca4	1.3522022e-05
101	0x385b5329	5.2291118e-05
102	0x36249b30	2.4528235e-06
103	0xb7f1941e	-2.8798411e-05
104	0xb8147dd5	-3.540314e-05
105	0x376ee844	1.4239984e-05
106	0xb837b8d8	-4.380275e-05
107	0xb84984c4	-4.8045782e-05
108	0xb89e9bb4	-7.563029e-05
109	0x381190fa	3.4705714e-05
110	0xb7b611ee	-2.170444e-05
111	0x33903c74	6.716519e-08
112	0x387e8176	6.067889e-05
113	0xb6d0b94a	-6.2204535e-06
114	0x38059996	3.185271e-05
115	0xb6366a62	-2.7182036e-06
116	0xb8836871	-6.2660205e-05
117	0x38b87f16	8.797475e-05
118	0xb85b9f08	-5.236178e-05
119	0x38b3e5e3	8.578205e-05
120	0x38c87c51	9.559899e-05
121	0xb8dce602	-0.0001053326
122	0xb8be573f	-9.076157e-05
123	0x390be9b1	0.0001334313
124	0xb8ec6410	-0.00011271995
125	0x3a197e53	0.00058553106
126	0x398194cf	0.00024715668
127	0xb9ba5378	-0.00035538874
128	0xb7aa5fda	-2.0310214e-05
129	0xb923f66f	-0.00015636695
130	0x39914f2c	0.00027715543
131	0xb99c6773	-0.00029831714
132	0x382410f3	3.9116432e-05
133	0xb8b9d0da	-8.860389e-05
134	0xb877ea35	-5.910751e-05
135	0x38d3ec7d	0.000101053134
136	0xb91c65c2	-0.00014915227
137	0x3a1af78c	0.0005911521
138	0x397ed258	0.00024301687
139	0xb9b958aa	-0.0003535201
140	0xb7652de4	-1.3660148e-05
141	0xb9309923	-0.00016841716
142	0x398b7601	0.00026600066
143	0xb9e71ad4	-0.00044079742
144	0x38b8ab2b	8.805686e-05
145	0xb8ff46b2	-0.000121725156
146	0xb8bb605b	-8.9348025e-05
147	0x3911092f	0.00013831699
148	0xb911293f	-0.00013843643
149	0x3a210089	0.00061417423
150	0x397d623c	0.00024164555
151	0xb9bf95d6	-0.00036541995
152	0x37981520	1.812965e-05
153	0xb951a50d	-0.0001999328
154	0x39887aeb	0.00026031522
155	0xb9aded54	-0.00033173955
156	0x388c5500	6.691553e-05
157	0x3a483045	0.0007636587
158	0x3a1f78cd	0.00060833694
159	0xba4c8303	-0.00078015047
160	0xb9bbef3f	-0.00035845672
161	0xb8430490	-4.6495872e-05
162	0x375c8c76	1.31457255e-05
163	0x39830770	0.00024991808
164	0x38f02d32	0.0001145251
165	0x39e7c1db	0.00044204187
166	0xb9987917	-0.00029081918
167	0x3958282e	0.00020614333
168	0x38562b55	5.1061932e-05
169	0xb8f91e20	-0.000118788565
170	0xb8b54e3e	-8.645326e-05
171	0x390ee9c1	0.00013629255
172	0xb8fa83fb	-0.00011945512
173	0x3a0d54c0	0.0005391352
174	0x394a16b5	0.0001927268
175	0xb9c34beb	-0.00037249862
176	0xb7e32e3a	-2.7082035e-05
177	0xb9553f9d	-0.00020336961
178	0x3991effc	0.00027835357
179	0xb9c11c4d	-0.00036832914
180	0x3734d5d8	1.0778625e-05
181	0x370b7782	8.312871e-06
182	0xb77f6b2c	-1.5224137e-05
183	0xb7af0944	-2.086594e-05
184	0xb6540d7c	-3.159831e-06
185	0xb67b291a	-3.7425839e-06
186	0xb79aa754	-1.8436149e-05
187	0x37487237	1.1947522e-05
188	0x3768bf2c	1.3872788e-05
189	0xb75361fc	-1.2599394e-05
190	0xb67c5489	-3.7600132e-06
191	0x380f1974	3.4117562e-05
192	0x37c87ff3	2.3901439e-05
193	0x369886d7	4.5456504e-06
194	0xb686764a	-4.007282e-06
195	0x36d4f93f	6.3471084e-06
196	0x37659ed3	1.3686443e-05
197	0xb57c0442	-9.388351e-07
198	0xb6d8c1a9	-6.4598466e-06
199	0xb5b36454	-1.3365739e-06
200	0xb7046d6b	-7.893289e-06
201	0x37cf493c	2.4710425e-05
202	0xb763a596	-1.3568808e-05
203	0xb615ecef	-2.2340644e-06
204	0x3788b4bd	1.6296626e-05
205	0x36f56f84	7.314551e-06
206	0xb5de51ca	-1.6564093e-06
207	0xb6d3a062	-6.306961e-06
208	0xb584347f	-9.850045e-07
209	0xb75ebfe5	-1.327691e-05
210	0xb7d0952d	-2.4864998e-05
211	0xb7b5bdbc	-2.1665233e-05
212	0xb7c63edf	-2.3632716e-05
213	0xb6ab357f	-5.102425e-06
214	0x37904b90	1.7201324e-05
215	0xb75b2c00	-1.3063662e-05
216	0xb700f5f1	-7.686657e-06
217	0x36db946e	6.543988e-06
218	0x3411051a	1.3506033e-07
219	0xb6ec1437	-7.0357014e-06
220	0x372a5f93	1.0155042e-05
221	0x36cfad36	6.189245e-06
222	0xb7c3778b	-2.3301478e-05
223	0xb703991c	-7.843857e-06
224	0xb78078c1	-1.531502e-05
225	0x3775f9a1	1.4661259e-05
226	0xb74f1848	-1.2343815e-05
227	0xb7856aca	-1.5904563e-05
228	0xb7be2b1b	-2.2669838e-05
229	0x36df35b3	6.6521693e-06
230	0xb6635ff4	-3.3881488e-06
231	0x35cc979b	1.5243307e-06
232	0xb75094a6	-1.2432376e-05
233	0xb6821fa6	-3.8779863e-06
234	0xb86d0b69	-5.651583e-05
235	0xb7daa18b	-2.606285e-05
236	0x37b4dabc	2.1559528e-05
237	0xb832731f	-4.2545722e-05
238	0xb80a1734	-3.2923374e-05
239	0xb81f0ce0	-3.7920545e-05
240	0xb7004165	-7.64462e-06
241	0x378204db	1.5499469e-05
242	0x358544be	9.929279e-07
243	0xb6512d82	-3.1169916e-06
244	0xb79049cd	-1.7200504e-05
245	0xb75efff0	-1.3291821e-05
246	0x369f61ea	4.749968e-06
247	0x3786a890	1.6052538e-05
248	0x36d7cf34	6.431621e-06
249	0x376b9c6d	1.4043512e-05
250	0xb6aba090	-5.114889e-06
251	0x370f2de6	8.534151e-06
252	0x382d979b	4.1387608e-05
253	0x380bcc15	3.333025e-05
254	0x373aab22	1.1126309e-05
255	0xb7ce3337	-2.4580962e-05

exp_avg_sq f4 [64, 60]
0	0x35d9b051	1.6219075e-06
1	0x34eefd76	4.4515372e-07
2	0x34b71cde	3.410741e-07
3	0x35007dc6	4.786674e-07
4	0x35f32078	1.811436e-06
5	0x34f93b84	4.6423168e-07
6	0x360177ad	1.9292158e-06
7	0x35a69909	1.2412503e-06
8	0x357a91f1	9.334463e-07
9	0x363740f7	2.730694e-06
10	0x35a3eff8	1.2214286e-06
11	0x351f181b	5.9267194e-07
12	0x3424ff19	1.5366494e-07
13	0x34a4059d	3.0551465e-07
14	0x348b6048	2.596082e-07
15	0x34cfde8d	3.8718682e-07
16	0x35f86241	1.8506036e-06
17	0x34e77881	4.311478e-07
18	0x35791ac5	9.2798683e-07
19	0x3589fb31	1.0280402e-06
20	0x352f73bd	6.5361e-07
21	0x3629a021	2.527617e-06
22	0x35a7f83b	1.2514714e-06
23	0x34d790d8	4.0152258e-07
24	0x35a59df8	1.2339433e-06
25	0x34e1e665	4.207715e-07
26	0x349d61d7	2.9314717e-07
27	0x350617d0	4.995354e-07
28	0x358618bc	9.990977e-07
29	0x35ae0633	1.2965814e-06
30	0x3592ea7e	1.0946094e-06
31	0x35653245	8.53823e-07
32	0x3522bd69	6.062533e-07
33	0x35c5d6fa	1.474021e-06
34	0x35d48cec	1.5836245e-06
35	0x351234b9	5.446596e-07
36	0x3607d206	2.0238817e-06
37	0x36131c0f	2.192104e-06
38	0x368653ac	4.003252e-06
39	0x361ebc53	2.3653454e-06
40	0x35aa9149	1.270827e-06
41	0x34babaf7	3.4781235e-07
42	0x34d1a31b	3.9047958e-07
43	0x35842b7d	9.847423e-07
44	0x34f668b3	4.589725e-07
45	0x35a1bd88	1.2050596e-06
46	0x35b0b47c	1.316555e-06
47	0x34fbd2d4	4.690579e-07
48	0x360f246b	2.1329859e-06
49	0x342455aa	1.5304855e-07
50	0x33bed5c0	8.8864454e-08
51	0x34689349	2.1660266e-07
52	0x34ca4120	3.7672817e-07
53	0x34b4ee0b	3.3700812e-07
54	0x33fe1e79	1.18333396e-07
55	0x344d003d	1.90922e-07
56	0x34792fe2	2.3207352e-07
57	0x353764c0	6.8319423e-07
58	0x35eb8394	1.7547159e-06
59	0x34fd9c16	4.723849e-07
60	0x333cb03f	4.3932456e-08
61	0x328e0265	1.6532065e-08
62	0x32b700d1	2.1304375e-08
63	0x32a24f26	1.8895275e-08
64	0x33590c3c	5.0535377e-08
65	0x3303e18d	3.070595e-08
66	0x3316934f	3.5058573e-08
67	0x334fd5ca	4.8390383e-08
68	0x33a143de	7.509492e-08
69	0x33699ca8	5.4392018e-08
70	0x33464ed6	4.617217e-08
71	0x3331de71	4.1413333e-08
72	0x320d6703	8.230702e-09
73	0x32b3b0a5	2.0918671e-08
74	0x32c96020	2.3443192e-08
75	0x32bc2608	2.1903375e-08
76	0x33a36e3a	7.610329e-08
77	0x331f23b1	3.7052533e-08
78	0x33466e5a	4.620083e-08
79	0x33518854	4.8785594e-08
80	0x3330f2c8	4.1199e-08
81	0x33947f51	6.914946e-08
82	0x335a3c95	5.081218e-08
83	0x330b3b93	3.2417642e-08
84	0x34274d6c	1.5581253e-07
85	0x331745ea	3.5221014e-08
86	0x33302c33	4.1018392e-08
87	0x32d1a4ca	2.440574e-08
88	0x333d87ac	4.4128385e-08
89	0x32cfdf44	2.4199501e-08
90	0x32770758	1.4378962e-08
91	0x3330bfd2	4.1152653e-08
92	0x339262bd	6.816615e-08
93	0x335d6922	5.155119e-08
94	0x334c5752	4.757687e-08
95	0x3321c60a	3.766585e-08
96	0x32ab56d7	1.994651e-08
97	0x32d173b2	2.4383414e-08
98	0x32b41db8	2.0968272e-08
99	0x32b21a2d	2.073383e-08
100	0x331b1470	3.6107338e-08
101	0x32cd9e1d	2.3937043e-08
102	0x324ce9b8	1.1927504e-08
103	0x332df2d0	4.0500538e-08
104	0x33974391	7.043776e-08
105	0x336fe1af	5.5851782e-08
106	0x335b46eb	5.105441e-08
107	0x331c85a5	3.644313e-08
108	0x33ca07ec	9.407799e-08
109	0x331d7720	3.6662755e-08
110	0x329fad10	1.8588736e-08
111	0x328fc4d9	1.6736907e-08
112	0x3290c8fb	1.6855202e-08
113	0x33278897	3.9006945e-08
114	0x32be2748	2.2136774e-08
115	0x3335633c	4.22326e-08
116	0x33bbb496	8.7407145e-08
117	0x3311cbb1	3.39457e-08
118	0x3355bafb	4.9762985e-08
119	0x33ecb46e	1.1022426e-07
120	0x3273f25b	1.4199567e-08
121	0x3239585d	1.0788509e-08
122	0x31e5125a	6.6668635e-09
123	0x3287f7c6	1.5828743e-08
124	0x32c0fea6	2.2467542e-08
125	0x3466b33f	2.1485629e-07
126	0x3350f8eb	4.8655163e-08
127	0x33c32fd8	9.089098e-08
128	0x3240c993	1.1221704e-08
129	0x331c2fef	3.6365176e-08
130	0x33ab4c25	7.9766586e-08
131	0x340bb797	1.3012173e-07
132	0x32834abd	1.5284394e-08
133	0x32d2d320	2.4543226e-08
134	0x32bfc404	2.2324464e-08
135	0x33116a0d	3.3856896e-08
136	0x32d91a57	2.5274103e-08
137	0x346ebded	2.2234572e-07
138	0x34321366	1.6584599e-07
139	0x33ff377f	1.18844575e-07
140	0x334c6e4e	4.7597773e-08
141	0x3349984b	4.693747e-08
142	0x3398b94d	7.1117576e-08
143	0x3412c0e1	1.3667479e-07
144	0x32fb4146	2.9249929e-08
145	0x3493ab3d	2.7505476e-07
146	0x34485d9c	1.8660506e-07
147	0x349393c5	2.74884e-07
148	0x33994e49	7.138858e-08
149	0x33e016dd	1.04349716e-07
150	0x342704e3	1.5554865e-07
151	0x33e0ba6b	1.0464722e-07
152	0x338824dc	6.339698e-08
153	0x33e9ba17	1.08837575e-07
154	0x33a416e5	7.6410096e-08
155	0x33b8002c	8.568199e-08
156	0x31f063a1	6.996246e-09
157	0x34bbb0fc	3.4960237e-07
158	0x34851af4	2.4792791e-07
159	0x34be210f	3.541431e-07
160	0x33c240a0	9.045584e-08
161	0x334ae1fb	4.7237318e-08
162	0x340fc096	1.3387975e-07
163	0x33b70d32	8.524002e-08
164	0x336a1dcd	5.4509474e-08
165	0x3422894c	1.5137374e-07
166	0x33aea121	8.1318156e-08
167	0x33c49dbd	9.155654e-08
168	0x33947979	6.913883e-08
169	0x3325ca44	3.8601016e-08
170	0x330df981	3.3056043e-08
171	0x3323dfdc	3.8154994e-08
172	0x32eaa751	2.7317272e-08
173	0x34653e95	2.1350054e-07
174	0x3342d66a	4.5364153e-08
175	0x33c2c9bd	9.070525e-08
176	0x3268175a	1.3509487e-08
177	0x33303e53	4.1034877e-08
178	0x33a3009b	7.590389e-08
179	0x33ae2c8b	8.110609e-08
180	0x31ff8fe5	7.4378357e-09
181	0x32216fdb	9.396866e-09
182	0x321feb6c	9.308547e-09
183	0x324a6df9	1.1782952e-08
184	0x3306cf01	3.1387575e-08
185	0x33beff12	8.8939615e-08
186	0x3476094f	2.2913922e-07
187	0x33a1d82f	7.53647e-08
188	0x3396c5f1	7.0209246e-08
189	0x33942dba	6.900105e-08
190	0x33324244	4.1504123e-08
191	0x331fc319	3.7197513e-08
192	0x329bc1c6	1.8132493e-08
193	0x341ded8a	1.470818e-07
194	0x347c19a1	2.3478653e-07
195	0x33cc0799	9.500872e-08
196	0x3392e89f	6.840968e-08
197	0x32a4550a	1.9130784e-08
198	0x34334bb3	1.6698213e-07
199	0x336217e9	5.264147e-08
200	0x33897c6f	6.402194e-08
201	0x339c0b90	7.266419e-08
202	0x333d1a43	4.4028877e-08
203	0x3434a119	1.6822413e-07
204	0x336bdabe	5.4914146e-08
205	0x31e34867	6.6148007e-09
206	0x31c8af42	5.8406906e-09
207	0x325983db	1.2661043e-08
208	0x328023f4	1.491751e-08
209	0x33045c7f	3.081777e-08
210	0x34a1b471	3.0119875e-07
211	0x33b12644	8.249165e-08
212	0x33e95c95	1.08667486e-07
213	0x3384b283	6.1792e-08
214	0x333286ba	4.1566388e-08
215	0x3323aeee	3.8110493e-08
216	0x34878c71	2.5247894e-07
217	0x31ff5c83	7.431994e-09
218	0x31a2daaa	4.7396798e-09
219	0x3235ad4a	1.0574988e-08
220	0x3306de38	3.1401413e-08
221	0x32fdc684	2.954335e-08
222	0x3429d575	1.5817007e-07
223	0x33777ac5	5.7620827e-08
224	0x33bac5bd	8.697268e-08
225	0x334dbc88	4.790175e-08
226	0x3350c46d	4.8607422e-08
227	0x331fb539	3.7184893e-08
228	0x324747a5	1.1599615e-08
229	0x31d6c38e	6.2504517e-09
230	0x31d1ac3c	6.1022813e-09
231	0x326bda2f	1.37284095e-08
232	0x3336f66f	4.2599307e-08
233	0x33068611	3.132124e-08
234	0x3428f865	1.5736585e-07
235	0x338239ff	6.064146e-08
236	0x33a03023	7.4593366e-08
237	0x3380eff5	6.0041124e-08
238	0x334c2ac8	4.753636e-08
239	0x331d0b1c	3.6564515e-08
240	0x322a744f	9.921748e-09
241	0x351ce821	5.845232e-07
242	0x349c4d43	2.911348e-07
243	0x34aa72f7	3.1748615e-07
244	0x3523cfea	6.1024787e-07
245	0x33bb09a9	8.709623e-08
246	0x3407c761	1.2645388e-07
247	0x33dc7afc	1.0266919e-07
248	0x33787fbe	5.785818e-08
249	0x3392bfe6	6.833561e-08
250	0x33db9486	1.02249984e-07
251	0x33e3f28c	1.061463e-07
252	0x331f7e10	3.7134726e-08
253	0x34c39590	3.6430401e-07
254	0x36218884	2.4070332e-06
255	0x34a827ff	3.132154e-07

exp_avg f4 [64]
0	0x385fe7f8	5.338338e-05
1	0x3761a062	1.3448387e-05
2	0xb99fce3e	-0.00030480506
3	0x36cb085c	6.0508446e-06
4	0x3787c0f0	1.6183098e-05
5	0x3807b040	3.2350654e-05
6	0x37f4fdae	2.9205195e-05
7	0xb70668cf	-8.011425e-06
8	0x37e1fbf2	2.6939411e-05
9	0x381e8a0c	3.77987e-05
10	0xb8023e90	-3.105268e-05
11	0xb70751aa	-8.065641e-06
12	0xb5c61eb1	-1.4761082e-06
13	0xb591c38b	-1.0860252e-06
14	0x380e8ed9	3.3988475e-05
15	0x3668d94a	3.4697173e-06
16	0x38b0d21a	8.4314684e-05
17	0x38177f9a	3.6120044e-05
18	0x380bbfc2	3.331877e-05
19	0x370579ab	7.955746e-06
20	0x37a60ab6	1.979373e-05
21	0x38867a72	6.412425e-05
22	0x3656c4f6	3.2003131e-06
23	0x378dafff	1.6890464e-05
24	0x36ba529e	5.55285e-06
25	0x37d09af7	2.4867693e-05
26	0xb81a918f	-3.6852023e-05
27	0x38b76c0b	8.7462446e-05
28	0x374fc349	1.238363e-05
29	0x38907510	6.88826e-05
30	0x37b02582	2.09983e-05
31	0x37a37040	1.9483385e-05
32	0x37820018	1.5497251e-05
33	0x388f2eef	6.8275134e-05
34	0x39027939	0.00012442925
35	0x378d6dd1	1.6859647e-05
36	0x37d12278	2.4930792e-05
37	0x35e33edc	1.6931112e-06
38	0xb79b56fb	-1.8517943e-05
39	0x37627c31	1.3499565e-05
40	0x3743f25d	1.1679335e-05
41	0xb73aa57e	-1.1124996e-05
42	0x37549c48	1.2672572e-05
43	0xb80b0044	-3.314043e-05
44	0x373e91f3	1.1358864e-05
45	0x381ef8ca	3.790184e-05
46	0x378f8bb9	1.7111992e-05
47	0xb8a482e5	-7.8445104e-05
48	0x3886333f	6.399163e-05
49	0x3904b154	0.00012654561
50	0xb6a58898	-4.933285e-06
51	0x3894a53c	7.087967e-05
52	0x375ae5c9	1.3047314e-05
53	0xb7bf0a0e	-2.2773656e-05
54	0xb65eb0e4	-3.3183542e-06
55	0xb76285ce	-1.3501804e-05
56	0x36dff444	6.674354e-06
57	0xb896a48a	-7.183205e-05
58	0x3778b1a2	1.482331e-05
59	0x381337dc	3.5099554e-05
60	0xb787a149	-1.6168358e-05
61	0x3651a814	3.1241261e-06
62	0x36957054	4.4536228e-06
63	0x377f81f0	1.5229438e-05
