save_model/autoencoder_model_v2_32_16.pth (torch, 70302 bytes, 24 tensors)

encoder.0.weight f4 [32, 60]
000000 b3 fa 5d bb 71 59 48 bd b1 36 07 bd 02 d2 0d 3f
       -0.0033871352 -0.048913423 -0.033011142 0.5539857
000010 6f 44 37 be d8 90 a4 3f c9 ca 98 3e 5e 82 a3 bf
       -0.17897199 1.2856703 0.29842213 -1.277416
000020 78 02 35 be 74 53 90 bd ea d3 83 bd 6f ef f3 3d
       -0.17676723 -0.070471674 -0.06436904 0.11910903
000030 8d b8 d6 bb 8b 72 5d 40 10 64 07 c0 44 b5 3f 40
       -0.006552762 3.4601161 -2.1154823 2.9954386
000040 b9 67 7a be d5 41 a2 be f4 cd 7c 3c 34 cb 9c be
       -0.2445363 -0.3169085 0.015429962 -0.30623782
000050 18 a5 fc bd 1e b8 88 bf b5 bb 82 bf 68 39 81 bc
       -0.12336177 -1.0681188 -1.0213534 -0.015774444
000060 ce db c3 bc 11 43 92 40 82 97 1a 40 fb a2 d9 3d
       -0.023908522 4.570687 2.4154973 0.10626789
000070 2f 29 59 be c9 69 74 3e 45 38 14 bd bb 21 f8 bc
       -0.21207117 0.23868479 -0.036186475 -0.030289521
000080 fc 70 97 bd 52 fc 9c bc 7d 37 8c bc 4d da 36 bc
       -0.07394597 -0.019163284 -0.017116303 -0.011160445
000090 99 0e 0c bd 28 95 86 bf 51 a6 12 3f 20 10 99 be
       -0.03419361 -1.0514269 0.5728503 -0.29895115
0000a0 a8 bb 16 3e af 44 14 bf ff 47 1c 3e fa f5 de bd
       0.14720023 -0.579173 0.1526184 -0.1088676
0000b0 67 f5 c4 3c 05 b6 c0 3d 01 ee 42 3e a1 e3 3d bd
       0.024042798 0.094097175 0.19036104 -0.046359662
0000c0 57 c6 1c bd 57 90 17 3f 33 da 48 be 57 f2 ba 3e
       -0.03827509 0.5920462 -0.19614486 0.36513016
0000d0 0d c8 82 bd 49 e1 ca bd 60 d9 ca bb ca 2c 69 3c
       -0.06385813 -0.09906251 -0.006190464 0.01423187
0000e0 0a 51 1c 3d e3 c7 25 be 83 c5 00 3b 25 e7 d1 bc
       0.038163222 -0.16189532 0.0019648976 -0.025622914
0000f0 0f ea 3c 3d 68 c8 53 3e 61 01 28 bf ee e1 cd 3d
       0.046121653 0.20681918 -0.65627104 0.10052858
000100 2f 3d 88 3e ba 73 62 40 c2 f3 7f 3f c8 cd a5 3f
       0.2660918 3.5383134 0.9998132 1.2953424
000110 f6 15 d0 bf f5 96 94 be e9 51 24 40 52 43 5b bd
       -1.6256702 -0.2902142 2.5674994 -0.053531
000120 19 c9 b9 b9 0d 46 5d 3f e9 e8 d0 3f 9e 6d 15 40
       -0.0003543578 0.86435014 1.6321079 2.3348155
000130 89 5a 36 3f 83 61 e1 3e cb 24 8a 3f 0e 9d b5 3f
       0.71231896 0.44019708 1.0792478 1.4188554
000140 51 8a bc bf 3c e5 b8 bf 6f d2 ce 3f f3 0f 2b be
       -1.4729711 -1.4444957 1.6157969 -0.16705303
000150 4b 9e d5 bc ac 87 32 bf d3 d6 9b 3f fc 95 22 40
       -0.026076457 -0.6973827 1.2174934 2.5404043
000160 f9 90 3e bf 7c aa 27 bf 4a 51 50 3d e0 87 d5 3e
       -0.7443996 -0.65494514 0.050858773 0.41705227
000170 eb 62 05 3e 1d a6 b3 3b c0 65 1c bf a1 79 9a bd
       0.13026015 0.0054824487 -0.6109276 -0.0754273
000180 56 20 95 3d ef ef 03 40 a5 26 1c be 1f ea 66 3f
       0.07281558 2.0615194 -0.15249117 0.9020099
000190 5a 23 b9 3e 9c c4 1f bf 10 82 01 be 40 7d ed 3d
       0.36159784 -0.6240938 -0.12647271 0.11596155
0001a0 b3 83 ea 3e 61 5a 46 bf 66 94 a5 3f 01 0e 15 3e
       0.45803604 -0.7748166 1.2935913 0.14556123
0001b0 83 54 8c 3c ab b1 7a 3f a8 5d da be 95 76 79 be
       0.017130142 0.9792735 -0.4264958 -0.24361642
0001c0 1c 67 80 be dc 4a 13 bf ce 61 70 3e e3 0f 0f bf
       -0.25078666 -0.575361 0.2347481 -0.55883616
0001d0 bb 33 b4 3d 09 04 38 bf 8b de e4 3e 19 1f 51 bd
       0.08798929 -0.7188116 0.44701037 -0.051055048
0001e0 7d 01 2f 3e e1 96 57 3f 4d 39 d7 3e 5b 16 95 3f
       0.17090411 0.842146 0.42035905 1.1647447
0001f0 f5 85 82 bf 3b a0 45 40 71 67 d2 3e 15 72 8a 40
       -1.019713 3.0879047 0.41094545 4.326426
000200 a0 26 1e 3e aa 44 87 be 3b 46 65 bf 5d 8d fd bf
       0.15444422 -0.26419574 -0.8956029 -1.9808766
000210 0b 6f 49 3e 1b 44 4c c0 77 f0 95 3f 75 89 ee bd
       0.19671266 -3.1916568 1.1714009 -0.116473116
000220 e0 9c a4 bf 9c 77 06 41 08 87 05 bf 26 14 0e 41
       -1.2860374 8.4042015 -0.52159166 8.879919
000230 57 44 8a 3e a5 60 cb 3f f0 17 0e bf c8 18 aa bf
       0.27005264 1.5888869 -0.55505276 -1.3288813
000240 53 10 2c 3e e2 f7 22 40 b4 cb 0e 41 b5 78 92 c0
       0.16803102 2.5463796 8.924732 -4.5772347
000250 79 f6 7e 3f 9e 6e 3b 3e 69 58 e7 3d 37 21 90 bf
       0.9959484 0.18303916 0.1129616 -1.1260136
000260 32 e8 65 3d e9 f9 63 bf db e4 e6 3d 04 e1 0f bf
       0.05612964 -0.8905321 0.112741195 -0.5620272
000270 e8 b5 65 3d 8a 59 87 40 ef 79 42 40 1c 3f a9 3f
       0.056081682 4.22968 3.0386922 1.3222384
000280 8d 7c 1c bd 2a 4b 7b bf 18 a1 e7 3a f5 38 ee 3e
       -0.03820472 -0.98161566 0.0017671911 0.4652783
000290 e5 d1 6d 3f ee 4e d6 be 3f 56 7e 3f 5b 72 dc bc
       0.928984 -0.41857094 0.9935035 -0.026909998
0002a0 8f 22 89 3a 24 94 08 bf 31 34 14 bf e0 60 98 3d
       0.001046257 -0.53351045 -0.5789214 0.074403524
0002b0 ac 08 0d bf 99 29 c0 bf 74 dd 13 3a 22 bb 91 be
       -0.5509136 -1.5012695 0.0005640604 -0.28463084
0002c0 47 cc ce 3e 01 ed 42 bd 5a c0 39 3f ff 4c 0d be
       0.40390226 -0.047589306 0.7255913 -0.13798903
0002d0 ed 0e 61 be 00 7f bd 3f 02 76 cb 3e b1 41 ae 3f
       -0.2197835 1.4804382 0.3973847 1.3613797
0002e0 c6 72 83 3a 09 45 5a 40 bc b1 30 3e 4a 1f b5 3f
       0.0010028712 3.4104636 0.172553 1.4150174
0002f0 4a 65 96 bf 1c 4a 35 bf 16 4c ae 3f e8 4e 1b 3f
       -1.1749661 -0.70816207 1.361697 0.60667276
000300 0e 81 71 be 72 2a 9b bf 85 ed 64 40 a6 0c 08 40
       -0.23584387 -1.2122328 3.576997 2.125772
000310 24 42 27 40 19 c1 c4 40 14 04 00 40 9e b1 ed bf
       2.613412 6.1485715 2.000249 -1.856983
000320 23 a2 aa bf 6f 2c 34 bf f2 7f 6f 3f 22 44 6b 3e
       -1.333073 -0.703803 0.93554604 0.2297521
000330 79 78 d0 bd 1e ec 0d 40 9c b5 8e 3f a0 a5 f2 bf
       -0.10179228 2.2175364 1.1149173 -1.8956795
000340 88 66 1c 3f f9 03 34 be 2f 1a a5 3d 19 3e 19 be
       0.6109395 -0.1757964 0.08061635 -0.14965095
000350 f0 d1 6d bd 4d 78 34 bf c6 60 49 3f b7 b9 fb 3e
       -0.05806154 -0.70496064 0.7866329 0.49165127
000360 9d 4a 79 3f eb c2 68 bf f9 e5 a1 3f 02 71 cc be
       0.97379476 -0.9092242 1.2648307 -0.39929968
000370 3f ce c0 3e 85 aa 34 be 6c 7d fa 3e dc 3e a4 3e
       0.37657353 -0.17643173 0.48923814 0.32079208
000380 d0 16 95 bc 08 b8 9d bf 23 b9 e1 be c3 05 75 3e
       -0.018199354 -1.2321787 -0.4408656 0.23927979
000390 6c 58 64 bd b7 a2 aa 3f b9 1e 48 bf 21 cd d2 bf
       -0.05574839 1.3330907 -0.7817188 -1.646885
0003a0 34 3d 3b 3f f8 e9 7d 3e e9 26 70 bd 4d 64 11 3f
       0.73140264 0.24796283 -0.058630858 0.5679367
0003b0 30 61 41 3d 2b 43 d4 bf d5 05 be 3a 40 bd 7b be
       0.047211826 -1.6582998 0.0014497588 -0.24583912
0003c0 4e 88 6e be 10 e2 48 c0 89 7c ea 3f b9 8d e5 3f
       -0.23294184 -3.1387978 1.8319255 1.7933875
0003d0 32 10 e4 3e a6 ab f3 3f a0 c4 a4 bf 43 2e bd 3c
       0.44543606 1.9036758 -1.2872505 0.023093348
0003e0 51 b3 0e 3e f5 9a 50 40 36 68 2a bf 3b 8f 5f 40
       0.13935591 3.2594578 -0.66565263 3.493117
0003f0 10 b8 53 be 71 ed c3 40 6d 92 d2 40 16 a0 39 40
       -0.20675683 6.1227345 6.5803742 2.9003959

encoder.0.bias f4 [32]
000000 b7 10 f8 c0 04 77 ad c0 fb f1 20 c1 4a ab b2 c1
       -7.7520404 -5.4207783 -10.059077 -22.333637
000010 f0 45 ca c1 23 6f b5 c1 6c 93 48 c0 25 99 59 c1
       -25.28415 -22.679266 -3.133998 -13.599889
000020 6b 6b 2e c1 e9 0a a4 c0 2c 03 db c1 25 ca c8 c0
       -10.901225 -5.126332 -27.376549 -6.274676
000030 a9 1e 6d c1 31 cc 8e c0 50 45 c3 c0 21 7d 6e c1
       -14.819985 -4.4624257 -6.102211 -14.905549
000040 7b e5 3c c1 e2 67 92 c1 43 00 52 c1 54 66 0b c1
       -11.8060255 -18.300724 -13.125064 -8.712482
000050 96 db 4b c1 70 ab c1 c1 94 68 4b c1 f4 e9 11 c1
       -12.74111 -24.20871 -12.713032 -9.119617
000060 64 ac 9f c1 be eb 66 c1 aa 73 a1 c0 19 4b 12 c0
       -19.959175 -14.432554 -5.045369 -2.2858336
000070 16 7b 05 c2 ed ea 5d c1 51 3b 40 c1 26 fd 5f c1
       -33.3702 -13.869855 -12.014482 -13.999304

encoder.3.weight f4 [16, 32]
000000 7b 66 8c c2 a8 41 04 c2 4d d4 70 c1 dd 62 85 c2
       -70.20016 -33.064117 -15.051831 -66.69309
000010 64 79 60 c2 e8 42 82 c1 ce d4 50 c2 fb 48 9b c1
       -56.118546 -16.28267 -52.207817 -19.410635
000020 d7 8f 21 c2 49 73 e4 bd 57 1e dc c1 8f 80 87 c1
       -40.39047 -0.111548014 -27.514814 -16.937773
000030 93 4e 2d c2 ee 3e 8a c2 8f 6c 91 c1 16 fe 03 c2
       -43.326733 -69.12291 -18.178007 -32.99813
000040 94 59 e6 c1 9e e0 92 c1 69 ea e6 c1 ea e0 96 c1
       -28.79374 -18.359676 -28.864458 -18.859821
000050 f8 3e 42 c1 fd 61 54 c1 24 be 96 c1 7c b0 96 c1
       -12.140373 -13.273923 -18.842842 -18.836174
000060 5b 52 8c c1 3a b7 92 c1 5e a3 98 c1 33 f4 7e c1
       -17.540213 -18.339466 -19.07977 -15.934619
000070 e9 ec a7 c1 a4 ff 35 c1 12 c1 da c0 55 57 53 c1
       -20.990679 -11.374912 -6.836068 -13.208821
000080 eb b8 b0 c1 09 3f 04 c2 3a 9f 25 c2 79 cd 63 c2
       -22.090292 -33.061558 -41.405495 -56.950657
000090 d5 c1 e6 c1 9d 40 87 c1 c5 91 fa c2 98 64 c9 c0
       -28.844645 -16.90655 -125.284706 -6.2935295
0000a0 d1 55 5c c1 96 77 84 c1 b3 ae 34 c2 e8 46 81 c1
       -13.770951 -16.558392 -45.170605 -16.159622
0000b0 d7 42 05 c2 1b 73 0c c2 30 bf 17 bd 7d 3a 92 c1
       -33.315273 -35.112408 -0.037047565 -18.278559
0000c0 3a cb b8 c2 dc 3b e7 c1 6e 4b c0 c1 81 07 02 c2
       -92.39693 -28.904228 -24.03683 -32.507328
0000d0 73 be 92 c0 6b 96 6e c2 98 a4 40 c1 c5 a5 0c c1
       -4.585748 -59.646893 -12.040184 -8.790471
0000e0 07 35 2e c1 01 9a a2 c1 0b 8f 1d c1 4f 3a 91 c1
       -10.887946 -20.325197 -9.847423 -18.153471
0000f0 0e 58 13 c1 58 31 94 c1 ed fe d7 c1 ad 04 ea bf
       -9.208998 -18.524094 -26.999475 -1.8282677
000100 86 6d 77 c0 e4 48 f4 c2 fa a6 61 c2 1d d1 82 c2
       -3.8660598 -122.142365 -56.413063 -65.408424
000110 d7 de 7b c2 a3 90 50 c2 18 7a 8e c2 fc 8c 17 bb
       -62.967617 -52.141247 -71.238464 -0.0023124805
000120 d0 64 10 bc f4 ae bb c2 a6 6b e1 c2 8e 7b 1e 3e
       -0.008813098 -93.841705 -112.71025 0.1547682
000130 66 b7 28 c2 a5 b7 0d bf 82 ce 12 bf b2 b3 98 c2
       -42.1791 -0.55358344 -0.57346356 -76.35097
000140 99 32 6a c2 be 7f 92 bd 16 d9 be c1 87 03 aa c2
       -58.54941 -0.07153271 -23.855999 -85.00689
000150 42 e4 52 c2 63 b6 61 c1 2e 73 8f c2 12 e3 86 c3
       -52.722908 -14.107028 -71.72496 -269.774
000160 ff f3 ed c1 9a f2 dd c2 76 95 c9 3e 29 cb 6c bf
       -29.744139 -110.97383 0.39371842 -0.924975
000170 db d5 11 c2 4d 32 38 c2 7d 28 e4 c2 de 55 5b c2
       -36.458843 -46.04912 -114.07908 -54.833855
000180 a4 84 5d c1 72 22 71 c1 ec b7 02 c0 f6 af a7 c1
       -13.844883 -15.0709095 -2.0424757 -20.960918
000190 c1 1f a1 c1 e2 c4 1c c2 6f 0e 99 c2 07 99 7c c1
       -20.140505 -39.19227 -76.52819 -15.78736
0001a0 d0 00 7e bf 85 92 cb c0 26 11 fd bf 60 0c 88 c0
       -0.9921999 -6.3616357 -1.9770858 -4.2515106
0001b0 14 ac 0d c1 5d d9 83 c3 40 ab e9 c0 2f 15 25 c0
       -8.854511 -263.69815 -7.3021545 -2.579418
0001c0 b0 42 19 c0 09 cf 18 c3 40 3e 90 c0 b7 5d 8b c3
       -2.3946953 -152.80873 -4.507599 -278.73215
0001d0 d6 b0 92 bb 4d 51 2c c1 e4 5a 28 c0 fd 06 85 c1
       -0.004476647 -10.769849 -2.6305475 -16.628412
0001e0 06 bf 0c bc 9f 4d 2e c1 c1 52 78 c0 96 f9 de c0
       -0.008590465 -10.89395 -3.880051 -6.967967
0001f0 1e eb 07 c1 2b c9 8a c0 0b 05 5c c1 9a 8d fa c0
       -8.494902 -4.3370566 -13.751231 -7.8297853
000200 ad 37 81 3a fc d4 cf 39 0d e9 71 3f d7 33 3f 3a
       0.0009858512 0.00039640802 0.9449623 0.00072937965
000210 82 ea 01 3a 3e dc 3d 40 d5 2d bc 39 66 b9 8b 3b
       0.0004955904 2.9665675 0.00035892302 0.0042640446
000220 b2 b1 2a 3b 28 7e 2d 39 21 c9 8f 40 59 49 0a 3f
       0.0026045856 0.00016545563 4.493302 0.5401817
000230 19 58 ac 3e f5 bd ba 3f b5 a2 0e 3a 55 38 61 3b
       0.33660963 1.458922 0.00054411154 0.0034365852
000240 85 67 b7 39 e9 a4 5a 3f 8b 88 f5 40 cc dc 8e 3a
       0.00034981608 0.8540788 7.672918 0.0010899543
000250 36 89 90 3f 50 d2 b4 ba 00 29 5d 39 92 d0 0c bb
       1.1291873 -0.0013795588 0.00021091476 -0.0021486622
000260 78 88 2c 3d 21 51 6c 40 2e 69 ea 3d 52 87 1a 3a
       0.042122334 3.6924517 0.11445843 0.0005894798
000270 e4 d5 a7 ba 41 15 e4 3b 91 e1 ae b9 b4 8b 15 40
       -0.0012804833 0.0069605415 -0.00033355926 2.3366518
000280 6e 77 a3 c1 c0 17 3d c2 4c e5 1c c1 c1 00 b8 c2
       -20.433315 -47.273193 -9.805981 -92.00147
000290 22 c9 8e c1 82 b6 70 c3 ae ce c6 c2 26 a7 39 c2
       -17.84821 -240.71292 -99.40367 -46.41323
0002a0 ae 3d fd c1 b4 a0 0f c3 a0 0f b7 c1 a2 53 e8 c1
       -31.655117 -143.62775 -22.88263 -29.040836
0002b0 cd 4d 3c c2 18 9b 4d c2 78 c8 cd c1 4c 5c 26 c2
       -47.075977 -51.40146 -25.722885 -41.590134
0002c0 af b6 0f c2 8d b3 39 c1 84 26 46 c2 b7 ba 45 c2
       -35.928402 -11.606336 -49.537613 -49.43234
0002d0 e8 a0 86 c0 fa 42 1d c2 b3 62 6b c2 07 e5 9c c2
       -4.207142 -39.315407 -58.846386 -78.44732
0002e0 6e d2 d3 c1 77 17 10 c2 ea 3c 65 c2 b8 f1 4e c2
       -26.477749 -36.022915 -57.309486 -51.736053
0002f0 9c 1d a2 c1 01 ea 04 c2 31 df 3a c2 9c 77 fc c1
       -20.264458 -33.22852 -46.71796 -31.558403
000300 14 ff 97 c1 5e df bd c1 da b8 3c c1 bd e7 91 c1
       -18.99955 -23.734066 -11.79513 -18.238153
000310 47 cb a9 c1 8a aa 11 c1 7a dc 2e c3 af 16 49 c0
       -21.224257 -9.1041355 -174.86124 -3.1420095
000320 ad ef 8e c2 b3 cf a7 c2 fe d9 12 c2 bf 9f ab bc
       -71.46812 -83.90566 -36.712883 -0.020950196
000330 aa 09 0e c3 dc 6f aa c1 d1 cc 9c c1 84 bb 96 c1
       -142.03775 -21.304619 -19.600008 -18.84156
000340 3a 8c 0c c2 31 5d 32 be c7 bb c5 c2 5d 22 3e c3
       -35.13694 -0.17418362 -98.86675 -190.13423
000350 1b 04 bb c1 41 16 ea c0 63 d3 d7 c1 d8 64 05 c2
       -23.377005 -7.3152165 -26.978216 -33.34848
000360 d6 22 00 c1 d3 26 bf c1 0e 75 dc be 49 6c dc c1
       -8.008505 -23.893957 -0.43058056 -27.552874
000370 d4 44 17 c1 52 dc 92 c1 e3 59 92 c0 47 78 74 c1
       -9.454304 -18.357578 -4.5734725 -15.279365
000380 c9 f5 a9 c2 e3 d2 c6 3a 40 c9 0b c3 59 7c bd 3e
       -84.98005 0.001516905 -139.78613 0.37008932
000390 ca 3e 73 c3 82 a6 b4 bc d8 ff 33 c3 c6 d4 13 bd
       -243.24527 -0.022052053 -179.99939 -0.03609159
0003a0 f0 fe 20 3c 3a ca b8 c3 7e dd fa c2 25 ba e7 bb
       0.009826407 -369.5799 -125.4326 -0.0070717507
0003b0 0e 76 1e bd b8 f1 11 bc c6 e8 f4 3a 8c cb 93 bb
       -0.038686804 -0.008907728 0.0018685095 -0.0045103487
0003c0 03 38 2c c3 48 05 65 3f 24 eb 89 c3 07 6a 41 c2
       -172.2188 0.89461184 -275.83704 -48.353542
0003d0 35 f8 e5 c2 6d 56 b3 c1 7f c5 77 c3 26 62 d7 3d
       -114.98478 -22.4172 -247.77147 0.10516767
0003e0 d9 9b 1f 3b aa b1 09 bd e2 47 d2 3d d6 0e 1e 3b
       0.0024354367 -0.0336167 0.10267617 0.002411773
0003f0 42 82 74 3d 5c 84 31 c3 e2 2d fa 3b b5 58 30 bc
       0.059694536 -177.51703 0.007634864 -0.010763337

encoder.3.bias f4 [16]
000000 a2 6b b9 bb 39 fb 5a bb 31 38 c7 3c 0c e0 fd bd
       -0.005658583 -0.00334139 0.024318786 -0.12396249
000010 33 fd f0 3f 1e a8 af bb 2b cf 78 3f 03 c0 71 40
       1.882727 -0.0053606173 0.97191113 3.7773445
000020 f2 8d a8 3f 18 34 78 be 92 b3 b8 bb 3a 05 59 bd
       1.3168318 -0.24238622 -0.005636641 -0.0529835
000030 d2 f6 03 3f be f7 5d bd 7b 99 de be 22 75 c5 bb
       0.5154849 -0.054191343 -0.4347647 -0.006025926

decoder.0.weight f4 [32, 16]
000000 b7 e2 b1 c0 66 f0 7e c0 8a f2 4e 3f bb fe 98 3e
       -5.558925 -3.9834228 0.80838835 0.29881844
000010 ce b3 60 3c d3 4d 2c c0 c4 b8 cc 3f 4e 50 62 bd
       0.013714744 -2.69225 1.5993886 -0.055252366
000020 ce a4 54 bd 97 68 57 bf 27 8c 35 c0 0e 1c 03 3e
       -0.051914982 -0.84143966 -2.8366792 0.12803671
000030 6b 0b 1f 3f dc 7a 86 3e da 0f b2 3f aa e5 6e bf
       0.621268 0.2626561 1.3911088 -0.9331919
000040 50 c2 45 40 ff 18 f4 3f d0 b1 12 3f ad 46 81 bf
       3.089985 1.9070128 0.5730257 -1.0099694
000050 54 71 e4 bc 28 9c 42 3d f8 78 a9 3f 70 bd dd bd
       -0.02788607 0.047512203 1.3240042 -0.10827148
000060 69 b9 73 bd 87 7c 98 3e fa 9a e6 bf 10 31 b8 bd
       -0.059502993 0.29782507 -1.8016045 -0.08993733
000070 c2 de 6a 3f 04 4b af ba dd 08 96 3f 2c 8e cd be
       0.9174615 -0.0013373797 1.1721455 -0.4014753
000080 eb 03 4c bf f2 8a 42 be b7 de 6c bb 1c c2 9b bf
       -0.7969348 -0.18998316 -0.003614349 -1.2168612
000090 92 85 cb bf 8d 69 74 3e 1c 0e 3e bf ed c0 bf be
       -1.5900137 0.2386839 -0.7424028 -0.37451878
0000a0 62 f1 10 bd a1 0d ec bd a3 16 44 be 3c d5 fe 3e
       -0.03538645 -0.11526037 -0.1914926 0.4977206
0000b0 92 83 97 c0 79 64 be bf 88 b0 ff 3e 3e 39 2f c0
       -4.734811 -1.4874412 0.4993937 -2.7378688
0000c0 03 8a 29 40 64 85 c8 be 0d fc bc 3e 7d 99 5a bf
       2.6490486 -0.3916427 0.3691105 -0.85390455
0000d0 25 23 f2 bb b0 f8 b2 3f 0b 30 d9 bf ad 5f 7e bc
       -0.0073894435 1.3982143 -1.6967787 -0.015525741
0000e0 f6 4e 26 40 1e 4c 3c bf 8e 57 31 c0 51 d9 32 3f
       2.5985694 -0.73553646 -2.770969 0.6986285
0000f0 65 44 85 3f bb c8 11 3b 85 8c 31 3d ae 3d 83 bf
       1.0411497 0.0022244889 0.0433469 -1.0253198
000100 0f f0 96 3e 5a 36 06 c0 37 03 0f be 64 d6 d5 bf
       0.29480025 -2.0970674 -0.1396607 -1.6706052
000110 2a 02 11 bb 93 63 06 c0 69 fe a7 3d 5d d1 0b bd
       -0.0022126534 -2.0998275 0.08202822 -0.03413521
000120 11 6f 21 be ca 2d 30 bf 44 cc a3 c0 5c 72 2f 3e
       -0.15765025 -0.6881987 -5.118685 0.17133468
000130 9a 99 0b bc a9 6e a5 c0 af de a8 bf 7c 20 a8 bf
       -0.008520508 -5.1697583 -1.3192958 -1.3134913
000140 84 13 c7 3f 54 ed a2 3f 7c 71 f8 3d 6b 96 27 c0
       1.5552831 1.2728677 0.121310204 -2.6185558
000150 e6 43 49 c0 c0 61 8f bf 72 73 72 bc 64 5f 84 bc
       -3.1447692 -1.1201706 -0.014798032 -0.016158767
000160 fa 9e bc bd 91 3b e6 be 68 ae 0f 40 a4 e4 0b be
       -0.0921001 -0.4496732 2.24502 -0.13661438
000170 da fc cd ba e6 a9 02 3b 67 4c 21 bf a8 91 87 c0
       -0.0015715614 0.0019937693 -0.63007206 -4.2365303
000180 d2 1d 9c 40 e4 dc 4d 40 e5 ee a9 3e b4 4d dd bf
       4.87864 3.216607 0.33190075 -1.7289338
000190 26 ba 50 c0 0e fd a4 3c 1a 88 15 3d 92 04 be bd
       -3.2613616 0.020140197 0.03650675 -0.092782155
0001a0 1c d0 49 bd fe c9 83 be 84 fa 67 40 7d 72 ad bd
       -0.049270734 -0.25740045 3.6246653 -0.084691025
0001b0 14 4c 88 bf a6 4c 12 bc 8e 24 1a 40 a5 7d 0f be
       -1.0648217 -0.008929407 2.4084811 -0.14012773
0001c0 ab 99 bf be 8c 37 ab 3f 32 06 b0 be 03 e8 1b bf
       -0.37421927 1.3376327 -0.34379727 -0.60900897
0001d0 e7 65 c2 be db 1e a6 3f 65 51 18 bf f1 24 14 be
       -0.3796837 1.2978166 -0.594992 -0.14467217
0001e0 69 58 fb be 38 fa 9d 3f 45 88 65 3f d3 03 06 3f
       -0.4909089 1.2341986 0.89661056 0.52349585
0001f0 ea e4 0b c1 6f 24 a4 be 25 da c4 3d bd 92 b2 bf
       -8.743387 -0.32059047 0.0961192 -1.3951031
000200 a9 65 3d 3c 1b 2e e2 c1 77 d7 f0 3e 0f 6c 2a 3e
       0.011559882 -28.272512 0.47039387 0.16642784
000210 44 c1 ac bd 88 1e b9 3f ad be 79 c0 40 2c e3 be
       -0.084353 1.4462442 -3.902263 -0.44369698
000220 a3 3b 4d c0 2f 82 87 be d7 3f 5d bd 50 97 7e bc
       -3.206765 -0.2646651 -0.05401596 -0.015539005
000230 38 c8 ed c0 3d a4 01 bc d9 e2 fc 3f 04 b7 c2 3d
       -7.430691 -0.007912693 1.9756728 0.09507564
000240 42 fb 11 3e 7f 0d a2 c0 70 1f 2a 40 4a 41 b0 3f
       0.14256003 -5.0641475 2.6581688 1.3769925
000250 83 80 3b 3e 02 4f 75 c0 54 05 28 40 29 4f 09 3c
       0.18310742 -3.8329473 2.6253252 0.00838069
000260 5e ba 8e 3f 6a e2 6d 3f fd 1f db bf 7c 7c 67 3e
       1.1150625 0.92923605 -1.7119137 0.22606081
000270 cb f2 ce 3e db 0a 10 3f 8a 7a 50 3f 00 7a 69 bf
       0.4041961 0.56266564 0.8143698 -0.9120178
000280 9b c1 1c 3f 36 46 a1 c0 4d 5a 21 40 26 8c 04 bf
       0.6123292 -5.0398207 2.5211365 -0.5177635
000290 80 74 47 3e a9 80 84 3f b8 34 00 40 e0 60 58 3d
       0.19478035 1.0351764 2.0032177 0.052826762
0002a0 cf 85 a0 3f 37 65 89 be 0b e3 a6 3f 41 26 0b 3e
       1.2540835 -0.26835033 1.3038038 0.13588811
0002b0 a2 ac e0 3d b6 82 07 3e 83 47 a7 be f1 70 8f bf
       0.10970427 0.13233456 -0.32671747 -1.1206342
0002c0 a9 4b de 3b 07 47 16 40 a0 c4 98 3f 87 8a 3b bf
       0.0067839217 2.3480852 1.1935005 -0.7325825
0002d0 e5 b8 b8 3d 6d eb 97 3f a2 3a 18 3f 6e cf fc be
       0.09019641 1.1868721 0.59464467 -0.49377006
0002e0 c7 8c 3e 3f 40 4a 27 3a a0 fe bc bf a6 ec 0c be
       0.7443356 0.00063816085 -1.4765205 -0.13762149
0002f0 a0 45 14 3d 97 6e 04 3c b6 cb 07 bc cb de 5d bf
       0.036199212 0.008083007 -0.008288315 -0.8666808
000300 ca e5 13 3f e9 6d f3 3f c9 a3 0c 3f 3b cd 43 bf
       0.57772505 1.9017917 0.54937416 -0.7648503
000310 b1 8b c1 3c ac 51 7b bf b2 eb 7b be 73 d3 02 c0
       0.02362618 -0.98171496 -0.2460163 -2.0441558
000320 af a6 b4 3e 54 35 d8 be 51 e5 7d 3f 1e 35 76 3c
       0.3528342 -0.42228186 0.99178034 0.015027313
000330 b1 9d 0e 3c 0a 28 8c 3b 73 ea 04 bf 59 72 da bd
       0.008704589 0.004277234 -0.5192024 -0.10666341
000340 1e 6a c3 3a 1d ce 4d 3c 6a bf 14 bd ce f6 58 3a
       0.0014908945 0.012561348 -0.03631536 0.0008276523
000350 11 16 37 c0 78 fd 90 be 6f 4b c3 bd 19 1c 4b 3e
       -2.8607218 -0.2831838 -0.09535872 0.19834937
000360 22 1f b8 bf e7 03 de 3e c7 f2 f2 3f f6 47 fc 3e
       -1.4384501 0.43362352 1.898034 0.49273652
000370 b5 c5 8d bf f7 b1 a1 bf de 2a 07 3f 0a 43 13 bf
       -1.107596 -1.2632436 0.52799785 -0.5752417
000380 bb 8f e2 3e bb 35 e5 3f ea 75 fb 3e 84 c9 ef 3f
       0.44250283 1.7907022 0.491134 1.8733373
000390 fc 23 3e 3d e1 9c a5 be 91 5b 85 3f 5c d5 11 bd
       0.046421036 -0.32346252 1.0418569 -0.035603866
0003a0 1f 6f 41 bc a1 21 70 3f 64 fc 42 3f 85 3f e0 be
       -0.0118062785 0.93801314 0.7616637 -0.43798462
0003b0 a3 2b 73 bb 6d 06 96 3f 4f 3c e5 3f 8d f9 ca bf
       -0.0037104867 1.1720711 1.790903 -1.5857407
0003c0 28 39 22 40 62 02 5d 40 04 a4 af 40 72 86 20 c0
       2.5347385 3.4532704 5.4887714 -2.508206
0003d0 9a f9 de 3e 08 55 34 40 4a 5d 4d 40 73 aa 5d be
       0.43549806 2.81769 3.208819 -0.21647052
0003e0 19 72 38 40 0e 1e 18 3f e6 f6 71 40 1c 99 8b 3e
       2.881964 0.5942086 3.7806945 0.2726525
0003f0 06 8f 43 3d f6 bb b8 3d 29 50 2e 40 91 2e c4 bf
       0.04774382 0.09020226 2.7236426 -1.5326711

decoder.0.bias f4 [32]
000000 4b 45 ca 3d 31 46 45 3f d7 d8 23 40 95 e6 95 bf
       0.09876498 0.7706023 2.5601099 -1.1710993
000010 bd 93 7c 40 c4 f5 d1 40 00 2b d8 40 e1 78 02 3f
       3.9465172 6.5612507 6.755249 0.50965697
000020 df 02 85 40 7c a4 ea be 0d ce 8c 3e f8 08 8e 40
       4.1566005 -0.45828617 0.27500954 4.438595
000030 dc ca 07 41 e9 18 a7 3f 31 e2 55 3f 68 9d 95 bf
       8.487026 1.3054477 0.83548266 -1.1688662
000040 43 f0 91 bf a2 86 33 c0 7e df 34 bf cd 77 31 41
       -1.1401447 -2.8050923 -0.7065352 11.091748
000050 7b 20 fe 40 4f ab 18 3f 0a 39 90 c0 90 47 df be
       7.941465 0.59636396 -4.506963 -0.43609285
000060 9c d5 7a 40 af 74 97 40 81 4b 4e 3f c9 67 9f 40
       3.9192877 4.7329936 0.8058396 4.981419
000070 0e d8 2c 40 f4 97 d3 40 f6 8b 66 40 bb d2 19 c0
       2.700687 6.612299 3.6022925 -2.403487

decoder.2.weight f4 [60, 32]
000000 2a 78 15 40 48 42 78 bf a4 00 e1 3d 0e 3d 4c bf
       2.3354592 -0.9697614 0.1098645 -0.7978066
000010 a4 4d 39 3b c8 70 a3 be 76 7c 6b 40 57 ab ba be
       0.0028275037 -0.31921983 3.6794715 -0.36458847
000020 0b 86 b3 3d 41 20 63 bf 5a 19 83 3f 8c ed 96 3e
       0.08765801 -0.8872109 1.0242112 0.2947811
000030 7d 65 00 c0 c0 b2 50 3f 13 2b 8e bd 21 41 23 3d
       -2.0061944 0.8152275 -0.069418095 0.039857034
000040 ac b0 a3 bc 4a 5c 54 3d b4 ab bd be b1 4a f9 3d
       -0.019981705 0.051845826 -0.37045062 0.121724494
000050 db fd 00 40 58 a1 bf 3e 6b e4 18 3f 52 ad 93 3f
       2.015494 0.37427783 0.5972354 1.1537268
000060 c1 7f 12 41 f4 f0 0a c1 c0 9c de 3d f9 56 38 bf
       9.15619 -8.683826 0.108697414 -0.7200771
000070 ab a2 01 c0 05 8c 3e be 84 da f6 bd cc ef c8 bf
       -2.0255535 -0.186081 -0.12053397 -1.569818
000080 5c e1 81 3e 3e 0b 7d 3e 26 6a 36 3e 25 18 58 40
       0.25367248 0.2471132 0.1781393 3.3764737
000090 fa 49 cf 3b 6e 0d e3 3e e5 c9 79 3f 89 d8 78 c0
       0.0063259574 0.44346184 0.9757369 -3.8882163
0000a0 94 21 fd bd 36 fb 75 bd 7f 1b da be 85 e6 53 3e
       -0.1235992 -0.060054027 -0.42599103 0.20693405
0000b0 08 e0 83 3e de 24 f8 be 01 50 90 3f 36 4b 18 bf
       0.2575686 -0.48465627 1.1274415 -0.5948976
0000c0 e1 1d 31 3f 4e 3b ac bc 10 09 d4 3b 02 ec a4 3f
       0.69186217 -0.021024372 0.006470807 1.2884524
0000d0 45 41 b4 be 7e dd e1 bf 29 64 88 be c7 f6 3d c0
       -0.35206047 -1.7645719 -0.26638916 -2.968187
0000e0 7d bd 08 c0 1b 99 c1 bf 84 28 5c bf cd 78 00 3f
       -2.1365654 -1.5124849 -0.8599932 0.5018433
0000f0 3f 4f 23 3e d5 59 0d c0 1d 48 9e 3e a4 c3 89 be
       0.15948199 -2.208608 0.30914393 -0.26907074
000100 b9 95 80 3e bb c5 7c 3e 3c 05 c1 3d f6 e3 57 40
       0.2511423 0.24684803 0.094248265 3.3732886
000110 48 59 d3 3b f9 c8 e2 3e 33 f4 74 3f 23 49 78 c0
       0.006449852 0.44293955 0.9568512 -3.879464
000120 f7 56 fa bd 0f 33 83 bd 95 a3 d6 be 07 8a 54 3e
       -0.122236185 -0.06406223 -0.41921678 0.20755778
000130 76 ff 85 3e 1d c5 f4 be 13 3d 90 3f 36 9a 18 bf
       0.26171464 -0.47806635 1.1268638 -0.5961031
000140 ba e2 30 3f 76 9b 09 bc 36 1e c1 3b f9 aa a4 3f
       0.6909596 -0.008398881 0.005893494 1.2864677
000150 66 2d b6 be 56 59 e1 bf 7f c4 91 be 45 10 3e c0
       -0.3558151 -1.7605388 -0.28470227 -2.969743
000160 f4 d4 06 c0 6d 6e bd bf 17 2d 5b bf 30 21 ff 3e
       -2.1067476 -1.4799324 -0.85615677 0.49830008
000170 11 c3 2c 3e 99 23 0d c0 bd 68 9d 3e 47 5f 91 be
       0.16871287 -2.2052977 0.3074397 -0.28393003
000180 71 d7 81 be 57 25 7d be 09 91 21 3d 21 18 58 c0
       -0.2535968 -0.24721275 0.039444957 -3.3764727
000190 22 40 cd bb eb dc e2 be f8 f9 7d bf 32 65 78 40
       -0.0062637487 -0.44309172 -0.9920955 3.8811765
0001a0 d2 e0 ff 3d c8 d0 89 3d f6 2b da 3e 6f 84 53 be
       0.12494053 0.06729275 0.42611665 -0.20655988
0001b0 ab 5d 82 be 75 d8 fa 3e f0 02 91 bf 4a d3 17 3f
       -0.25462088 0.4899327 -1.1329021 0.59306777
0001c0 ac 5e 31 bf 32 c4 d7 3c 25 ce cf bb d2 0d a5 bf
       -0.6928508 0.02633867 -0.006341713 -1.2894843
0001d0 40 f3 b2 3e a0 40 e2 3f 4e 87 73 3e 30 a8 3d 40
       0.3495121 1.7675972 0.23782083 2.9633904
0001e0 7e 84 0a 40 31 fb c4 3f 69 06 5d 3f 62 24 01 bf
       2.1643367 1.5389158 0.86337906 -0.5044614
0001f0 77 39 28 be 0f 75 0d 40 03 42 9f be 27 58 70 be
       -0.16428171 2.2102697 -0.3110505 -0.23471127
000200 94 7f 41 be 37 2f 12 bf 42 92 2c bf 17 97 3e c0
       -0.18896323 -0.57103294 -0.6741067 -2.9779718
000210 e7 bd 87 bb b4 2e d7 be 92 86 aa bf c4 94 77 c0
       -0.004142511 -0.4202782 -1.3322318 -3.868455
000220 5e 74 c0 3d 9b 51 5b 3e 98 83 92 bc cd 7a f0 bd
       0.09397195 0.21417849 -0.017885014 -0.117421724
000230 74 1b a4 be bd ea 77 be e6 76 7c bf 74 02 06 3f
       -0.32052195 -0.2421064 -0.98618925 0.52347493
000240 9e 58 0b bf 74 9c aa 3d 04 e7 82 bd 31 8f 90 bf
       -0.54432094 0.08330622 -0.06391719 -1.1293699
000250 5b 8e c9 3e d2 51 c1 3f a9 71 94 3e 34 2b 2c 40
       0.3936642 1.5103095 0.28992966 2.690137
000260 d7 82 dd 3f a3 4c 07 40 b3 1d 3b 3f 5d 0a 1d bf
       1.7305554 2.1140525 0.7309219 -0.6134394
000270 a5 70 fe 3e 7a ea f9 3f f1 5f 74 be 34 30 f8 3d
       0.49695316 1.9524682 -0.23864724 0.12118569
000280 51 49 cb be c5 f5 52 bd 39 73 3a bf d4 62 54 c0
       -0.39704373 -0.051503915 -0.72832066 -3.318532
000290 c7 59 58 3c ad 1d ce be 25 8d b6 be 67 cb 75 40
       0.013204998 -0.40257016 -0.3565456 3.8405397
0002a0 27 30 32 3e 95 f6 0d be 1c 33 6a 3f 97 6a 34 be
       0.17401181 -0.13863595 0.91484237 -0.17618786
0002b0 fa f7 3d be dc f5 94 3e 5f 1e 6c bf 69 9c 1c 3f
       -0.18551627 0.29093826 -0.9223384 0.6117616
0002c0 25 bc 5f bf 0d 8b 82 bd 1a 0a 1f bc a8 9d a1 bf
       -0.8739646 -0.06374178 -0.009706998 -1.2626238
0002d0 e4 27 92 3e be 0d e5 3f 88 38 93 be 43 b5 31 40
       0.2854606 1.7894819 -0.28754067 2.7766883
0002e0 93 28 35 40 2f ae 74 3e 99 a5 72 3f d4 ea 9e be
       2.8306015 0.23894571 0.9478393 -0.31038535
0002f0 22 27 66 be d6 a4 08 40 e9 6b b2 be d4 33 1d 40
       -0.22475865 2.1350608 -0.34847954 2.4562883
000300 b5 c1 37 bf 4a 22 06 3e 92 d5 f9 bf e1 38 45 c0
       -0.7177995 0.13099018 -1.9518301 -3.0815966
000310 d0 64 2f 3d 87 fd b9 be df eb bb bd 64 e0 73 40
       0.04282075 -0.3632624 -0.09175848 3.8105707
000320 c7 0b 2c 3e 00 b3 cc bd dc 91 67 3f b9 26 36 be
       0.16801368 -0.09995079 0.9045694 -0.17788209
000330 ba 9d 3b be d6 b7 88 3e c2 e0 23 bf a3 f7 0d 3f
       -0.18321887 0.26702756 -0.6401483 0.5545599
000340 2c 31 53 bf 93 1b 31 be 05 5e 17 be c8 0e 95 bf
       -0.82496905 -0.17295675 -0.1478196 -1.1645136
000350 00 4f 8c 3e b4 e3 d7 3f b5 de c3 3e e1 b3 23 40
       0.27404022 1.6866364 0.3825585 2.557854
000360 03 76 1e 40 27 73 c1 be fe fc 77 3f a6 3e b5 be
       2.4759529 -0.37783167 0.9687041 -0.3539936
000370 6e 16 9f be e3 8c fc 3f 89 d7 a6 be 4d f7 8a c1
       -0.310718 1.9730495 -0.32586315 -17.370752
000380 43 b6 20 3e 0c 0e 8a 3e 8b 7e 3e c0 85 67 56 40
       0.15694527 0.26963842 -2.9764736 3.3500683
000390 ce 88 32 bb ba 03 cd 3e 22 38 84 3e 59 6a 72 c0
       -0.0027242186 0.40041906 0.25824076 -3.787741
0003a0 25 44 28 be 79 c9 9f 3b 7b 82 3f bf 8f 52 24 3e
       -0.16432245 0.0048763123 -0.7480847 0.16047119
0003b0 bf 7b 42 3e d0 d0 02 bf 4f fe 87 3f 6c ec 21 bf
       0.18992518 -0.5109987 1.0624484 -0.63251376
0003c0 1b 32 64 3f 7d 29 09 be cc f4 37 bd f1 88 a3 3f
       0.89138955 -0.13394733 -0.04491119 1.2776166
0003d0 54 0f 94 be 8a 19 e3 bf 60 dd 0e 3e 0f 6b 36 c0
       -0.28917944 -1.7742169 0.13951635 -2.8502843
0003e0 c6 c3 2b c0 14 48 a1 bd 80 33 66 bf 10 0d 90 3e
       -2.683824 -0.07875076 -0.8992233 0.28134966
0003f0 b3 32 1d 3e 2b 3f 0a c0 7c f0 ae 3e 49 d4 d5 c0
       0.15351371 -2.1601055 0.3416785 -6.6821637

decoder.2.bias f4 [60]
000000 00 0a 95 40 bc 8b e3 3c ac 5f 73 bc cb 7a 98 bc
       4.6574707 0.027776591 -0.014854353 -0.01861324
000010 7b 06 b0 bf 87 f1 6b bf 78 38 83 bf 40 65 36 3f
       -1.3751978 -0.92165416 -1.0251608 0.71248245
000020 39 cf 4e 40 bf 1f b2 bf 5f 55 95 bf 4e 54 19 bf
       3.2313979 -1.3915938 -1.1666678 -0.59894264
000030 6c 60 d1 3f dd f7 f1 c0 52 71 f2 c0 70 99 f2 40
       1.6357551 -7.5615067 -7.576333 7.58123
000040 8e be c2 40 6e 4d f2 40 7b 6a ec 40 64 7e e7 c0
       6.085761 7.571952 7.387998 -7.2341785
000050 6e 38 a1 c0 4d 20 54 c1 d8 b0 0c 41 ff 34 ae bd
       -5.0381384 -13.257886 8.793175 -0.08506202
000060 6b 27 37 bf 38 34 80 bf a4 52 7e bf e7 4a 85 3f
       -0.7154452 -1.0015936 -0.9934485 1.0413483
000070 65 c3 3f bf b1 33 4c bf ee 99 74 bf 85 18 ba bd
       -0.74907523 -0.79766375 -0.9554738 -0.09086708
000080 c6 08 68 3e ed 17 24 be 69 0a 06 40 7e 47 8b bf
       0.22659597 -0.16024752 2.0943854 -1.0881193
000090 27 b6 e1 40 a9 1f 7a bf c5 e5 79 bf dc 1d 82 3f
       7.0534854 -0.9770456 -0.97616225 1.0165362
0000a0 45 ad 15 c0 63 45 7a 3f b3 ca 70 3f d5 7c 82 bf
       -2.3387005 0.97762126 0.94059294 -1.0194346
0000b0 4b 34 36 40 a5 15 8b 40 ea 9f de c0 fa bd ec c0
       2.8469417 4.346392 -6.9570208 -7.3981905
0000c0 75 13 57 bf f7 a3 62 bf 55 26 60 bf b4 24 6a 3f
       -0.84014064 -0.8853144 -0.8755849 0.91462255
0000d0 28 40 cc 3e 40 99 8a 3f a3 28 2c 3f 1e 45 f8 bf
       0.39892697 1.0828018 0.67249507 -1.9396093
0000e0 c3 11 23 3f 31 07 82 c0 3c 2a 0d c0 da 8b 05 c1
       0.6369898 -4.063378 -2.2057028 -8.346643

exp_avg f4 [32, 60]
000000 6b 82 1f b8 0a d2 d9 37 ec 8a d9 37 91 94 db b7
       -3.8030015e-05 2.5966223e-05 2.5933106e-05 -2.6176016e-05
000010 8b a6 21 b8 72 59 a7 b7 8a fc c6 b7 b8 68 b4 37
       -3.8540496e-05 -1.9949603e-05 -2.3721037e-05 2.1506436e-05
000020 0b 6c 85 37 d6 92 99 37 01 ac 9d b7 46 66 12 37
       1.5905147e-05 1.8307397e-05 -1.8795954e-05 8.7260905e-06
000030 45 d0 8c 36 59 6a e5 b4 67 f2 26 34 57 60 b9 b4
       4.196571e-06 -4.2731952e-07 1.554814e-07 -3.4529032e-07
000040 32 e7 a0 36 78 57 94 35 89 2b 35 b6 ca 36 20 b6
       4.7952863e-06 1.1052316e-06 -2.6996443e-06 -2.387375e-06
000050 38 81 43 35 cd f3 9b 34 56 56 08 b6 4e a2 65 35
       7.28312e-07 2.9048388e-07 -2.0315833e-06 8.554533e-07
000060 29 91 fb 37 d1 53 53 b7 52 39 52 b7 01 8b 54 37
       2.9989127e-05 -1.2596095e-05 -1.2530321e-05 1.2668549e-05
000070 7d 91 1b 37 e6 f7 2a 37 de 3b dd b5 82 63 ba b5
       9.272594e-06 1.0190508e-05 -1.6483207e-06 -1.388704e-06
000080 72 eb 32 37 fe 32 5c b7 93 d4 48 37 c2 79 65 b7
       1.0664446e-05 -1.3124894e-05 1.1970423e-05 -1.3677813e-05
000090 9d 79 85 b6 00 a0 f6 b7 8d 75 fb b7 f8 79 f0 37
       -3.9778665e-06 -2.9399991e-05 -2.997627e-05 2.8667026e-05
0000a0 6a 61 5c 37 b6 f4 ea 37 50 bf af 37 16 ae dd b7
       1.3135703e-05 2.8008926e-05 2.0950712e-05 -2.6426318e-05
0000b0 df 1e 90 b4 c1 a1 0b b8 51 23 14 38 c9 61 42 b7
       -2.6844552e-07 -3.3290828e-05 3.531884e-05 -1.15860685e-05
0000c0 c6 b2 94 b7 6e 39 83 36 80 96 70 36 c6 b1 4e b6
       -1.7726223e-05 3.91079e-06 3.585039e-06 -3.079987e-06
0000d0 5d ae b4 35 01 3f 8a b7 57 b7 d9 b6 61 b0 81 37
       1.3461791e-06 -1.648022e-05 -6.4884475e-06 1.5460131e-05
0000e0 1c a7 18 38 a6 a9 e1 36 08 b6 87 b6 5f f6 05 36
       3.6395257e-05 6.725272e-06 -4.0445047e-06 1.9961951e-06
0000f0 0c 8b a1 37 3e a2 a4 b7 54 15 a9 b7 64 c8 a4 37
       1.9257444e-05 -1.9625873e-05 -2.0156302e-05 1.9643638e-05
000100 0e 9d ea 37 d0 f5 0c b7 2c 25 d4 b7 93 de 47 35
       2.7968108e-05 -8.401883e-06 -2.5289679e-05 7.4457165e-07
000110 ae 9b a4 37 b7 82 68 b7 8c 19 b2 b6 48 34 c9 b6
       1.9622817e-05 -1.3858712e-05 -5.3077874e-06 -5.996353e-06
000120 85 8d 45 b7 72 b3 a0 b6 19 f5 98 b6 74 c2 91 36
       -1.1775065e-05 -4.7892618e-06 -4.558486e-06 4.343974e-06
000130 e0 d8 9f 36 c6 27 f8 35 e4 ad 01 b6 b3 68 d3 b5
       4.763817e-06 1.8489015e-06 -1.9323716e-06 -1.5751197e-06
000140 ce 12 d4 b2 da 85 90 b6 64 fa 93 36 b6 f6 4c b5
       -2.46886e-08 -4.307117e-06 4.4100907e-06 -7.6354934e-07
000150 be 5b fd 35 03 38 b5 36 6b 36 9e 36 b5 69 da b6
       1.8876669e-06 5.400741e-06 4.715102e-06 -6.509212e-06
000160 f6 0f 0d b7 35 03 05 b7 46 73 63 b7 8e 65 28 37
       -8.407971e-06 -7.928164e-06 -1.3557094e-05 1.0037225e-05
000170 eb 74 55 37 f7 b1 86 36 9c c2 0a b7 39 5b 19 37
       1.2723011e-05 4.014229e-06 -8.270752e-06 9.14075e-06
000180 24 53 b4 b5 ea 3d 71 37 1c 13 77 37 79 05 73 b7
       -1.3435242e-06 1.4379135e-05 1.47267965e-05 -1.4485203e-05
000190 92 f1 63 b7 dd 90 a7 b7 4b c0 7d b7 59 73 a6 37
       -1.3586499e-05 -1.9975409e-05 -1.5124747e-05 1.9842455e-05
0001a0 b3 0b 38 37 63 0e 7a 37 ed c6 98 b7 e0 27 6a 37
       1.0969979e-05 1.4904511e-05 -1.8212444e-05 1.3956771e-05
0001b0 c1 b2 f4 b1 73 a0 1d b7 56 91 39 b7 7c 02 f7 36
       -7.1216566e-09 -9.395287e-06 -1.1060698e-05 7.361463e-06
0001c0 07 c1 4c 37 36 66 7f b4 6f 98 ac 36 e6 e5 58 b5
       1.220429e-05 -2.378591e-07 5.143745e-06 -8.0800817e-07
0001d0 9e bc a3 b6 86 e6 ee b6 ad 8e 0c 35 4f 57 05 36
       -4.8797365e-06 -7.119789e-06 5.2361685e-07 1.9869365e-06
0001e0 7d 08 e8 b7 eb eb 7b b7 84 85 7e b7 37 5c 79 37
       -2.7660508e-05 -1.5015695e-05 -1.5170666e-05 1.4863027e-05
0001f0 44 9a 42 37 d2 73 5b 37 42 b8 06 37 75 b3 68 b7
       1.1599219e-05 1.3080384e-05 8.029923e-06 -1.3870061e-05
000200 55 7d 68 b7 e1 d7 75 b7 e2 70 6b 37 ba 89 45 35
       -1.3857459e-05 -1.4653401e-05 1.4033374e-05 7.358864e-07
000210 44 9f 82 39 d5 15 01 37 fe e9 ff 36 86 b8 04 b7
       0.00024914194 7.694082e-06 7.6268325e-06 -7.910776e-06
000220 b2 12 22 b7 72 0d cb b6 cc df cf b6 6f 70 d3 36
       -9.660305e-06 -6.0514367e-06 -6.195134e-06 6.301379e-06
000230 98 4d 6d 36 ee 46 fe 36 6b 56 01 b7 2a e2 8d 37
       3.5360918e-06 7.578047e-06 -7.70912e-06 1.6913826e-05
000240 c1 6c 83 b6 34 1d 32 37 4d 4b 29 37 dd bb 2c b7
       -3.916765e-06 1.0616426e-05 1.0090717e-05 -1.0295739e-05
000250 3d 40 7f b7 24 a8 06 b7 89 5b 2c b7 88 cd e6 36
       -1.5214141e-05 -8.026171e-06 -1.0273311e-05 6.878461e-06
000260 cd 5f 2f 37 b2 04 04 37 8e 1a 0c b7 50 8e 1b 37
       1.0453118e-05 7.868906e-06 -8.350833e-06 9.271855e-06
000270 34 6f b8 36 75 d8 d8 b3 fc 90 d5 35 5b 05 cd 35
       5.496573e-06 -1.0097657e-07 1.5911933e-06 1.5275249e-06
000280 c1 f2 40 b6 0f cf fa 36 7d d5 0d 37 13 66 ed b6
       -2.875153e-06 7.4746854e-06 8.4539615e-06 -7.0750334e-06
000290 c4 7b bc b6 1a 7e 41 b5 50 6c cd 36 35 dc 5b 37
       -5.617245e-06 -7.2081605e-07 6.1220853e-06 1.3104688e-05
0002a0 27 2a d2 37 24 03 16 b6 66 7a 1a b6 97 bc 17 36
       2.505358e-05 -2.235357e-06 -2.3019034e-06 2.2610527e-06
0002b0 de 23 f8 b5 09 0b 94 36 74 8b a1 36 33 45 7a b6
       -1.8487879e-06 4.4120284e-06 4.8144084e-06 -3.7293182e-06
0002c0 99 63 8b b6 ef fe 80 b6 d8 8a b2 36 88 50 e9 35
       -4.1541175e-06 -3.8443754e-06 5.320977e-06 1.738329e-06
0002d0 a6 8f b1 35 89 cc 77 b6 79 ba 7d b6 df 4a 75 36
       1.3229335e-06 -3.6924923e-06 -3.780848e-06 3.6551426e-06
0002e0 e5 76 d8 b6 c6 c4 fa 36 97 09 4c 37 51 66 b7 b6
       -6.451143e-06 7.473488e-06 1.216158e-05 -5.465736e-06
0002f0 6d 06 ab b6 6d 5e 0b b7 78 7f 11 37 a0 81 06 b7
       -5.096945e-06 -8.307031e-06 8.672352e-06 -8.017203e-06
000300 e1 90 ff 36 1b 81 35 b7 f8 6c 31 b7 d2 af 3a 37
       7.6164583e-06 -1.08185e-05 -1.0575393e-05 1.11274e-05
000310 e3 0f 2e 37 0d 5e 0c 37 ea 23 f6 36 e3 bb 34 b7
       1.0374907e-05 8.366548e-06 7.3355523e-06 -1.0772582e-05
000320 e2 1f f3 b6 a1 af 35 b7 c2 97 28 37 0e 29 9d b6
       -7.245676e-06 -1.08293325e-05 1.0048914e-05 -4.683744e-06
000330 df 7b 7a b7 88 3d e6 b6 1a 8a e5 b6 20 a1 e6 36
       -1.4930002e-05 -6.8616973e-06 -6.840809e-06 6.8732916e-06
000340 88 56 ba 36 34 9f 9b 36 6c 43 e1 35 3d 10 b3 b6
       5.5533055e-06 4.6378937e-06 1.6783429e-06 -5.336506e-06
000350 8d 8c 98 34 fc a4 dd b6 0e bf ee 36 8c a0 df b6
       2.841447e-07 -6.60552e-06 7.1151944e-06 -6.664608e-06
000360 c0 83 70 b7 dd 4c 0d b7 95 7c 1c b7 ba 15 f0 36
       -1.433579e-05 -8.422151e-06 -9.327331e-06 7.1550867e-06
000370 6b 78 5e 37 e4 76 a7 36 06 0a 39 36 17 4d 1a b6
       1.3260268e-05 4.9908285e-06 2.7572983e-06 -2.299266e-06
000380 21 82 23 b7 f8 90 bd b6 05 5a 2c 36 27 c0 c3 b5
       -9.745855e-06 -5.6495155e-06 2.5682396e-06 -1.4584556e-06
000390 e6 6c 8c b5 65 52 44 b7 be 92 40 b7 3f ef 4a 37
       -1.0462506e-06 -1.1701694e-05 -1.1478258e-05 1.2095842e-05
0003a0 46 af 88 37 5c 97 04 37 ed 08 c9 36 80 11 fe b6
       1.6294081e-05 7.903054e-06 5.991306e-06 -7.571827e-06
0003b0 aa 25 13 b5 28 29 18 b7 d7 9a 16 37 61 14 91 36
       -5.4816576e-07 -9.069488e-06 8.976748e-06 4.323709e-06
0003c0 13 cc 87 b7 d8 67 56 37 fb 57 5d 37 11 ca 53 b7
       -1.6188284e-05 1.2779572e-05 1.3193111e-05 -1.2623627e-05
0003d0 8e c5 3a b7 c6 3e 51 b7 02 10 5d b7 4d 82 50 37
       -1.1132461e-05 -1.2471986e-05 -1.3176354e-05 1.2428104e-05
0003e0 99 c2 76 37 20 68 48 37 9d d7 64 b7 87 11 df b7
       1.4708051e-05 1.1945172e-05 -1.364006e-05 -2.6591833e-05
0003f0 c1 19 3c 37 ef a6 82 37 f2 0d 81 37 06 4e 85 b7
       1.12116695e-05 1.5574942e-05 1.5384492e-05 -1.5891168e-05

exp_avg_sq f4 [32, 60]
000000 3d e6 dd 33 fd b7 9f 32 27 b5 ad 32 b1 90 9b 32
       1.03329945e-07 1.8593704e-08 2.022223e-08 1.8110173e-08
000010 66 cf b2 32 29 55 f2 32 6b 8a 1e 33 57 f7 f6 32
       2.0816241e-08 2.8211234e-08 3.6913132e-08 2.8750646e-08
000020 50 ca 52 33 66 65 c5 32 f1 0a cc 32 e8 b8 3f 32
       4.9078437e-08 2.2979929e-08 2.3753701e-08 1.1159706e-08
000030 fa 47 8e 34 fb 2a 1a 32 6a c8 19 32 fd 73 1a 32
       2.650193e-07 8.973752e-09 8.951341e-09 8.9903525e-09
000040 61 d1 42 32 44 0c 44 32 b4 c0 c1 32 3f 4f 43 32
       1.13398935e-08 1.141149e-08 2.2555788e-08 1.1368512e-08
000050 36 99 04 33 fd 1d 1c 32 38 b4 1a 32 87 03 12 32
       3.087299e-08 9.087214e-09 9.004957e-09 8.4991205e-09
000060 2a ec 52 35 1e 75 30 32 77 46 30 32 46 61 30 32
       7.857476e-07 1.0271178e-08 1.026057e-08 1.0266666e-08
000070 1c 82 c2 32 51 6c 05 32 6d be 2c 32 26 16 00 32
       2.264374e-08 7.766247e-09 1.00550155e-08 7.455617e-09
000080 b6 ab 92 32 db cc 14 32 a7 af 1b 32 bc 2d 12 32
       1.7074722e-08 8.661313e-09 9.062126e-09 8.508717e-09
000090 6a a5 b3 33 f2 b8 68 32 c7 3e 69 32 3b 63 68 32
       8.365426e-08 1.3546229e-08 1.3576659e-08 1.352674e-08
0000a0 7d bb 8d 32 24 3b 80 32 03 79 cb 32 98 bc 82 32
       1.649982e-08 1.4928055e-08 2.368734e-08 1.5219754e-08
0000b0 cf e5 f6 32 56 d7 6a 32 fe e6 6a 32 37 81 4c 32
       2.8742674e-08 1.3669554e-08 1.3673114e-08 1.1903743e-08
0000c0 de 28 4c 33 74 a8 1a 32 7f 85 1a 32 60 d1 1a 32
       4.753462e-08 9.002282e-09 8.994333e-09 9.011586e-09
0000d0 ea 96 97 32 2f 29 67 32 59 07 9e 32 e1 1d 70 32
       1.7647341e-08 1.3455334e-08 1.8396962e-08 1.3976632e-08
0000e0 38 40 e6 32 c9 4b 4a 32 fd c9 45 32 d0 34 17 32
       2.6804727e-08 1.1775179e-08 1.1512836e-08 8.801365e-09
0000f0 7b 65 97 32 aa e2 f1 32 80 18 f1 32 aa 47 f2 32
       1.7624862e-08 2.8159167e-08 2.8067234e-08 2.8205097e-08
000100 10 ee 11 34 42 bc 69 33 e5 33 db 33 c2 a9 9b 32
       1.3590784e-07 5.442076e-08 1.0207422e-07 1.8121572e-08
000110 15 ea 12 33 7c 01 25 33 a9 a7 c4 33 29 1e ad 32
       3.420617e-08 3.8418406e-08 9.1574584e-08 2.0153566e-08
000120 15 f2 c5 33 f4 ea d4 32 62 f8 d3 32 86 4e d5 32
       9.217562e-08 2.4786893e-08 2.4676584e-08 2.4832172e-08
000130 96 d5 9a 32 46 c7 e6 32 b7 63 e8 32 30 be e4 32
       1.8025087e-08 2.6866143e-08 2.70537e-08 2.662918e-08
000140 e4 44 c9 32 d1 a1 da 32 e8 b3 db 32 f3 7b 72 31
       2.3430808e-08 2.5452126e-08 2.5576767e-08 3.5286092e-09
000150 59 d2 af 33 ea e9 9b 33 3d 56 9b 33 7d 05 9c 33
       8.1873345e-08 7.260299e-08 7.2334366e-08 7.2653144e-08
000160 16 d0 81 33 c0 f9 8d 33 e6 6b 6c 33 92 08 92 33
       6.044881e-08 6.6112534e-08 5.5046165e-08 6.800214e-08
000170 76 4d 47 33 d9 c1 96 33 c5 e5 95 33 35 40 b3 32
       4.640375e-08 7.02018e-08 6.980148e-08 2.086754e-08
000180 e5 61 b0 31 5d 1e 8d 33 99 a4 8c 33 d7 12 8d 33
       5.1334035e-09 6.571347e-08 6.549198e-08 6.569251e-08
000190 54 9c 68 33 b4 45 82 33 80 25 5c 33 5a 89 85 33
       5.415889e-08 6.066276e-08 5.1256848e-08 6.218279e-08
0001a0 1e bf 37 33 a6 09 89 33 96 21 88 33 24 54 b5 32
       4.2781828e-08 6.381315e-08 6.339103e-08 2.1109436e-08
0001b0 39 9c 88 32 c1 d4 d3 32 46 b5 d3 32 01 cd d3 32
       1.5903526e-08 2.4660382e-08 2.4646067e-08 2.4656858e-08
0001c0 fa 78 99 32 e8 c7 e6 32 d4 9d cc 32 68 dc e4 32
       1.7866558e-08 2.686643e-08 2.3820498e-08 2.6642923e-08
0001d0 03 85 a9 32 ab 94 db 32 f5 13 db 32 0b b9 6a 32
       1.9734676e-08 2.5562562e-08 2.550403e-08 1.36626666e-08
0001e0 20 18 50 34 e2 54 d3 32 a9 ae d2 32 fe 4c d3 32
       1.9380286e-07 2.4602233e-08 2.4526644e-08 2.4598645e-08
0001f0 50 71 c8 32 11 e4 c9 32 dc e2 d2 32 cb 10 c6 32
       2.3334593e-08 2.3503192e-08 2.4550381e-08 2.305787e-08
000200 ea 20 d4 32 7c 6b cc 32 4a f4 cc 32 03 23 53 32
       2.4695016e-08 2.3797604e-08 2.3859815e-08 1.2289777e-08
000210 d5 26 a1 34 5f b0 f2 32 b6 91 f2 32 4b 96 f2 32
       3.001684e-07 2.8252712e-08 2.823877e-08 2.8240853e-08
000220 bb 66 bc 32 c5 8e fa 32 9d 45 d8 32 82 ef fc 32
       2.1932797e-08 2.9168755e-08 2.5177366e-08 2.9445577e-08
000230 fc b6 cd 32 c2 78 f4 32 f2 25 f8 32 df f6 8c 32
       2.3948353e-08 2.8460253e-08 2.8888255e-08 1.6410409e-08
000240 7a 89 19 32 b8 3d 32 32 03 c1 31 32 c1 8c 32 32
       8.937031e-09 1.0374997e-08 1.0346642e-08 1.0392967e-08
000250 ed 85 8a 33 32 d0 53 32 e6 5b 59 32 24 e8 53 32
       6.450487e-08 1.2329155e-08 1.2651958e-08 1.2334599e-08
000260 af 3b 8d 32 f7 8d 66 32 ca 3e 59 32 06 49 46 32
       1.6441701e-08 1.3420041e-08 1.2645339e-08 1.15417205e-08
000270 6d 74 13 32 fa c5 46 32 69 5f 47 32 94 2d 47 32
       8.582998e-09 1.15701315e-08 1.1605018e-08 1.1593688e-08
000280 21 f9 8d 33 d3 98 6f 32 9a 02 a9 32 9f 68 75 32
       6.6111404e-08 1.3946379e-08 1.9675372e-08 1.4284665e-08
000290 cc 87 9e 32 a9 03 77 32 28 54 5b 32 2c f1 9d 32
       1.8455374e-08 1.43781245e-08 1.2766613e-08 1.8386878e-08
0002a0 ae b9 4c 32 24 96 96 32 a1 52 96 32 4f 9a 96 32
       1.19165815e-08 1.7530574e-08 1.7499874e-08 1.753247e-08
0002b0 a2 23 95 33 93 3c b1 32 19 27 98 32 d7 c9 b4 32
       6.944835e-08 2.0633058e-08 1.7712908e-08 2.1046544e-08
0002c0 3e fb e9 32 30 67 b7 32 f2 64 ba 32 a1 70 a4 32
       2.7239022e-08 2.1350928e-08 2.1699154e-08 1.914333e-08
0002d0 f5 4e 43 30 74 f4 7c 31 15 20 7c 31 f6 3b 7d 31
       7.105279e-10 3.6809782e-09 3.6689063e-09 3.685043e-09
0002e0 7a 87 cc 31 e9 b6 b9 31 43 6d b5 31 5b df ba 31
       5.9525833e-09 5.405003e-09 5.280215e-09 5.438705e-09
0002f0 c8 9c 6f 32 09 9e 86 31 8e 57 86 31 00 ae 0f 31
       1.3947279e-08 3.91788e-09 3.909867e-09 2.0908146e-09
000300 a3 6a 84 31 d3 fc 90 31 cd e0 98 31 29 6d 90 31
       3.853829e-09 4.2196944e-09 4.449339e-09 4.2033617e-09
000310 bc 8c 14 32 1f 0a c9 31 bd 24 bb 31 1c 12 ce 31
       8.646733e-09 5.8510206e-09 5.446593e-09 5.997448e-09
000320 a4 25 76 32 c3 06 9a 31 af 64 93 31 02 20 09 31
       1.4327643e-08 4.4827586e-09 4.2897095e-09 1.9954318e-09
000330 53 2c 6a 32 01 00 9a 31 01 a1 99 31 b1 ea 99 31
       1.3630671e-08 4.4819903e-09 4.47119e-09 4.4795674e-09
000340 a4 ca bd 31 58 e6 80 31 4f 78 6f 31 4d d9 83 31
       5.5236615e-09 3.7514774e-09 3.4847465e-09 3.837306e-09
000350 5f d9 01 32 89 cb 8a 31 42 04 8c 31 68 4c d2 30
       7.558213e-09 4.039468e-09 4.0750203e-09 1.5301227e-09
000360 59 7a 83 33 22 91 66 31 04 61 67 31 b0 64 66 31
       6.122418e-08 3.3551903e-09 3.3670071e-09 3.352664e-09
000370 53 b9 a9 31 f5 1c 78 31 16 40 67 31 c3 6b 7e 31
       4.9396163e-09 3.610521e-09 3.3651353e-09 3.702312e-09
000380 8b 2a dc 31 50 1f 5e 31 16 96 5d 31 9b b9 bc 30
       6.4076793e-09 3.232305e-09 3.2245047e-09 1.3731553e-09
000390 8f c4 62 33 1c 55 e6 30 64 6f e8 30 db 9b e5 30
       5.2798494e-08 1.6758892e-09 1.6911881e-09 1.670624e-09
0003a0 0b 11 9b 31 67 31 63 31 b2 47 f3 31 22 b7 64 31
       4.5130313e-09 3.306093e-09 7.0803816e-09 3.3282466e-09
0003b0 b6 78 13 32 1c ba 32 31 d1 55 21 31 51 b0 cb 30
       8.583973e-09 2.60082e-09 2.3477364e-09 1.4820306e-09
0003c0 cf b6 89 34 81 c2 cc 33 29 17 cc 33 44 ef cc 33
       2.565125e-07 9.53487e-08 9.503703e-08 9.5430124e-08
0003d0 f2 4b c2 33 ec d9 ca 33 9a 70 b6 33 8c 1b cc 33
       9.047643e-08 9.445998e-08 8.4955175e-08 9.504501e-08
0003e0 72 13 9d 33 12 5a cc 33 de 96 cb 33 e4 20 75 33
       7.314419e-08 9.515874e-08 9.480367e-08 5.707342e-08
0003f0 f7 d0 46 33 5f 5a 6a 33 7f 87 69 33 74 e2 6a 33
       4.629052e-08 5.4564563e-08 5.4372773e-08 5.468833e-08

exp_avg f4 [32]
000000 db 7f 8c b7 72 c4 2a b7 19 38 62 37 5f 8d dd 36
       -1.6748838e-05 -1.0178528e-05 1.3483711e-05 6.602771e-06
000010 41 62 ae 37 6b dc 0b 38 21 7c b0 b8 17 9f 83 b8
       2.078817e-05 3.3345463e-05 -8.415455e-05 -6.2761996e-05
000020 f4 2c ed b7 20 6d 3c ba c0 8a e1 36 47 ae 5a b7
       -2.8273535e-05 -0.0007187892 6.721675e-06 -1.303439e-05
000030 6e 9e 3f b7 3d 1d a0 b7 18 21 92 35 9e 60 3e 38
       -1.1421374e-05 -1.9087101e-05 1.0887479e-06 4.538951e-05
000040 cf f9 86 b8 04 00 00 00 06 40 3b b8 ef e4 a2 37
       -6.4361484e-05 6e-45 -4.46439e-05 1.941851e-05
000050 64 0e 3e 38 a6 62 3c 34 d7 71 28 35 54 9a 19 b8
       4.5312932e-05 1.7544752e-07 6.2750536e-07 -3.6621772e-05
000060 97 4e d2 b4 fb e8 3b b6 52 30 fe b7 35 87 c6 b7
       -3.917273e-07 -2.8000784e-06 -3.030166e-05 -2.36664e-05
000070 0d 22 d7 b6 8b 6c e1 b6 83 20 01 b7 51 58 ce b6
       -6.4114633e-06 -6.7181586e-06 -7.696569e-06 -6.14956e-06

exp_avg_sq f4 [32]
000000 10 79 9c 32 49 b0 3f 33 84 89 9b 32 13 0f 7b 31
       1.8215843e-08 4.4630983e-08 1.810691e-08 3.6533876e-09
000010 dd 47 d2 33 bb d3 55 33 e7 64 ea 34 de bd 30 35
       9.791959e-08 4.9785495e-08 4.3659313e-07 6.58414e-07
000020 0c f8 a5 33 45 46 c9 35 a6 4e 87 33 3e 9d 10 33
       7.728531e-08 1.4996118e-06 6.3007334e-08 3.3670624e-08
000030 b8 6f a7 32 34 79 54 35 94 78 a3 32 4b 1a 6f 33
       1.9492163e-08 7.915253e-07 1.903053e-08 5.5670437e-08
000040 41 3f a6 34 f4 01 00 00 b0 90 98 34 1a 04 0a 35
       3.0965933e-07 7e-43 2.841748e-07 5.1414975e-07
000050 e2 f5 44 32 57 78 a7 2d 62 04 57 31 e5 82 ba 34
       1.1464609e-08 1.9039144e-11 3.128911e-09 3.4740438e-07
000060 0e 56 2b 31 32 8f fd 33 8d 88 08 35 12 b2 1a 34
       2.4932691e-09 1.18072776e-07 5.0862656e-07 1.4407149e-07
000070 2d 3d a8 32 77 5a 5d 32 a3 70 50 35 35 f5 22 32
       1.9585594e-08 1.2884462e-08 7.7649946e-07 9.485395e-09
