save_model/gat_vae_model(excellent_performance1).pth (torch, 359302 bytes, 54 tensors)

gat.gat1.att_src f4 [1, 2, 32]
0.18045264 -0.22310941 -0.019893214 0.05696206 0.14883396 0.435424 -0.034929235 -0.17103684
0.32519242 -0.03606849 0.13360311 -0.17332396 0.046384823 -0.07195656 -0.33735505 0.21499312
0.18888958 -0.47725022 0.2627743 0.30723926 0.23398751 0.45634925 0.3846958 -0.34646395
-0.13236125 0.29810148 -0.1803225 -0.2554046 -0.22597945 0.32887882 -0.15120544 0.09331923
0.41487926 -0.23416655 -0.1309477 -0.05937536 0.34288755 0.10349495 0.46898466 0.12408107
0.15485789 0.08299561 -0.32604754 -0.21520221 -0.25630575 -0.21780156 -0.22460817 0.21909684
0.416742 0.11899643 0.19990177 -0.044496574 0.119093776 0.32539412 0.2956574 -0.054668088
-0.023602264 -0.2692798 -0.246902 -0.12856655 -0.37235954 -0.30498663 0.18875553 -0.077080406
00000000: 94c8 383e cb76 64be 18f7 a2bc 0d51 693d
00000010: ee67 183e e5ef de3e f511 0fbd 4824 2fbe
00000020: 9f7f a63e 8ebc 13bd 41cf 083e d67b 31be
00000030: 03fe 3d3d f65d 93bd cdb9 acbe 2827 5c3e
00000040: 456c 413e 245a f4be 5a8a 863e 774e 9d3e
00000050: 6c9a 6f3e 9ca6 e93e d9f6 c43e b963 b1be
00000060: b589 07be c2a0 983e 76a6 38be 64c4 82be
00000070: 2867 67be ce62 a83e 99d5 1abe 271e bf3d
00000080: 0e6b d43e 5bc9 6fbe 2717 06be 9433 73bd
00000090: f58e af3e 29f5 d33d c21e f03e 371e fe3d
000000a0: 1193 1e3e 9af9 a93d b4ef a6be f85d 5cbe
000000b0: 823a 83be 5f07 5fbe afff 65be ec5a 603e
000000c0: 355f d53e 66b4 f33d 0db3 4c3e 0a42 36bd
000000d0: 70e7 f33d 0f9a a63e 6860 973e a5eb 5fbd
000000e0: 8959 c1bc 0bdf 89be e1d3 7cbe f3a6 03be
000000f0: e9a5 bebe 3527 9cbe 2149 413e 55dc 9dbd

gat.gat1.att_dst f4 [1, 2, 32]
0.1093787 -0.29965445 -0.15421693 0.3245044 0.3479255 -0.16220932 0.4293731 0.20311435
-0.2476631 0.3897519 -0.18917657 0.3237392 0.22524491 0.33112693 0.15139389 0.24183367
-0.22279221 -0.2200178 0.12077394 0.051899277 0.2891133 -0.15604635 0.36191145 -0.34572425
-0.1420845 0.36727408 0.2342028 0.19652733 -0.18538827 -0.3185904 -0.38119033 0.1745736
-0.046598084 -0.4865813 -0.46315426 -0.14571437 0.15909311 0.14462352 -0.07349941 -0.21212363
0.23606496 -0.1068678 -0.11290243 -0.16005182 0.36438522 0.18189153 -0.39772567 0.08149771
0.21247742 -0.36802733 -0.17344135 0.19645165 -0.43344373 -0.32828096 0.050222807 -0.18395379
0.3459811 -0.47839794 -0.5083141 -0.21082947 -0.36238858 -0.06631422 -0.32109168 -0.33113155
00000000: f101 e03d 4f6c 99be 0beb 1dbe 7125 a63e
00000010: 4b23 b23e 331a 26be cad6 db3e 35fd 4f3e
00000020: 659b 7dbe 908d c73e 81b7 41be 25c1 a53e
00000030: 9aa6 663e 7889 a93e 0007 1b3e 3fa3 773e
00000040: a423 64be 594c 61be 5458 f73d 5694 543d
00000050: a906 943e 9dca 1fbe 754c b93e c502 b1be
00000060: 997e 11be 590b bc3e dcd2 6f3e 763e 493e
00000070: 6cd6 3dbe 481e a3be 612b c3be 6cc3 323e
00000080: a2dd 3ebd 2f21 f9be 8e22 edbe 2636 15be
00000090: 4ee9 223e 3018 143e dc86 96bd f036 59be
000000a0: 03bb 713e 81dd dabd 6439 e7bd a0e4 23be
000000b0: b390 ba3e c641 3a3e b3a2 cbbe 45e8 a63d
000000c0: ae93 593e 146e bcbe 9c9a 31be 9f2a 493e
000000d0: 56ec ddbe 7114 a8be 6eb6 4d3d 625e 3cbe
000000e0: 6f24 b13e 93f0 f4be df20 02bf aee3 57be
000000f0: ff8a b9be c0cf 87bd 2166 a4be 138a a9be

gat.gat1.bias f4 [64]
-0.056853667 0.0 1.2771821e-05 0.06384586 0.24521367 -0.073702864 -0.031749714 -0.06166219
0.13382643 0.0 0.017688839 0.0 -0.18194409 -0.33173877 -0.48359337 0.57407767
-0.0990229 0.15942435 0.020051435 -0.07648264 0.14530891 -0.016541304 0.0 0.033071455
0.0 -0.26392454 -0.05694926 -0.10586464 -0.16304244 0.0 -0.20371084 0.14017406
-0.38927218 0.0 -0.22197907 -0.20752499 -0.42306685 0.0 -0.07435899 0.0
0.0 0.17888646 0.0 0.25164005 -0.037143618 -0.15092537 -0.09783701 0.0
-0.38177317 -0.06422889 0.034297694 0.05566123 -0.052538127 -0.27523008 -0.4729059 -0.23771279
-0.15721719 -0.038332038 -0.121861495 0.0 0.0 -0.27746105 0.05361094 -0.19577342
00000000: 64df 68bd 0000 0000 8e46 5637 9ec1 823d
00000010: 4b19 7b3e 87f1 96bd fd0b 02bd 7e91 7cbd
00000020: cc09 093e 0000 0000 2fe8 903c 0000 0000
00000030: 8d4f 3abe aad9 a9be 8d99 f7be c1f6 123f
00000040: 85cc cabd 2340 233e e842 a43c eea2 9cbd
00000050: dccb 143e a181 87bc 0000 0000 ef75 073d
00000060: 0000 0000 1e21 87be a143 69bd 8fcf d8bd
00000070: 99f4 26be 0000 0000 9399 50be ca89 0f3e
00000080: af4e c7be 0000 0000 7b4e 63be 6e81 54be
00000090: 389c d8be 0000 0000 8749 98bd 0000 0000
000000a0: 0000 0000 032e 373e 0000 0000 f7d6 803e
000000b0: e823 18bd 2e8c 1abe c55e c8bd 0000 0000
000000c0: c677 c3be 708a 83bd bd7b 0c3d 08fd 633d
000000d0: 3832 57bd f5ea 8cbe b920 f2be fb6a 73be
000000e0: 8bfd 20be 0e02 1dbd 8592 f9bd 0000 0000
000000f0: 0000 0000 600f 8ebe 2597 5b3d d478 48be

gat.gat1.lin.weight f4 [64, 12]
-0.03135977 0.16851285 0.081751876 -0.29417065 -0.11058272 0.2176499 -0.11047627 -0.05022327
0.13028122 -0.36184046 -0.25029376 -0.07429006 -0.14389215 -0.09910708 0.0107461205 -0.08273767
0.22946283 0.029728059 0.20064668 0.18069425 0.2529147 0.15803574 -0.30094773 -0.04089837
-0.06939599 0.0026992913 0.1745169 -0.04200114 0.21127093 0.11113582 -0.09439179 -0.21498467
-0.10988938 0.02127567 0.031612113 -0.065260455 -0.0008928945 0.4112526 0.3751414 0.11445566
-0.20753132 0.078465655 0.09555195 0.13521035 0.05728591 -0.026523234 -0.011237293 0.0015374927
-0.12731597 0.0029222039 0.3231832 0.15032557 0.011106154 0.04571588 -0.11762674 -0.0870394
-0.16294494 -0.1875962 0.1214454 -0.107398756 -0.021933693 -0.18013114 -0.1819105 0.05109726
-0.0983939 0.2039712 0.07050448 0.25467238 -0.30017775 -0.40713543 -0.13516997 0.024519267
-0.08210046 0.20010038 0.08118752 0.095896564 -0.31451005 -0.056724768 0.03774543 -0.0036209892
0.13036382 0.10826293 -0.16155913 -0.18093891 -0.01080669 0.1419652 0.047362264 -0.3842894
0.1120824 0.09823533 -0.03653841 -0.11121777 0.11655051 -0.15310758 -0.26287588 -0.38903603
-0.0043703737 -0.16344486 0.20616087 -0.0048573744 0.41116643 -0.0054013 0.33252108 0.3143417
-0.19186787 -0.03310748 -0.037681673 0.38144824 -0.27886534 -0.2129533 -0.07931678 0.089033596
-0.29846227 -0.0056409147 -0.0010290219 0.10290741 0.11792221 0.035846964 -0.20199405 0.00095644273
-0.027626108 -0.10355923 0.029560773 -0.31227487 0.22375838 0.33776307 -0.093935296 0.13657562
0.122052014 0.067744754 -0.24756175 0.21828832 -0.35132182 0.1411843 0.10328727 0.1576574
0.23856616 -0.15993315 -0.12703829 -0.2873071 -0.17356981 -0.117013924 -0.24781504 0.017038014
-0.004014302 -0.20919512 -0.40141994 0.086877 -0.23996039 -0.10332014 0.03489406 -0.03072067
0.10468415 -0.042870726 -0.096814126 -0.17820652 -0.006814774 -0.7362143 -0.5011088 -0.25115976
0.06569558 -0.5054244 -0.38474604 -0.51246905 -0.4046742 -0.16552575 -0.2630913 -0.14102487
-0.0050025973 -0.20025139 -0.5485997 -0.37370983 -0.28775382 -0.47827852 -0.5191708 -0.6140584
-0.011193517 -0.1956001 -0.3399288 -0.39193234 -0.19673914 0.20765525 0.26591542 0.122666255
0.16143951 0.1416843 0.22748321 0.059159253 -0.1674564 0.01665689 0.016518518 -0.07665711
-0.03078975 0.30025175 0.31491494 -0.23692954 -0.25275877 -0.17810902 -0.24575014 0.2297992
0.20692465 -0.17102526 0.026311308 -0.11622563 -0.007390432 0.5345663 0.24619412 -0.023628134
0.20946772 -0.03487087 0.009234068 -0.104451895 -0.20019333 0.02218103 -0.036910385 -0.08298597
-0.005466508 -0.029145759 0.14318731 0.018659018 -0.17709854 0.22689131 0.21409336 -0.081531115
0.03637497 -0.14685419 -0.052128326 -0.12011263 -0.09933896 0.1559931 -0.08295462 0.15473503
0.06820855 -0.18623284 -0.39153135 -0.14022362 -0.09684913 -0.2733806 0.1498919 0.21272784
-0.0011725294 0.18554202 0.061501052 0.20958108 0.03380594 0.049782634 0.21049525 0.26041704
0.120077424 -0.032446895 -0.058017172 -0.071855746 -0.052700255 -0.22093049 -0.14894316 0.12308228
00000000: 1a73 00bd a28e 2c3e 876d a73d 899d 96be
00000010: 3179 e2bd 9edf 5e3e 6241 e2bd eab6 4dbd
00000020: 7168 053e 2743 b9be 8126 80be 6325 98bd
00000030: 7758 13be a7f8 cabd 7f10 303c 5e72 a9bd
00000040: 4ef8 6a3e 4288 f33c 5376 4d3e ea07 393e
00000050: 097e 813e 1fd4 213e d215 9abe 0d85 27bd
00000060: 7c1f 8ebd 98e6 303b 8fb4 323e 6309 2cbd
00000070: 6857 583e 2d9b e33d 7c50 c1bd f124 5cbe
00000080: af0d e1bd 504a ae3c b47b 013d 46a7 85bd
00000090: 2311 6aba b38f d23e 8912 c03e bb67 ea3d
000000a0: 1783 54be 9ab2 a03d beb0 c33d 9574 0a3e
000000b0: a1a4 6a3d 4147 d9bc 9f1c 38bc b285 c93a
000000c0: 1e5f 02be 7282 3f3b 4578 a53e f2ee 193e
000000d0: 96f6 353c 9340 3b3d 4ae6 f0bd b741 b2bd
000000e0: 0adb 26be 3819 40be 5eb8 f83d e1f3 dbbd
000000f0: 4aae b3bc 4c74 38be bf46 3abe 5c4b 513d
00000100: be82 c9bd d4dd 503e a764 903d 6b64 823e
00000110: e6b0 99be 0e74 d0be ff69 0abe a1dc c83c
00000120: 4924 a8bd 1de7 4c3e a445 a63d 6b65 c43d
00000130: 7607 a1be 3b58 68bd f49a 1a3d 1e4e 6dbb
00000140: 187e 053e f4b8 dd3d c26f 25be 0d48 39be
00000150: 8b0e 31bc 535f 113e effe 413d 95c1 c4be
00000160: 758b e53d 9b2f c93d 4da9 15bd 24c6 e3bd
00000170: 09b2 ee3d 3cc8 1cbe ab97 86be bb2f c7be
00000180: 5a35 8fbb 175e 27be d61b 533e 9c2a 9fbb
00000190: 6884 d23e 63fd b0bb 3440 aa3e 65f1 a03e
000001a0: 0379 44be b59b 07bd 1958 1abd 2f4d c33e
000001b0: 70c7 8ebe 6e10 5abe d670 a2bd 3f57 b63d
000001c0: 0cd0 98be 6cd7 b8bb 3fe0 86ba 1fc1 d23d
000001d0: 3381 f13d 44d4 123d 87d7 4ebe c9b9 7a3a
000001e0: 2650 e2bc dd16 d4bd 6f29 f23c 7ee2 9fbe
000001f0: eb20 653e 48ef ac3e 2661 c0bd 7bda 0b3e
00000200: 68f6 f93d c3bd 8a3d d480 7dbe f986 5f3e
00000210: 74e0 b3be 9e92 103e 4788 d33d f170 213e
00000220: b04a 743e 84c5 23be 5316 02be eb19 93be
00000230: 49bc 31be ffa4 efbd 3ac3 7dbe 4e93 8b3c
00000240: 688a 83bb 3f37 56be ea86 cdbe 92ec b13d
00000250: 2db8 75be 8299 d3bd 13ed 0e3d eaa9 fbbc
00000260: a564 d63d 3799 2fbd 7c46 c6bd c57b 36be
00000270: 784e dfbb 8a78 3cbf ab48 00bf 0398 80be
00000280: 678b 863d 7e63 01bf 6ffd c4be 2c31 03bf
00000290: 7531 cfbe 957f 29be e7b3 86be d368 10be
000002a0: d4ec a3bb b30e 4dbe 0871 0cbf e556 bfbe
000002b0: 7854 93be ece0 f4be 61e8 04bf ee32 1dbf
000002c0: 0365 37bc 654b 48be 260b aebe 5bab c8be
000002d0: fc75 49be 94a3 543e 1126 883e 7238 fb3d
000002e0: 6650 253e b015 113e 5cf1 683e f950 723d
000002f0: b179 2bbe 0874 883c d851 873c 67fe 9cbd
00000300: c93a fcbc 99ba 993e 883c a13e a89d 72be
00000310: 9969 81be 3662 36be eda5 7bbe 7b50 6b3e
00000320: 0ee4 533e 3f21 2fbe d08a d73c b407 eebd
00000330: 702b f2bb 56d9 083f 501a 7c3e ca8f c1bc
00000340: b57e 563e c2d4 0ebd 7d4a 173c e0ea d5bd
00000350: 7bff 4cbe feb4 b53c 582f 17bd 8cf4 a9bd
00000360: 6520 b3bb 16c3 eebc b29f 123e ccda 983c
00000370: 5259 35be 3256 683e 4a3b 5b3e c9f9 a6bd
00000380: ecfd 143d f260 16be 8384 55bd 9cfd f5bd
00000390: 3a72 cbbd a8bc 1f3e 1de4 a9bd dc72 1e3e
000003a0: edb0 8b3d d2b3 3ebe cc76 c8be c896 0fbe
000003b0: d658 c6bd 8bf8 8bbe 437d 193e 54d5 593e
000003c0: 8faf 99ba bafe 3d3e 87e8 7b3d 6c9c 563e
000003d0: 1978 0a3d e0e8 4b3d 118c 573e 6255 853e
000003e0: 27eb f53d 09e7 04bd 6aa3 6dbd 1b29 93bd
000003f0: 39dc 57bd 9a3b 62be 8e84 18be 9012 fc3d

gat.gat2.att_src f4 [1, 1, 64]
0.1878592 -0.04702839 0.020245567 -0.21490054 0.18591893 0.017884297 0.20866199 -0.26668897
0.25885424 0.10926833 -0.05937968 0.015426484 -0.039227556 0.21969144 0.36545026 0.10261102
0.03974266 0.16860849 -0.22384341 -0.27625197 0.12826423 -0.28445262 0.15819722 0.38326627
0.227465 0.2519276 0.20578334 0.1600995 -0.42329338 0.22772618 -0.18627353 -0.26288632
0.11707125 0.13624175 0.23106198 -0.34657392 -0.13020368 0.084822975 -0.0940221 -0.36651957
-0.1887116 -0.13622509 -0.078855045 0.02178814 -0.10764814 0.032503057 0.25860816 0.35299355
0.42914814 0.1391278 0.1492975 0.18570243 0.13086829 0.21941778 -0.1702203 -0.37924394
-0.09983623 0.28548083 0.18403016 2.4247203e-05 0.05357593 0.16333403 -0.1431079 -0.29071438
00000000: 2a5e 403e d7a0 40bd 08da a53c e30e 5cbe
00000010: 8861 3e3e 1782 923c 7dab 553e 758b 88be
00000020: 8b88 843e 13c8 df3d 1b38 73bd 5dbf 7c3c
00000030: 13ad 20bd cbf6 603e 4c1c bb3e ba25 d23d
00000040: 33c9 223d b4a7 2c3e 3537 65be e670 8dbe
00000050: b357 033e c6a3 91be 74fe 213e 7a3b c43e
00000060: 96ec 683e a8fc 803e deb8 523e 20f1 233e
00000070: e9b9 d8be 0d31 693e 7dbe 3ebe 0999 86be
00000080: 0dc3 ef3d f582 0b3e 839b 6c3e 2372 b1be
00000090: 1d54 05be abb7 ad3d a98e c0bd 74a8 bbbe
000000a0: 9d3d 41be 977e 0bbe c17e a1bd 0b7d b23c
000000b0: a176 dcbd ed21 053d 4a68 843e 92bb b43e
000000c0: 4eb9 db3e 8577 0e3e 72e1 183e c728 3e3e
000000d0: 5602 063e 0eaf 603e 3b4e 2ebe 432c c2be
000000e0: f076 ccbd 8b2a 923e 6772 3c3e 7966 cb37
000000f0: 6f72 5b3d 0941 273e e18a 12be 84d8 94be

gat.gat2.att_dst f4 [1, 1, 64]
-0.23628756 -0.26052916 -0.004342114 0.10447613 0.12245823 0.069630384 0.15531412 0.12704939
0.13681121 -0.30099037 0.25350577 -0.23967066 -0.05976544 0.4593358 0.25978154 -0.001927293
-0.1848581 -0.19389883 -0.17157997 -0.22584185 0.24541527 0.035807278 0.20540456 0.109000005
-0.10707148 -0.07416935 0.015943814 0.057519227 -0.24339844 0.4007888 0.11362161 0.03751626
0.4613689 -0.20109673 -0.08795819 -0.4178013 0.100813195 0.36912733 -0.03740686 0.0651583
0.23644762 -0.1535117 -0.08045203 0.08407202 0.11585189 0.26135415 0.42550763 -0.19460887
0.017191933 -0.18648948 0.06764496 -0.070392065 0.14234442 0.09608366 0.18443218 -0.032636445
0.26172796 -0.08072508 0.02259072 0.17717278 -0.33049586 0.06490706 0.059925847 -0.21467291
00000000: 5ef5 71be 1464 85be 4b48 8ebb 95f7 d53d
00000010: 61cb fa3d 609a 8e3d aa0a 1f3e 3c19 023e
00000020: 3d18 0c3e 691b 9abe 82cb 813e 3a6c 75be
00000030: 9bcc 74bd 102e eb3e 1602 853e 399d fcba
00000040: 714b 3dbe 6a8d 46be a9b2 2fbe 1643 67be
00000050: 244e 7b3e a7aa 123d 9355 523e 653b df3d
00000060: 4b48 dbbd 1ae6 97bd 9a9c 823c 4899 6b3d
00000070: 713d 79be 3134 cd3e 72b2 e83d a6aa 193d
00000080: 8b38 ec3e 4dec 4dbe 6c23 b4bd 0dea d5be
00000090: 2677 ce3d 42fe bc3e f037 19bd b771 853d
000000a0: 531f 723e 2c32 1dbe 09c4 a4bd f42d ac3d
000000b0: c143 ed3d 36d0 853e 23dc d93e 8c47 47be
000000c0: 19d6 8c3c 19f7 3ebe 7189 8a3d b729 90bd
000000d0: bcc2 113e 83c7 c43d cadb 3c3e cbad 05bd
000000e0: 3501 863e 3153 a5bd 2c10 b93c c86c 353e
000000f0: c136 a9be feed 843d ce74 753d 37d3 5bbe

gat.gat2.bias f4 [64]
-0.06000299 0.07629107 0.10361164 -0.259587 0.10303929 0.10960202 -0.3499804 -0.14911152
0.30071408 -0.12573813 0.21705431 0.047697026 -0.2957534 -0.03772253 0.030841183 0.27750197
-0.22772315 0.12989675 0.22792447 0.26708615 -0.33296722 -0.22420523 -0.03554932 -0.17119285
0.31892836 0.13803393 -0.38975623 -0.056833044 0.24795206 0.30664533 -0.10417479 0.046332385
-0.3015302 -0.6059436 0.16225769 -0.11134561 0.04471391 0.18980527 -0.22127013 -0.066410124
-0.11238484 0.17466243 -0.3832009 0.4706494 0.058672525 0.12739971 0.18906581 -0.024515107
-0.03364356 0.12351767 -0.10520481 -0.4217784 -0.12691067 0.22904149 -0.1767418 0.1111068
0.13154337 -0.15859053 -0.06401654 0.029033704 -0.10506967 0.09072515 0.06032249 -0.03804968
00000000: b2c5 75bd 7e3e 9c3d 5732 d43d 96e8 84be
00000010: 4306 d33d 0677 e03d a230 b3be b1b0 18be
00000020: 32f7 993e 7fc1 00be 7c43 5e3e f55d 433d
00000030: fd6c 97be f182 1abd a6a6 fc3c bd14 8e3e
00000040: 4230 69be a703 053e 0865 693e 84bf 883e
00000050: ae7a aabe 0e96 65be 2a9c 11bd 2e4d 2fbe
00000060: 944a a33e c458 0d3e 218e c7be c4c9 68bd
00000070: 25e7 7d3e 9e00 9d3e 9859 d5bd 07c7 3d3d
00000080: 2b62 9abe 1f1f 1bbf e126 263e 2b09 e4bd
00000090: ef25 373d 505c 423e a394 62be 0802 88bd
000000a0: 062a e6bd b5da 323e e932 c4be f5f8 f03e
000000b0: 9a52 703d 1275 023e 789a 413e e8d3 c8bc
000000c0: d4cd 09bd d5f6 fc3d 9f75 d7bd 57f3 d7be
000000d0: dff4 01be da89 6a3e cdfb 34be f68b e33d
000000e0: 4eb3 063e 8e65 22be 1b1b 83bd 17d8 ed3c
000000f0: c42e d7bd 1cce b93d b714 773d fbd9 1bbd

gat.gat2.lin.weight f4 [64, 64]
-0.08915283 -0.05439152 -0.17670721 -0.10967672 -0.078064464 -0.103633925 -0.007104645 0.07860676
0.12039239 -0.12444297 -0.05196781 0.20345981 -0.14595892 -0.12946455 -0.12003497 -0.37784553
0.007972058 0.16561492 0.13349213 -0.048360124 -0.14455613 -0.01556013 0.015114799 0.042582218
-0.19260418 -0.10226913 0.13276008 -0.17560592 0.09208882 -0.10122623 -0.11899473 -0.1899791
-0.14022979 0.108585045 -0.0018117025 0.050207432 -0.16079412 0.095536485 0.08751157 0.15814434
0.15795018 0.3231412 0.07740836 -0.040267233 0.16709831 0.07546245 0.22024687 -0.012096241
0.12829126 -0.1397598 0.018263545 0.09804893 0.1252611 -0.0687685 0.1894972 0.008402476
0.17027055 0.007035534 0.04145291 -0.19261456 -0.026912898 0.045406193 -0.105917215 0.10363294
-0.02115154 0.18147506 -0.046261463 0.031791206 0.05061061 -0.16164094 -0.020707533 -0.115024865
0.11794231 0.017241359 0.2033085 -0.019118026 0.006466079 -0.18555374 0.06201469 0.6372654
-0.026720941 -0.109432854 -0.09088124 -0.03274106 -0.13347866 0.0619718 -0.12457326 -0.04138427
0.08165152 0.12745619 -0.032279674 -0.11756739 0.15201923 -0.053708345 0.03778625 -0.085646644
-0.14643413 -0.007541612 -0.039370965 0.14754026 -0.1514709 -0.18289077 0.11491308 0.16309784
0.017393664 0.021327171 -0.06524336 0.2106591 -0.1876545 0.05691268 0.017983908 0.0845315
-0.10282355 -0.077072814 -0.04733869 0.12285188 -0.05302708 -0.19213192 0.03305861 0.050480876
0.15095891 0.061543696 -0.10398028 0.07053308 -0.18421414 -0.055202868 0.09349071 -0.011475837
0.118631765 -0.17920071 0.01223254 0.18262412 0.06263789 0.17911382 0.14656635 0.043175254
-0.11519459 -0.11185722 0.18900526 -0.15612546 -0.16743109 -0.057998586 0.20230237 0.257788
0.06052651 -0.122965746 0.19421358 -0.031900976 0.17582937 0.00998719 0.21311687 0.022441223
0.07349746 -0.18327184 0.057026256 0.008156692 -0.027442727 0.11807041 0.12137718 -0.079643436
-0.033249263 -0.1412946 -0.17801566 0.105592 -0.16433708 -0.14860602 -0.18753123 -0.036040783
-0.19824858 -0.05348718 -0.0035558343 0.31999555 0.2133294 -0.018582653 -0.0700442 0.01822564
-0.10319744 -0.00040470835 0.08822459 -0.15920864 0.0030296305 0.17137313 0.028884728 -0.008441094
0.045680337 0.07090293 0.053421322 0.02991034 0.17071216 -0.04354218 0.19838576 0.0674447
-0.14377776 0.17106126 0.049016856 -0.08115178 0.14438716 0.033705212 0.18256788 -0.1611455
-0.21785805 -0.072209984 0.007511101 0.043757036 0.0042797048 0.111586094 0.101627216 0.32081705
-0.0080726 -0.029798875 0.08152938 -0.083256476 0.17528741 0.05416217 0.12797911 -0.03824611
-0.03646484 0.016470648 0.15058371 0.0284691 -0.11987164 0.02813457 0.15806697 0.041578654
0.07917245 -0.15618299 -0.16588853 -0.20265435 0.097195014 -0.08140284 -0.22712204 0.029834077
0.00877066 0.05924999 0.026450887 0.0425586 0.03718644 0.042311016 -0.08859086 -0.18290359
-0.20118426 0.14938603 0.011007315 0.20935893 0.20021452 -0.019527154 0.13229524 -0.075245954
-0.08922475 0.0987345 -0.16932876 -0.14846644 -0.06801854 -0.04619139 -0.007074287 -0.11270187
00000000: c295 b6bd a4c9 5ebd bcf2 34be 309e e0bd
00000010: 43e0 9fbd 063e d4bd 15ce e8bb 95fc a03d
00000020: 4990 f63d f5db febd 33dc 54bd c557 503e
00000030: 4176 15be 5b92 04be e5d4 f5bd f874 c1be
00000040: 3c9d 023c f596 293e 29b2 083e 4415 46bd
00000050: 8606 14be eaef 7ebc 10a4 773c b16a 2e3d
00000060: 083a 45be 7a72 d1bd 42f2 073e 0ad2 33be
00000070: 1099 bc3d b34f cfbd 82b3 f3bd e289 42be
00000080: 6698 0fbe d661 de3d a676 edba 4fa6 4d3d
00000090: 37a7 24be a2a8 c33d 4439 b33d 97f0 213e
000000a0: b1bd 213e c372 a53e 4688 9e3d 41ef 24bd
000000b0: d21b 2b3e 0f8c 9a3d 6588 613e 502f 46bc
000000c0: c95e 033e 311d 0fbe 6e9d 953c e1cd c83d
000000d0: 7244 003e 80d6 8cbd 8e0b 423e 8aaa 093c
000000e0: 675b 2e3e 568a e63b 87ca 293d c03c 45be
000000f0: 7078 dcbc d8fb 393d 20eb d8bd 823d d43d
00000100: ff45 adbc 99d4 393e a97c 3dbd 7f37 023d
00000110: 124d 4f3d 3485 25be d8a2 a9bc 2892 ebbd
00000120: bd8b f13d c03d 8d3c 1a30 503e 689d 9cbc
00000130: 67e1 d33b cd01 3ebe 1e03 7e3d d323 233f
00000140: e0e5 dabc 551e e0bd f21f babd 7d1b 06bd
00000150: a1ae 08be 24d6 7d3d 4420 ffbd 8d82 29bd
00000160: ea38 a73d e083 023e b137 04bd 2cc7 f0bd
00000170: eeaa 1b3e 48fd 5bbd c1c5 1a3d 8267 afbd
00000180: d4f2 15be a01f f7bb 7343 21bd cb14 173e
00000190: 301b 1bbe b847 3bbe 8d57 eb3d 1f03 273e
000001a0: 287d 8e3c 52b6 ae3c 509e 85bd 05b7 573e
000001b0: 8028 40be 451d 693d fd52 933c da1e ad3d
000001c0: 2795 d2bd 5ad8 9dbd 37e6 41bd c499 fb3d
000001d0: ec32 59bd 3bbe 44be 7768 073d 09c5 4e3d
000001e0: f994 1a3e 3e15 7c3d 9df3 d4bd a673 903d
000001f0: a2a2 3cbe 671c 62bd 0f78 bf3d 2605 3cbc
00000200: 36f5 f23d 6480 37be fe6a 483c d101 3b3e
00000210: 4b48 803d 9d69 373e 7d15 163e 89d8 303d
00000220: 24eb ebbd 6615 e5bd 988a 413e 5adf 1fbe
00000230: 0e73 2bbe ed8f 6dbd 5a28 4f3e cafc 833e
00000240: a5ea 773d 77d5 fbbd eddf 463e 99aa 02bd
00000250: 9d0c 343e 50a1 233c 4f3b 5a3e a8d6 b73c
00000260: d685 963d 9dab 3bbe 5d94 693d a5a3 053c
00000270: 92cf e0bc e6ce f13d 9994 f83d 191c a3bd
00000280: 6130 08bd 88af 10be bd49 36be 9e40 d83d
00000290: fb47 28be 2d2c 18be 3008 40be 809f 13bd
000002a0: ad01 4bbe 6015 5bbd 0009 69bb 75d6 a33e
000002b0: 0673 5a3e a63a 98bc 5573 8fbd f04d 953c
000002c0: 2e59 d3bd 092f d4b9 18af b43d 9707 23be
000002d0: c48c 463b 707c 2f3e aa9f ec3c 844c 0abc
000002e0: 4e1b 3b3d 8e35 913d 51d0 5a3d 8806 f53c
000002f0: 2bcf 2e3e 4959 32bd a325 4b3e 7220 8a3d
00000300: 7a3a 13be af2a 2f3e e6c5 483d e832 a6bd
00000310: 3ada 133e 7a0e 0a3d 13f3 3a3e 5303 25be
00000320: 2e16 5fbe d4e2 93bd af1f f63b 943a 333d
00000330: c43c 8c3b 4087 e43d ee21 d03d 2242 a43e
00000340: f042 04bc c51c f4bc e0f8 a63d 5f82 aabd
00000350: 8b7e 333e 27d9 5d3d f50c 033e f4a7 1cbd
00000360: 285c 15bd 74ed 863c 9e32 1a3e 0838 e93c
00000370: 437f f5bd 787a e63c 4fdc 213e 614e 2a3d
00000380: 2a25 a23d 6fee 1fbe afde 29be 9f84 4fbe
00000390: 2e0e c73d 88b6 a6bd ae92 68be 9866 f43c
000003a0: d0b2 0f3c 1eb0 723d 88af d83c ed51 2e3d
000003b0: cf50 183d 514e 2d3d 206f b5bd 144b 3bbe
000003c0: 3f03 4ebe a7f8 183e 0658 343c 3062 563e
000003d0: 0905 4d3e 69f7 9fbc 6778 073e 8d1a 9abd
000003e0: 77bb b6bd 5035 ca3d 8564 2dbe 9607 18be
000003f0: 4e4d 8bbd 2f33 3dbd 6ccf e7bb 3dd0 e6bd

vae.fc1.weight f4 [128, 64]
0.18012434 0.06538604 0.00035804737 -0.18253209 -0.08340766 -0.082623884 -0.008723793 -0.099048294
-0.11642659 0.061555758 0.09360134 -0.04596525 0.007845803 0.009972368 0.072376445 0.06395671
0.10799273 0.20758502 0.15435874 0.16759343 -0.018346723 -0.20417273 -0.03941765 -0.07589327
-0.13168223 -0.059320267 -0.0627072 -0.0073492643 0.009880166 0.016136957 0.093785726 0.00016900322
-0.09532521 -0.04185366 0.022583202 0.05586036 0.053838953 -0.09498011 0.07433582 0.022660023
0.11347235 -0.057492513 -0.0485065 -0.09574855 -0.113365814 -0.12635797 -0.06707773 -0.031758092
-0.00094825757 0.08680487 -0.098850586 0.047104526 -0.14314757 0.10474502 0.05131911 0.19094375
0.048940875 0.0029233769 -0.1476394 0.07560105 -0.058317635 -0.060761634 0.0043640765 -0.06955812
-0.14632656 0.060800627 -0.11683467 0.01627554 0.0334751 0.23322436 -0.04361823 0.071083255
-0.015887199 -0.08694282 0.08103625 -0.13703054 -0.05257448 0.041126247 0.1865132 0.049305074
0.12369904 -0.13832627 -0.11965982 -0.16162945 0.042373903 0.16127297 -0.008880326 0.12820984
-0.0863096 0.07552642 0.04708049 0.041771047 -0.12987287 -0.017996624 0.16930094 0.06819097
0.19744265 0.18072249 -0.07667396 -0.31112528 0.01845937 -0.041607685 -0.20473422 -0.101460345
0.060962636 -0.11677054 -0.10194668 -0.12778144 -0.017209042 0.018583179 0.051838733 0.23028088
0.2655757 -0.032920994 0.042031072 0.016963307 0.0164607 -0.0052807517 0.15390345 -0.13272654
-0.032346502 -0.06481467 0.148804 -0.10296696 -0.09359926 0.02118682 0.0570089 -0.071532734
-0.051205095 0.047367904 0.06398723 -0.00641814 -0.118374564 0.01209454 -0.11258076 -0.096737206
-0.03611625 0.10357242 -0.07743052 -0.011688675 0.10309688 0.09780789 0.02308416 -0.020047802
-0.11547821 -0.032029398 0.0058279727 -0.07390701 0.24180035 0.07940656 0.031485803 0.08219217
-0.057997502 -0.09864779 -0.042001497 0.16481553 -0.033406876 0.02824276 0.09137734 -0.032897446
-0.15291484 -0.08911293 -0.033891287 0.21339723 -0.05425377 -0.091766305 0.10351294 -0.012324964
-0.18280669 0.031546913 0.010415534 -0.21403877 0.067566 0.16729864 -0.1649078 0.11629735
-0.11639906 0.061719265 -0.045430254 -0.041503083 -0.029089529 -0.005147053 0.0595053 -0.00080731104
-0.133395 0.061680857 0.055853557 0.13870205 0.058636505 -0.004397538 0.11059684 -0.016621014
-0.118635274 -0.10040627 0.07005947 -0.0023513453 -0.01742578 -0.023560444 -0.29326382 0.008917561
-0.024005387 -0.06276287 0.020131385 0.015105146 -0.08174567 -0.058314368 -0.004313823 -0.13756604
-0.0924974 -0.030413022 -0.05596021 -0.02019776 -0.097140096 0.13915943 -0.008177439 -0.01309739
0.057178386 0.052787315 -0.13719594 0.07608553 -0.11024929 0.18075143 0.02999515 0.06517114
0.13287278 0.09908914 -0.024783667 -0.14776488 0.053126104 0.23534885 -0.15546155 -0.118093856
0.09379078 -0.035044957 -0.008463878 -0.02830302 -0.037987195 0.11069329 0.2247046 0.09287155
0.07291786 -0.06503562 0.15392685 0.06812313 0.041463453 0.049682595 0.0007442433 -0.14339805
-0.0029628223 -0.11262471 0.18958676 0.045340333 0.069007285 -0.045408856 0.11271701 -0.16581033
00000000: 8472 383e 1ee9 853d 4eb8 bb39 b1e9 3abe
00000010: a3d1 aabd b636 a9bd 3dee 0ebc d5d9 cabd
00000020: 1071 eebd e421 7c3d 0fb2 bf3d 0f46 3cbd
00000030: af8b 003c 2563 233c 1a3a 943d bcfb 823d
00000040: 4b2b dd3d 2b91 543e 3810 1e3e 9d9d 2b3e
00000050: de4b 96bc a812 51be 6774 21bd ee6d 9bbd
00000060: b5d7 06be cff9 72bd a26c 80bd 19d2 f0bb
00000070: 6be0 213c a731 843c bb12 c03d 7536 3139
00000080: dd39 c3bd be6e 2bbd 6800 b93c d5cd 643d
00000090: 3c86 5c3d ef84 c2bd 613d 983d 83a1 b93c
000000a0: 3164 e83d 457d 6bbd c0ae 46bd d117 c4bd
000000b0: 562c e8bd fc63 01be 0d60 89bd c614 02bd
000000c0: 7d94 78ba c0c6 b13d 2d72 cabd adf0 403d
000000d0: 4795 12be 8f84 d63d fd33 523d c286 433e
000000e0: 3a76 483d 2096 3f3b c82e 17be b9d4 9a3d
000000f0: 79de 6ebd 31e1 78bd 8700 8f3b 7d74 8ebd
00000100: a1d6 15be 140a 793d 0447 efbd 4854 853c
00000110: 301d 093d 5ed2 6e3e 07a9 32bd 1994 913d
00000120: df25 82bc 140f b2bd 55f6 a53d bc51 0cbe
00000130: 5758 57bd ff73 283d 51fd 3e3e 1ef4 493d
00000140: ec55 fd3d 67a5 0dbe 3510 f5bd 3182 25be
00000150: 4290 2d3d be24 253e c97e 11bc 7149 033e
00000160: 16c3 b0bd 98ad 9a3d 79d7 403d 1e18 2b3d
00000170: 65fd 04be a86d 93bc 3a5d 2d3e b5a7 8b3d
00000180: 682e 4a3e 510f 393e 3d07 9dbd d04b 9fbe
00000190: 1b38 973c d26c 2abd d9a5 51be 71ca cfbd
000001a0: f5b3 793d 6525 efbd 6cc9 d0bd 23d9 02be
000001b0: faf9 8cbc c03b 983c da54 543d c0ce 6b3e
000001c0: 8af9 873e 2ad8 06bd c628 2c3d a2f6 8a3c
000001d0: 97d8 863c 280a adbb de98 1d3e 77e9 07be
000001e0: c47d 04bd 8ebd 84bd 1360 183e 57e0 d2bd
000001f0: f8b0 bfbd fb8f ad3c 2a82 693d c17f 92bd
00000200: 6fbc 51bd d904 423d bd0b 833d 434f d2bb
00000210: 5d6e f2bd 2d28 463c be90 e6bd 281e c6bd
00000220: a2ee 13bd c71d d43d e493 9ebd db81 3fbc
00000230: 7524 d33d 814f c83d fe1a bd3c 4a3b a4bc
00000240: d77f ecbd 4231 03bd 94f8 be3b 8f5c 97bd
00000250: 839a 773e e89f a23d 42f7 003d 5e54 a83d
00000260: ca8e 6dbd da07 cabd c309 2cbd 67c5 283e
00000270: a6d5 08bd 5c5d e73c 0b24 bb3d 79bf 06bd
00000280: b595 1cbe d780 b6bd 97d1 0abd ce84 5a3e
00000290: 3339 5ebd f9ef bbbd 98fe d33d a5ee 49bc
000002a0: ad31 3bbe 5637 013d eaa5 2a3c fb2c 5bbe
000002b0: 0b60 8a3d 5650 2b3e 97dd 28be 4e2d ee3d
000002c0: a162 eebd 57cd 7c3d 1315 3abd 23ff 29bd
000002d0: 2a4d eebc 9ca8 a8bb d4bb 733d baa1 53ba
000002e0: b398 08be 11a5 7c3d b3c6 643d e907 0e3e
000002f0: d52c 703d 3919 90bb 9980 e23d cb28 88bc
00000300: 0df7 f2bd cda1 cdbd 577b 8f3d 0719 1abb
00000310: 82c0 8ebc d501 c1bc ad26 96be f61a 123c
00000320: f2a6 c4bc d289 80bd 93ea a43c 937b 773c
00000330: 466a a7bd 0cdb 6ebd f85a 8dbb 1dde 0cbe
00000340: 476f bdbd bb24 f9bc 8836 65bd c675 a5bc
00000350: 63f1 c6bd cf7f 0e3e aafa 05bc 6f96 56bc
00000360: e233 6a3d 8337 583d 187d 0cbe bbd2 9b3d
00000370: 61ca e1bd e716 393e 64b8 f53c 7278 853d
00000380: cd0f 083e 3fef ca3d 1e07 cbbc ad4f 17be
00000390: c29a 593d 4aff 703e 5031 1fbe 31db f1bd
000003a0: 6115 c03d 4d8b 0fbd 14ac 0abc bcdb e7bc
000003b0: 7698 1bbd 2ab3 e23d f618 663e 7033 be3d
000003c0: f555 953d 6531 85bd 009f 1d3e 2484 8b3d
000003d0: 95d5 293d fa7f 4b3d 5319 433a f0d6 12be
000003e0: e92b 42bb c9a7 e6bd 0823 423e c9b6 393d
000003f0: b153 8d3d a3fe 39bd 2dd8 e63d 2fca 29be

vae.fc1.bias f4 [128]
0.11004077 -0.17536686 0.19126225 -0.3974669 -0.055372123 -0.15169242 0.41803315 -0.38253257
-0.24839275 -0.24442808 0.63953257 -0.15761286 -0.06338076 -0.3456407 -0.5221094 -0.44471255
0.05736227 -0.3662803 0.06598387 0.07571891 0.5142099 0.13179898 -0.25798178 -0.19691126
-0.41684157 0.023108026 -0.2705825 -0.2010922 -0.17387879 0.113356106 -0.56303936 -0.3503226
-0.3447095 -0.5649473 -0.5221095 0.11380128 0.13658781 -0.5728615 -0.49608642 -0.015674861
0.4169009 0.009820841 -0.08634535 -0.14780518 0.11756127 -0.63098145 0.20332494 -0.3208995
-0.07749608 -0.24906456 0.021546707 0.00907767 -0.57133675 -0.42228875 -0.17670797 0.05997229
-0.06795467 -0.5083183 -0.25896385 -0.5717073 -0.1324953 0.19210999 -0.42052966 -0.40632153
-0.3128052 -0.40966573 -0.53483844 0.1621398 -0.24785899 0.6976198 -0.49010372 -0.10649877
-0.18098499 -0.12485239 -0.3141002 -0.2176187 0.59068924 -0.17837565 -0.32753927 -0.22123227
-0.20507365 -0.28272206 0.18885033 -0.14757816 -0.11261695 0.44514766 -0.57604486 -0.042375177
-0.106493786 0.11606647 -0.23231602 -0.41458902 -0.05108824 -0.6372451 -0.45498964 -0.7216632
-0.57553196 -0.32512215 -0.41139522 -0.5361216 -0.5740205 -0.5074876 0.25576004 -0.3698726
0.20405157 -0.415504 -0.48039228 -0.03383852 -0.31482303 -0.30610245 0.21391276 -0.027356619
-0.030749533 -0.3606837 -0.36862797 -0.31291264 0.042917866 -0.2726525 -0.39380926 -0.10384255
0.44836232 -0.30898222 -0.2376122 0.15622215 0.3574148 0.30832785 0.3787726 -0.07847357
00000000: 0e5d e13d 5f93 33be 40da 433e c880 cbbe
00000010: e1cd 62bd 4255 1bbe 7108 d63e 4fdb c3be
00000020: ab5a 7ebe 5b4b 7abe 68b8 233f 4465 21be
00000030: c6cd 81bd d1f7 b0be f6a8 05bf 5db1 e3be
00000040: b3f4 6a3d 1789 bbbe 8d22 873d 8412 9b3d
00000050: 43a3 033f 50f6 063e 3016 84be 1ba3 49be
00000060: 426c d5be 0b4d bd3c ca89 8abe 1deb 4dbe
00000070: 480d 32be 3f27 e83d 5923 10bf 7c5d b3be
00000080: c37d b0be 63a0 10bf f8a8 05bf a510 e93d
00000090: addd 0b3e 0da7 12bf 0aff fdbe 9168 80bc
000000a0: 0974 d53e 98e7 203c d5d5 b0bd 3e5a 17be
000000b0: f7c3 f03d 0088 21bf 6a34 503e f04c a4be
000000c0: 44b6 9ebd c80a 7fbe b882 b03c 82ba 143c
000000d0: 2043 12bf 3b36 d8be eff2 34be 81a5 753d
000000e0: d12b 8bbd 2621 02bf e996 84be 695b 12bf
000000f0: d9ac 07be 7bb8 443e aa4f d7be 6009 d0be
00000100: 0128 a0be b5bf d1be 2ceb 08bf fa07 263e
00000110: bfce 7dbe 3697 323f e0ee fabe 071c dabd
00000120: 2154 39be 9cb2 ffbd bed1 a0be 70d7 5ebe
00000130: 6937 173f 1ba8 36be 3ab3 a7be b68a 62be
00000140: d4fe 51be f2c0 90be fb61 413e bb1e 17be
00000150: b7a3 e6bd 65ea e33e ad77 13bf 9891 2dbd
00000160: 6a19 dabd 42b4 ed3d 40e4 6dbe 0345 d4be
00000170: e741 51bd 7f22 23bf 67f4 e8be ebbe 38bf
00000180: 1056 13bf 6976 a6be 65a2 d2be 443f 09bf
00000190: 02f3 12bf b5ea 01bf fbf2 823e f15f bdbe
000001a0: e5f2 503e f1bc d4be faf5 f5be 439a 0abd
000001b0: 7c30 a1be 76b9 9cbe f20b 5b3e fd1a e0bc
000001c0: 72e6 fbbc 89ab b8be cebc bcbe 1636 a0be
000001d0: a5ca 2f3d 1c99 8bbe 5ea1 c9be 67ab d4bd
000001e0: bf8f e53e eb32 9ebe 9d50 73be b3f8 1f3e
000001f0: 13ff b63e 26dd 9d3e 7bee c13e c0b6 a0bd

vae.fc_mu.weight f4 [16, 128]
0.03277351 -0.004088308 -0.03799034 -0.048200194 -0.043604463 -0.08238496 -0.0040949006 -0.03383822
-0.016840871 -0.07008159 -0.06145518 0.024101933 0.0146144265 0.07822786 -0.05611766 0.032276656
0.039815195 -0.08529414 -0.05508488 -0.02959415 -0.045491815 0.043197986 0.03959029 -0.016681604
-0.14562206 0.043851063 0.0808564 0.039590754 -0.06916883 -0.047944993 0.016458854 -0.084292576
0.041984163 -0.05145614 -0.10684289 -0.074228525 -0.06342535 -0.07902014 -0.06722795 -0.05925581
0.17344631 -0.027583761 0.07469114 -0.014924828 -0.08848175 -0.020565543 -0.06951218 0.03797328
-0.07002708 0.045094524 0.010035685 0.012203873 -0.0027538487 0.08876663 -0.007451362 0.015795222
0.009914392 -0.2115102 0.014117662 -0.11097159 0.041649852 0.028537404 -0.04416956 -0.020389052
0.06910997 -0.045342665 -0.118507825 -0.029622514 0.09683501 0.09172388 -0.13278855 0.031221032
0.03497696 0.07034655 -0.12234262 -0.03806049 0.016341265 0.05488282 0.029013088 0.013384985
0.03910195 0.032136027 -0.07434688 -0.10155534 0.02094159 -0.024781419 -0.055864748 -0.07277421
-0.08182392 0.11558915 -0.0971416 0.13738936 -0.07716801 -0.058435123 -0.018303838 0.015078683
0.022253469 -0.0047496967 -0.0075703533 0.0054848404 -0.0007237551 0.09872243 -0.0025338556 -0.021479474
0.030913886 0.055636875 0.036649175 -0.070647016 0.00793173 0.010416311 -0.11207862 -0.04891639
-0.052753936 -0.12510315 0.045143247 -0.058387704 0.008407196 -0.045884605 -0.018160215 -0.06300132
-0.1065377 0.01664654 0.020985754 -0.092241324 -0.024070969 0.07086092 0.053739574 -0.0073654763
0.12990277 0.15991305 -0.08801993 0.10622312 0.036226552 0.15363373 0.09999655 0.07131347
-0.119245 -0.09105256 0.085021615 -0.07217068 0.017183175 0.04586596 0.010840787 -0.17543219
-0.13568501 0.04003228 -0.13901883 -0.0025466746 0.033595372 -0.029360706 -0.039570414 -0.054199483
0.08463471 0.030336704 -0.07254763 -0.02633392 0.046981867 -0.13776787 -0.06397196 -0.013191939
0.029667193 -0.03844523 -0.0021450254 -0.054525856 0.059981413 -0.08539609 0.0014856209 -0.015054288
0.04567105 -0.0022396152 0.09622995 0.06637392 -0.08909518 0.044716034 -0.086279914 -0.062120855
-0.03945146 0.055215538 0.04264056 0.082638465 0.06001098 -0.08931939 0.030850241 0.059884507
-0.09007527 0.079429306 -0.0012704502 0.09658772 0.025851412 0.030364024 -0.04578196 -0.030512901
0.094656505 -0.05670211 0.08891885 -0.010832821 0.041409187 0.06579877 0.09727545 -0.04797677
-0.051223677 -0.096068524 -0.041665766 -0.03082933 -0.106816426 0.03950472 0.03883686 0.0007929349
0.1046865 0.10084182 0.08862174 -0.009816902 0.016454643 0.033656277 0.057385504 -0.056253955
-0.024427371 -0.05421367 0.13339303 -0.096873716 -0.02440233 -0.09113384 0.13864838 0.06397073
-0.015900832 0.11181389 -0.100831166 0.033658694 -0.018280912 -0.087993875 -0.13164282 0.092586614
-0.057689402 0.008310518 0.06341919 -0.08018487 -0.01866896 0.046628553 0.040549632 0.047206853
0.025016783 -0.14521547 0.0066017816 -0.022492046 -0.02174408 -0.120477475 0.05008847 -0.006231064
0.03989038 -0.064708434 0.059272572 0.0039386177 -0.16748177 -0.097592615 0.071057424 0.016044775
00000000: 843d 063d 37f7 85bb c29b 1bbd 916d 45bd
00000010: 989a 32bd 72b9 a8bd 842e 86bb f299 0abd
00000020: def5 89bc f086 8fbd 6db8 7bbd 6b71 c53c
00000030: 5971 6f3c ee35 a03d a2db 65bd 8734 043d
00000040: 4215 233d b2ae aebd afa0 61bd 6e6f f2bc
00000050: a055 3abd 5ff0 303d 6e29 223d dca7 88bc
00000060: f31d 15be 2c9d 333d 0a98 a53d ea29 223d
00000070: 63a8 8dbd f861 44bd b8d4 863c 96a1 acbd
00000080: 96f7 2b3d acc3 52bd 72d0 dabd 2005 98bd
00000090: 26e5 81bd 50d5 a1bd cfae 89bd 38b6 72bd
000000a0: e99b 313e 57f7 e1bc abf7 983d 4487 74bc
000000b0: eb35 b5bd 1279 a8bc 675c 8ebd df89 1b3d
000000c0: 5c6a 8fbd 09b5 383d b76c 243c c1f2 473c
000000d0: ea79 34bb 47cb b53d 8e2a f4bb fb64 813c
000000e0: f96f 223c 2196 58be c44d 673c 1345 e3bd
000000f0: 0999 2a3d 46c7 e93c 24eb 34bd f106 a7bc
00000100: 8789 8d3d 3bb9 39bd 3bb4 f2bd eaaa f2bc
00000110: 6f51 c63d bbd9 bb3d b9f9 07be 40c3 ff3c
00000120: 0044 0f3d da11 903d c48e fabd 51e5 1bbd
00000130: 1ede 853c cfcc 603d dbac ed3c b24c 5b3c
00000140: 5e29 203d 11a1 033d 2d43 98bd 3ffc cfbd
00000150: b38d ab3c 6702 cbbc 6fd2 64bd a50a 95bd
00000160: 4d93 a7bd 01ba ec3d 2df2 c6bd ccaf 0c3e
00000170: 430a 9ebd ab59 6fbd eef1 95bc 950c 773c
00000180: e84c b63c 58a3 9bbb ba10 f8bb 2dba b33b
00000190: 62ba 3dba fc2e ca3d 0b0f 26bb b9f5 afbc
000001a0: 1e3f fd3c 7ee3 633d 721d 163d 62af 90bd
000001b0: 16f4 013c 2da9 2a3c 7a89 e5bd 8d5c 48bd
000001c0: 8314 58bd 0a1b 00be 20e8 383d f227 6fbd
000001d0: 56be 093c 7ff1 3bbd bbc4 94bc d606 81bd
000001e0: 7030 dabd 535e 883c 51ea ab3c 05e9 bcbd
000001f0: 7b30 c5bc 881f 913d 071e 5c3d 185a f1bb
00000200: 3b05 053e 3fc0 233e cb43 b4bd 828b d93d
00000210: 4b62 143d 2952 1d3e feca cc3d cc0c 923d
00000220: b936 f4bd c479 babd d01f ae3d 39ce 93bd
00000230: bbc3 8c3c f2dd 3b3d 8e9d 313c 7fa4 33be
00000240: 03f1 0abe e3f8 233d f45a 0ebe 1ce6 26bb
00000250: 4d9b 093d dd85 f0bc 9614 22bd 4700 5ebd
00000260: f654 ad3d ae84 f83c da93 94bd 3cba d7bc
00000270: 0f70 403d 0513 0dbe bb03 83bd 0123 58bc
00000280: 9d08 f33c bf78 1dbd 8e93 0cbb 8156 5fbd
00000290: 12af 753d 25e4 aebd 2ab9 c23a 43a6 76bc
000002a0: 9111 3b3d 82c6 12bb 3514 c53d 0def 873d
000002b0: 8977 b6bd 2928 373d 86b3 b0bd 7072 7ebd
000002c0: db97 21bd b029 623d dea7 2e3d 5b3e a93d
000002d0: 13ce 753d 16ed b6bd a5b9 fc3c 7549 753d
000002e0: 6279 b8bd d5ab a23d 3c85 a6ba c8cf c53d
000002f0: 57c6 d33c f9bd f83c dd85 3bbd 31f6 f9bc
00000300: 45db c13d 7940 68bd 161b b63d 257c 31bc
00000310: ae9c 293d 81c1 863d 5a38 c73d 4a83 44bd
00000320: ebcf 51bd 93bf c4bd b9a9 2abd cb8d fcbc
00000330: 92c2 dabd b4cf 213d 6613 1f3d f6dc 4f3a
00000340: e065 d63d 2886 ce3d 517f b53d 12d7 20bc
00000350: e3cb 863c 2adb 093d 100d 6b3d 8c6a 66bd
00000360: e91b c8bc 270f 5ebd 2f98 083e ba65 c6bd
00000370: 65e7 c7bc 61a4 babd d7f9 0d3e 1603 833d
00000380: 7642 82bc aefe e43d 9280 cebd b3dd 093d
00000390: dac1 95bc 2236 b4bd 60cd 06be 0d9e bd3d
000003a0: b94b 6cbd d728 083c ece1 813d f737 a4bd
000003b0: a6ef 98bc 95fd 3e3d 5f17 263d f95b 413d
000003c0: ffef cc3c 5db3 14be c253 d83b 3d41 b8bc
000003d0: a420 b2bc e5bc f6bd 9129 4d3d f42d ccbb
000003e0: 1864 233d db85 84bd ccc7 723d 850f 813b
000003f0: 5780 2bbe a3de c7bd 8e86 913d 5570 833c

vae.fc_mu.bias f4 [16]
0.08963392 0.32535055 0.12176385 -0.14035717 -0.49747625 0.29516286 0.1008923 -0.16834533
-0.05273442 0.11056347 0.08045849 0.31693387 -0.002315534 0.14126004 0.19639966 -0.13299099
00000000: fd91 b73d 5994 a63e 535f f93d cab9 0fbe
00000010: 35b5 febe 961f 973e 9fa0 ce3d b862 2cbe
00000020: 0c00 58bd 1a6f e23d 6cc7 a43d 2845 a23e
00000030: 37c0 17bb 79a6 103e fe1c 493e ca2e 08be

vae.fc_logvar.weight f4 [16, 128]
-0.17631851 0.07574134 -0.10666731 -0.025535129 -0.07640691 -0.0212078 0.024178164 -0.042977527
-0.06439625 -0.08120393 -0.019517811 0.013186283 -0.091975294 -0.107266456 0.023283161 0.02650174
-0.029620346 0.05875307 0.01873451 -0.20216528 0.033656094 -0.148561 0.050899975 -0.11568147
-0.017535107 -0.054952182 0.033693817 -0.003401339 -0.02207154 0.064661145 0.028871527 -0.08812997
-0.006607196 0.039736513 0.08717529 -0.022674877 -1.1040125 -0.010441903 -0.012876833 -0.018037403
-0.52198 -0.10010163 0.027699338 -0.013302137 -0.00014863975 -0.006737297 -0.15247162 -0.086750396
-0.038637824 0.1008877 -0.022748312 -0.09134634 -0.060881894 0.11095621 -0.0080596125 -0.13766053
0.053876825 0.04131485 -0.030766187 0.07856979 -0.0050743762 -0.010047538 -0.04688188 0.028139453
0.052145615 -0.008330073 0.034633026 -0.010209786 0.013965886 -0.13832036 -0.15368114 -0.030019835
0.022776341 -0.103663646 0.021556173 0.020407071 -0.060523525 0.014101352 0.07344813 -0.15379526
0.029923493 0.07728002 -0.1261178 0.020599473 -0.010485454 0.035055317 -0.040764306 0.019512529
-0.1459373 -0.15847754 -0.036335766 0.04070984 0.060743116 -0.008527596 0.06179586 0.071894266
0.034446508 -0.01418877 0.075455226 -0.08463209 0.032429546 0.0045902906 -0.050715126 0.08135031
-0.056199275 0.103232585 0.023291001 -0.02190765 -0.06867299 -0.07441276 0.08132351 0.0028265584
-0.00016741281 0.0643528 0.004361134 -0.10729136 0.12568158 -0.012353889 -0.043974947 -0.0443535
-0.6503278 -0.02137064 -0.00947859 -0.070643775 -0.060359087 -0.05489948 -0.045223106 -0.015641851
-0.4612052 -0.050687447 -0.026950337 -0.10702662 0.03125233 -0.06369616 -0.49909523 0.08299223
-0.14621797 0.045191355 -0.38271332 -0.018670904 -0.09567399 -0.008274289 0.070661254 -0.117605425
-0.03892021 -0.102022804 -0.463742 0.011719486 -0.6297042 -0.09876014 0.0011353646 -0.053385474
-0.056098107 -0.2739688 0.01567888 -0.08675711 -0.55962247 0.06239777 0.027484374 -0.07346112
-0.07629745 -0.024865894 -0.029014818 -0.32526726 -0.34787676 -0.057586215 -0.039401077 -0.03336146
-0.51308423 -0.17230016 -0.18514298 -0.19721365 -0.51641285 -0.073011704 -0.0029871543 0.0051328833
-0.28176352 -0.053731594 -0.3853236 -0.0062741917 0.000637725 0.0025272777 -0.0711271 -0.27984652
-0.104765974 -0.042602275 0.053987324 -0.036038727 -0.07703929 -0.0266479 -0.06252327 0.079895444
-0.11100035 -0.052109636 0.054651022 -0.5788467 -0.050466266 -0.030730903 0.00073138624 -0.079000644
0.01097895 -0.6770407 -0.0246929 0.0065434882 -0.4185082 -0.08588472 -0.058538012 -0.049654193
-0.039173756 0.029188834 -0.499023 -0.11176559 0.23418573 0.0014025425 -0.0162392 0.40781492
-0.05509476 0.019453133 -0.033748634 -0.07495086 0.0142147085 0.05875074 0.080938034 -0.045489535
0.022260342 -0.06538857 0.017883413 -0.09026664 0.019900307 0.04378935 -0.039228216 -0.06889689
-0.47810176 -0.09160854 0.03615438 0.05790321 0.065626316 -0.027170507 -0.43471092 -0.41000322
0.035265885 -0.07587195 -0.08530141 -0.0012195373 -0.101827264 0.05273082 -0.020297192 0.031933952
-0.55823934 -0.01368507 -0.075760245 -0.061326347 -0.38939086 -0.06836532 -0.08072999 -0.033294242
00000000: d78c 34be 471e 9b3d 6474 dabd 0c2f d1bc
00000010: 3a7b 9cbd fbbb adbc 4911 c63c 3409 30bd
00000020: 2ee2 83bd 3f4e a6bd d1e3 9fbc 480b 583c
00000030: 8b5d bcbd 84ae dbbd 54bc be3c 2d1a d93c
00000040: 5ea6 f2bc 0fa7 703d 1d79 993c 6a04 4fbe
00000050: f9da 093d 6020 18be 7e7c 503d 68ea ecbd
00000060: c9a5 8fbc 8a15 61bd 8702 0a3d 00e9 5ebb
00000070: 60cf b4bc 106d 843d fb83 ec3c 7c7d b4bd
00000080: 2d81 d8bb c1c2 223d f588 b23d aac0 b9bc
00000090: 4850 8dbf 8414 2bbc 5af9 52bc 2dc3 93bc
000000a0: 7ba0 05bf 1502 cdbd b9e9 e23c 35f1 59bc
000000b0: 2edc 1bb9 8bc4 dcbb 8521 1cbe 31aa b1bd
000000c0: b242 1ebd 369e ce3d ab5a babc ca13 bbbd
000000d0: 4b5f 79bd 023d e33d 770c 04bc e2f6 0cbe
000000e0: f2ad 5c3d c339 293d 5f09 fcbc 33e9 a03d
000000f0: f446 a6bb 6e9e 24bc 3707 40bd b684 e63c
00000100: a496 553d dc7a 08bc 5cdb 0d3d f246 27bc
00000110: 2cd1 643c daa3 0dbe 975e 1dbe 28ec f5bc
00000120: 7395 ba3c 9b4d d4bd 9296 b03c bb2c a73c
00000130: 84e7 77bd 5b09 673c f96b 963d 817c 1dbe
00000140: 1d22 f53c fd44 9e3d 0625 01be 3ac0 a83c
00000150: 2fcb 2bbc 2a96 0f3d 79f8 26bd bdd8 9f3c
00000160: 9670 15be f047 22be d0d4 14bd 5cbf 263d
00000170: c6cd 783d 54b7 0bbc a81d 7d3d 4d3d 933d
00000180: c817 0d3d 0478 68bc 4588 9a3d 9753 adbd
00000190: d8d4 043d 266a 963b aaba 4fbd fe9a a63d
000001a0: 3631 66bd 9b6b d33d c5cc be3c ac77 b3bc
000001b0: 6da4 8cbd b865 98bd f18c a63d c83d 393b
000001c0: 898b 2fb9 67cb 833d d8e7 8e3b 93bb dbbd
000001d0: acb2 003e f767 4abc 131f 34bd 04ac 35bd
000001e0: e27b 26bf 7b11 afbc 174c 1bbc afad 90bd
000001f0: 173b 77bd 47de 60bd dd3b 39bd 5723 80bc
00000200: 1723 ecbe a49d 4fbd f4c6 dcbc c630 dbbd
00000210: 7102 003d 2273 82bd 6989 ffbe d5f7 a93d
00000220: 2aba 15be 921a 393d 00f3 c3be b9f3 98bc
00000230: baf0 c3bd e290 07bc d9b6 903d 1ddb f0bd
00000240: cc6a 1fbd 55f1 d0bd 976f edbe 1603 403c
00000250: 4b34 21bf c242 cabd 84d0 943a baaa 5abd
00000260: 21c7 65bd a345 8cbe ff70 803c b6ad b1bd
00000270: 6b43 0fbf ce94 7f3d e926 e13c c972 96bd
00000280: d641 9cbd 8fb3 cbbc 7cb0 edbc 6e89 a6be
00000290: e71c b2be 86df 6bbd 0663 21bd 07a6 08bd
000002a0: 7d59 03bf 746f 30be 1f96 3dbe 60f2 49be
000002b0: a233 04bf 2987 95bd 22c4 43bb bf31 a83b
000002c0: 4f43 90be a915 5cbd 2349 c5be bc97 cdbb
000002d0: 002d 273a afa0 253b 16ab 91bd 0b48 8fbe
000002e0: 8b8f d6bd b97f 2ebd d021 5d3d 589d 13bd
000002f0: c6c6 9dbd b24c dabc 330c 80bd 39a0 a33d
00000300: 2754 e3bd ea70 55bd c0d9 5f3d 4c2f 14bf
00000310: b7b5 4ebd 60bf fbbc 80ba 3f3a 17cb a1bd
00000320: 0ee1 333c 8a52 2dbf c448 cabc c26a d63b
00000330: b546 d6be 54e4 afbd 8ec5 6fbd 3262 4bbd
00000340: a974 20bd 6c1d ef3c f17f ffbe 5ce5 e4bd
00000350: 62ce 6f3e 84d5 b73a 1208 85bc 1ecd d03e
00000360: 0bab 61bd 2d5c 9f3c 023c 0abd d67f 99bd
00000370: cfe4 683c 9ea4 703d d7c2 a53d 3c53 3abd
00000380: 525b b63c 71ea 85bd 3c80 923c b7dd b8bd
00000390: f805 a33c 765c 333d c4ad 20bd d019 8dbd
000003a0: c1c9 f4be 429d bbbd 9d16 143d eb2b 6d3d
000003b0: 1767 863d af94 debc 6e92 debe f1eb d1be
000003c0: f672 103d c162 9bbd 81b2 aebd e2d8 9fba
000003d0: d08a d0bd 46fc 573d 4c46 a6bc 2dcd 023d
000003e0: c6e8 0ebf 5837 60bc 3028 9bbd 5631 7bbd
000003f0: 3d5e c7be 1e03 8cbd c455 a5bd 8b5f 08bd

vae.fc_logvar.bias f4 [16]
-0.1761924 -0.5191514 -1.1486868 -0.95572984 -0.08968329 -1.2838014 -0.21287404 -0.7574383
-0.43646038 -0.3315325 -1.3978444 -1.1776662 -0.59763783 -1.1122901 -0.9567879 -0.38669506
00000000: c86b 34be 1be7 04bf 2b08 93bf b6aa 74bf
00000010: dfab b7bd 9b53 a4bf a7fb 59be 7ae7 41bf
00000020: bc77 dfbe a1be a9be 91ec b2bf c4bd 96bf
00000030: cbfe 18bf 865f 8ebf 0df0 74bf e5fc c5be
