save_model/gat_vae_model.pth (torch, 359302 bytes, 54 tensors)

gat.gat1.att_src f4 [1, 2, 32]
0	0x3e111f2f	0.14172052
1	0x3dfd93cc	0.12381706
2	0x3f044594	0.5166867
3	0xbe8f4b3c	-0.27987087
4	0xbe2ac670	-0.1667726
5	0xbd0825ea	-0.033239283
6	0xbed1044c	-0.4082359
7	0xbe78ef49	-0.2431003
8	0xbd8b02fc	-0.067876786
9	0x3e881169	0.26575783
10	0x3e6702c6	0.22559652
11	0xb9ca11c3	-0.00038541676
12	0xbe364ef7	-0.1780356
13	0xbe8c91e9	-0.2745507
14	0x3e08785c	0.13327163
15	0x3e5d7bc7	0.21629249
16	0x3dee3ef8	0.11633104
17	0xbd69ebba	-0.057109572
18	0xbed95b23	-0.42452344
19	0xbf0b5887	-0.54431957
20	0x3e144f70	0.14483428
21	0xbdd62f5b	-0.10458251
22	0xbeac968f	-0.33708617
23	0xbe85f032	-0.26159817
24	0x3d512264	0.051058188
25	0x3c14c972	0.009081231
26	0x3e848dc4	0.2588941
27	0xbdbd75ec	-0.092510074
28	0xbebe8c94	-0.37216628
29	0xbe83acc4	-0.25717747
30	0x3ec00223	0.3750163
31	0xbed3317a	-0.41248685
32	0x3ec7bec2	0.39012724
33	0xbe7ba32b	-0.24573962
34	0xbe133c38	-0.1437844
35	0x3ebc883e	0.36822695
36	0x3ce77d9e	0.028258141
37	0xbd48478b	-0.048896354
38	0x3e39011b	0.18066828
39	0xbcad194f	-0.021130232
40	0x3dfd287a	0.12361236
41	0x3e00a000	0.12561035
42	0x3de3ce3b	0.1112332
43	0x3eada5a6	0.33915442
44	0x3ebc6850	0.36798334
45	0xbeadf381	-0.3397484
46	0x3e192002	0.14953616
47	0xbec775d5	-0.38957086
48	0xbcded29e	-0.02720004
49	0xbdf54d68	-0.11977655
50	0x3e4807af	0.19534181
51	0x3eb116b9	0.3458765
52	0xbea8fa68	-0.33003545
53	0x3e771c4a	0.24131885
54	0xbe0839d1	-0.13303305
55	0xbe90804c	-0.28222883
56	0x3eaad325	0.33364215
57	0x3dbe9cf9	0.09307284
58	0xbe2899a2	-0.16464856
59	0xbed5d9f3	-0.41767845
60	0x3e3816f2	0.17977503
61	0xbe9e591f	-0.3092737
62	0xbd7ac52d	-0.061223198
63	0xbcec7791	-0.028865607

gat.gat1.att_dst f4 [1, 2, 32]
0	0xbee4920d	-0.44642678
1	0xbe103535	-0.14082797
2	0x3e9339f1	0.28755143
3	0xbee35b07	-0.44405386
4	0xbe32e5c5	-0.17470463
5	0xbefb1bbe	-0.49044603
6	0x3e1a8d52	0.15092972
7	0x3eaa5da5	0.3327457
8	0xbe69d502	-0.22835162
9	0x3ee2f43d	0.44326964
10	0x3df6813e	0.1203637
11	0xbec8eda0	-0.39243793
12	0xbe354fc3	-0.17706208
13	0xbf098bb9	-0.53728825
14	0xbe0933f3	-0.13398723
15	0x3e49bfd5	0.19702084
16	0xbe153d32	-0.14574125
17	0xbdf6bd4a	-0.12047823
18	0xbe80af51	-0.25133756
19	0xbea6df64	-0.3259231
20	0x3e53bdf4	0.2067793
21	0xbe75ef67	-0.24017106
22	0xbea2ad63	-0.3177291
23	0x3d6c4d73	0.05769105
24	0x3ee288b7	0.4424493
25	0x3e63082c	0.22171086
26	0xbe5aaa46	-0.21354017
27	0xbe35c93b	-0.17752545
28	0xbeee6d1d	-0.46567622
29	0x3f051102	0.51979077
30	0xbbf00041	-0.007324249
31	0x3d18085c	0.037117347
32	0xbebb7bab	-0.3661779
33	0xbd25da86	-0.040491603
34	0x3eaa68dc	0.33283126
35	0x3dece377	0.11566823
36	0xbead4327	-0.33840296
37	0xbb343631	-0.002749812
38	0xbdcd0c54	-0.10012117
39	0xbe5b3c9f	-0.21409844
40	0xbe07b48f	-0.13252471
41	0x3eab17ca	0.33416587
42	0x3cfa351f	0.030542908
43	0xbe6d9d1f	-0.23204468
44	0x3e553bd4	0.20823604
45	0x3e895201	0.26820377
46	0xbd4280b2	-0.047486015
47	0xbdbcccde	-0.09218763
48	0x3c94db57	0.018170996
49	0x3e884d8e	0.2662167
50	0xbd9802bc	-0.074223965
51	0x3d23bc2c	0.039974377
52	0xbd65a719	-0.05606756
53	0x3eb0bd99	0.34519652
54	0xbdc2cb38	-0.09511417
55	0xbe6d46a8	-0.23171484
56	0xbe0638f0	-0.13107657
57	0x3eb930e5	0.36170116
58	0xbe51d1e1	-0.20490219
59	0x3e9436f4	0.28948176
60	0xbe9528ea	-0.29132777
61	0x3ec7aa64	0.38997185
62	0x3e83b91b	0.25727162
63	0x3e99fb32	0.3007446

gat.gat1.bias f4 [64]
0	0x39d55baf	0.00040694835
1	0xbd553ac3	-0.052057993
2	0x00000000	0.0
3	0xbd50dfc9	-0.05099467
4	0xbd51d0b3	-0.05122442
5	0xba7c61d2	-0.00096276135
6	0xbdd14ac2	-0.10219337
7	0x3dcf8f5a	0.10134764
8	0xbc95ed37	-0.01830159
9	0x3e51837c	0.20460314
10	0xbd1376c7	-0.036001947
11	0xbc41a961	-0.011820168
12	0xbd031ee1	-0.03201187
13	0xbb43d139	-0.0029879345
14	0x3e940d71	0.28916505
15	0x00000000	0.0
16	0xbda41de3	-0.08013513
17	0xbd08db6e	-0.03341239
18	0x3bb1f096	0.0054302914
19	0xbd106b4f	-0.035258587
20	0xbd50ffb1	-0.051025096
21	0x3e9ed218	0.31019664
22	0xbd10cc33	-0.03535099
23	0xbd578ed1	-0.052626435
24	0x00000000	0.0
25	0xbc5a3229	-0.013317623
26	0x3c6fd2fa	0.014637703
27	0x3ae3d206	0.0017381317
28	0xbd7f1df8	-0.06228444
29	0x00000000	0.0
30	0x3cad7d14	0.021177806
31	0xbd01ba81	-0.031672005
32	0xbbc4c9da	-0.006005508
33	0xbc49d289	-0.012318262
34	0xbd8f7400	-0.07004547
35	0x00000000	0.0
36	0xbc6fb1e4	-0.014629815
37	0xbd45fc6f	-0.048336443
38	0x3cd5b5dd	0.026087696
39	0xbdddfd66	-0.108393475
40	0xbd2c6dd3	-0.042096924
41	0xbbc4c9db	-0.0060055084
42	0xbde2a5cc	-0.110667795
43	0xbbda8d95	-0.00666971
44	0x3c012ff9	0.007884973
45	0x00000000	0.0
46	0x00000000	0.0
47	0x00000000	0.0
48	0x00000000	0.0
49	0x00000000	0.0
50	0x3bc4c9db	0.0060055084
51	0xbda3e61a	-0.08002873
52	0x00000000	0.0
53	0xbbc4c9db	-0.0060055084
54	0xbbc4c9da	-0.006005508
55	0xbd6fc00d	-0.058532763
56	0xbbc4c9da	-0.006005508
57	0xbdb92974	-0.0904111
58	0x00000000	0.0
59	0x00000000	0.0
60	0xbd932b6d	-0.07186017
61	0x00000000	0.0
62	0xbdec4e9e	-0.115384325
63	0xbbc4c9db	-0.0060055084

gat.gat1.lin.weight f4 [64, 12]
0	0x3e23c817	0.15994297
1	0x3e0344fc	0.12819284
2	0xbe0c52b9	-0.13703431
3	0x3e37ad33	0.17937164
4	0x3ddec34b	0.10877093
5	0x3d9a82ef	0.07544505
6	0x3bc43850	0.0059881583
7	0x3e35adeb	0.17742126
8	0x3e174425	0.14772089
9	0x3e890958	0.2676494
10	0x3d613b7f	0.05498838
11	0x3e7ca81e	0.24673507
12	0xbcf51316	-0.029916327
13	0x3e5f5c28	0.21812499
14	0x3e256fcc	0.16155928
15	0xbe32a646	-0.17446241
16	0x3e5dda87	0.21665393
17	0x3b55c351	0.0032617638
18	0x3c0cb9b0	0.008589193
19	0xbdf1378b	-0.11778172
20	0x3d255e9f	0.04037344
21	0xbd87eecf	-0.06637346
22	0x3ab32987	0.0013668992
23	0xbea18fd8	-0.31555057
24	0xbea2c6a5	-0.3179218
25	0x3c77fea0	0.015136391
26	0x3dc4afd7	0.09603851
27	0xbe884b29	-0.26619843
28	0xbe544016	-0.20727572
29	0xbd33defd	-0.04391383
30	0xbe5f0ecf	-0.21782993
31	0xbebe295b	-0.37140927
32	0xbe2ba58d	-0.16762371
33	0xbe862e23	-0.26207075
34	0x3d0968fd	0.03354739
35	0x3db63a4d	0.08897839
36	0x3e40c94e	0.18826792
37	0xbdc93517	-0.09824579
38	0xbe9c26c0	-0.30498314
39	0xbe2850a1	-0.16437007
40	0x3c79fd54	0.015258152
41	0x3e30cd18	0.17265737
42	0xbdde133d	-0.10843513
43	0x3db81936	0.089891836
44	0xbe16c055	-0.14721806
45	0xbd534db5	-0.05158778
46	0x3dd2a083	0.102845214
47	0x3e0cbad2	0.13743141
48	0x3d5ea4d9	0.05435643
49	0xbea31aef	-0.31856486
50	0xbdc6a5e1	-0.09699608
51	0xbe5d5c38	-0.2161721
52	0xbe4da883	-0.20083813
53	0xbe8786b6	-0.26469964
54	0xbc51c9b9	-0.012804442
55	0xbe8df8a9	-0.27728775
56	0xbe21af29	-0.15789475
57	0xbda3dd9e	-0.080012545
58	0xbe6d4075	-0.2316912
59	0x3e30c4c3	0.17262559
60	0x3cb3fce2	0.02197117
61	0xbc63f886	-0.013914233
62	0xbe41b26c	-0.18915719
63	0x3d027b49	0.031855855
64	0x3e426458	0.1898359
65	0xbe60e3f3	-0.21961956
66	0x3e04b8a8	0.12961066
67	0x3e09d3b4	0.13459665
68	0x3e277447	0.1635295
69	0xbe1934f7	-0.1496161
70	0xbd4e29a0	-0.050332665
71	0x3e930d1e	0.28720945
72	0x3dbf91b2	0.09353961
73	0x3d0f6468	0.035007864
74	0xbd4a15a2	-0.049337037
75	0xbda74b7b	-0.08168694
76	0xbe968247	-0.2939627
77	0xbdb6fdae	-0.08935104
78	0x3e28c89b	0.16482775
79	0xbe9f0255	-0.31056467
80	0xbd3e8d96	-0.046521746
81	0x3ddf2c05	0.10897068
82	0x3c745094	0.014911789
83	0xbe5a9679	-0.21346463
84	0xbddcbbe5	-0.107780255
85	0xbe712183	-0.2354794
86	0x3ea418d7	0.320502
87	0x3de2d844	0.11076406
88	0x3e1d0d39	0.15337075
89	0x3e9ea62c	0.30986154
90	0x3e054439	0.13014306
91	0x3e06b1e2	0.13153794
92	0xbdfaeece	-0.1225258
93	0x3ebf4e4f	0.37364432
94	0x3e720f43	0.23638634
95	0x3e3d6aa5	0.18497713
96	0x3dc5c126	0.09655981
97	0x3e57cf9c	0.2107529
98	0x3e4a9023	0.19781546
99	0xbd3fb968	-0.046807677
100	0x3e122f84	0.14275938
101	0xbe83bdfd	-0.25730887
102	0xbe8379df	-0.25678918
103	0xbe854aee	-0.2603373
104	0x3e5ac47d	0.21364017
105	0x3e8193d9	0.2530811
106	0xbd00928f	-0.03138977
107	0x3da5e8e0	0.08101058
108	0xbe19973a	-0.14999095
109	0x3e335b3b	0.1751527
110	0x3c9d2e38	0.019187078
111	0x3dbfb2b3	0.09360256
112	0x3e205010	0.15655541
113	0xbc8395f6	-0.016062718
114	0xbdc60359	-0.09668607
115	0x3dcc5e23	0.09978893
116	0x3ddb2cc9	0.107019015
117	0x3e576eaf	0.21038316
118	0x3ebd9466	0.37027282
119	0x3ea6b726	0.32561606
120	0xbe9b0a23	-0.3028117
121	0x3d5bea37	0.05369016
122	0x3b453e4a	0.0030096942
123	0x3e537a1e	0.20652053
124	0xbde7d289	-0.11319453
125	0x3d8e2db9	0.06942315
126	0x3dce60ac	0.100770324
127	0xbe96f0a1	-0.2948046
128	0x3dc47ea7	0.095944695
129	0x3d8a69cb	0.0675846
130	0x3e4966c5	0.1966811
131	0x3d710afd	0.05884837
132	0x3db25790	0.087081075
133	0xbe920960	-0.28522778
134	0xbdcce556	-0.1000468
135	0xbe8ebfc5	-0.27880684
136	0xbe4f5730	-0.20248103
137	0x3e213502	0.15742877
138	0xbe7e0e66	-0.2481018
139	0x3da75e8f	0.081723325
140	0x3e002d4d	0.12517281
141	0x3e134e6c	0.14385384
142	0x3c2c5493	0.010518211
143	0x3d06c854	0.03290589
144	0x3e0a6b29	0.13517441
145	0xbe6b7fad	-0.22997923
146	0x3db5873b	0.08863684
147	0x3e19dbba	0.15025225
148	0xbe2cbc34	-0.16868669
149	0x3d436fca	0.047714032
150	0x3e3dc75e	0.18533084
151	0x3dcf0e24	0.10110119
152	0xbe5e0a8c	-0.21683711
153	0xbe99c121	-0.30030158
154	0xbe89240a	-0.26785308
155	0xbdfbcd2d	-0.122949935
156	0x3e53fc49	0.20701708
157	0xbd5d94c3	-0.05409695
158	0x3e078659	0.13234843
159	0x3e821983	0.2541009
160	0x3c99db70	0.018781394
161	0x3d475fb3	0.04867525
162	0x3a2ff98e	0.0006712907
163	0xbe455f5e	-0.19274661
164	0x3e3057bf	0.17220972
165	0x3e7da4c3	0.24769883
166	0x3e3ca2ac	0.1842143
167	0xbe49e016	-0.19714388
168	0xbb761eff	-0.0037555096
169	0x3daa2de0	0.08309531
170	0x3eb0bcdd	0.3451909
171	0x3db4b0ca	0.08822782
172	0x3db16544	0.08661893
173	0x3dc6cdcb	0.09707221
174	0x3e0861dc	0.1331858
175	0x3dcb6d83	0.09932997
176	0x3e047ab3	0.12937431
177	0x3ec7087e	0.38873667
178	0x3ee0b304	0.43886578
179	0x3ed75fe7	0.42065355
180	0xbe590aa7	-0.2119547
181	0x3cfc1635	0.030772308
182	0xbe5769d4	-0.21036464
183	0x3b0a320a	0.0021086955
184	0x3e6821d6	0.22669157
185	0xbe9046ab	-0.28178915
186	0xbe48e41e	-0.1961827
187	0xbdb3db03	-0.087820075
188	0xbe03f109	-0.12884916
189	0xba8ecb6c	-0.0010894365
190	0xbe5ea58e	-0.21742842
191	0xbebb04bc	-0.3652705
192	0x3dd5da71	0.10442055
193	0xbe86a992	-0.26301247
194	0xbe08c29a	-0.13355485
195	0xbeba0f51	-0.3633981
196	0xbe21f031	-0.15814282
197	0xbe90107b	-0.28137574
198	0xbeb2ebd5	-0.3494555
199	0x3d902d95	0.07039944
200	0x3d44f238	0.04808256
201	0x3d6988cc	0.057015225
202	0xbe62f9c9	-0.22165598
203	0xbe39321a	-0.18085518
204	0x3de6cf20	0.11269975
205	0xbe9d7edc	-0.3076085
206	0x3d0a7d9f	0.033811208
207	0xbda8051c	-0.082040995
208	0xbe0ee2dc	-0.13953727
209	0x3e60cf2a	0.21954027
210	0xbe400cf8	-0.18754947
211	0xbe176edb	-0.14788382
212	0x3d24f625	0.040273804
213	0xbd5218d3	-0.051293205
214	0x3d9c436f	0.076300494
215	0x3d175187	0.036942985
216	0x3e1ba7b5	0.15200694
217	0x3e21a985	0.15787323
218	0xbd58eb44	-0.05295874
219	0xbe20df89	-0.15710272
220	0xbd262feb	-0.040573042
221	0xbdc3626a	-0.09540255
222	0xbd20b9d6	-0.039239727
223	0x3d5e6abe	0.054301016
224	0xbc80a96a	-0.015705783
225	0x3e6a7d26	0.22899303
226	0xbdb2e0a2	-0.087342516
227	0xbd0c6ca9	-0.034283314
228	0x3dd6a1a7	0.104800515
229	0x3ce4abf4	0.027914025
230	0x3db8e657	0.09028309
231	0xbe7ffabc	-0.24997991
232	0x3e429453	0.19001894
233	0xbe1ca3ac	-0.15296811
234	0x3e75cd7d	0.24004169
235	0xbe717d9b	-0.23583071
236	0x3dc37c51	0.09545196
237	0xbe909491	-0.28238347
238	0x3db6dad3	0.08928456
239	0x3dfc2176	0.1231107
240	0x3e389e4b	0.18029134
241	0x3bc6f91b	0.006072176
242	0xbbcbc535	-0.0062185773
243	0x3e0cfca2	0.13768247
244	0x3e706098	0.23474348
245	0xbe9e2559	-0.3088787
246	0xbcf6adfd	-0.030112261
247	0xbe4a8b16	-0.1977962
248	0xbe8aefd8	-0.2713611
249	0xbe13d11b	-0.14435236
250	0xbdfcd3b8	-0.1234507
251	0x3ccd6863	0.02507419
252	0xbb2df4cd	-0.0026543618
253	0x3df23ed9	0.118283935
254	0x3eaa1097	0.33215782
255	0x3f0e6f79	0.55638844

gat.gat2.att_src f4 [1, 1, 64]
0	0xbd10499e	-0.035226457
1	0x3e13a8f6	0.14419922
2	0xbe0d232e	-0.13782951
3	0xbe96935b	-0.29409298
4	0xbead696f	-0.33869502
5	0xbcf62105	-0.030045042
6	0xbe29a738	-0.16567695
7	0xbdcdf41a	-0.10056324
8	0x3db59e49	0.08868081
9	0x3bf6daa1	0.007533387
10	0xbe9e08db	-0.3086613
11	0x3e98f1c8	0.29871964
12	0x3e02d6e4	0.12777287
13	0x3b60cc81	0.0034301581
14	0xbe1f8592	-0.15578297
15	0xbbc18ef6	-0.005906935
16	0x3e5d64c0	0.21620464
17	0x3e037690	0.12838197
18	0x3e4c6d3d	0.19963546
19	0xbd858ece	-0.065213785
20	0x3db64965	0.08900718
21	0xbe2a0f69	-0.16607441
22	0xbd28c5bc	-0.0412042
23	0x3eb5ed32	0.35532528
24	0x3daa4b4c	0.08315143
25	0xbed90033	-0.42382964
26	0xbe146603	-0.1449204
27	0xbdbc5dc8	-0.09197575
28	0xbd1303cd	-0.035892297
29	0x3d6b84e4	0.05749978
30	0xbcb48c6e	-0.022039618
31	0x3deb4753	0.114882134
32	0x3e1160c2	0.14197066
33	0xbda47e87	-0.08031946
34	0x3eb37163	0.35047445
35	0x3e60e9b5	0.21964152
36	0xbe831c21	-0.25607398
37	0x3e5e7271	0.21723343
38	0x3e324ed7	0.17412888
39	0xbcf970f4	-0.030449368
40	0x3e9135e0	0.28361416
41	0x3d471721	0.04860604
42	0xbe2dc7e2	-0.1697078
43	0x3e9bdb53	0.3044077
44	0xbdd18cf2	-0.10231961
45	0xbd84adac	-0.06478438
46	0xbe7396ee	-0.23788044
47	0xbe9d8f30	-0.30773306
48	0x3da5a1fa	0.08087535
49	0x3e6d4720	0.23171663
50	0x3dbfb6ad	0.093610145
51	0x3e399217	0.18122135
52	0x3e3e40bf	0.18579386
53	0x3dad6de7	0.08468228
54	0xbdb03a19	-0.08604831
55	0x3d8eb7c3	0.069686435
56	0x3e709268	0.2349335
57	0xbdaa3c14	-0.0831224
58	0xbeee8e39	-0.46592882
59	0xbd2af54c	-0.04173784
60	0xbda37424	-0.079811364
61	0x3b8d72ee	0.004316679
62	0x3d7d87b5	0.061897
63	0xbe0e7c97	-0.13914715

gat.gat2.att_dst f4 [1, 1, 64]
0	0x3e9b0327	0.30275843
1	0x3e5f4680	0.21804237
2	0xbd9deadf	-0.07710814
3	0xbe3935f7	-0.18086992
4	0xbeb4c4dc	-0.35306442
5	0x3d310c70	0.043224752
6	0x3d697ded	0.057004858
7	0xbd534383	-0.051578056
8	0x3e10ac06	0.14128122
9	0x3e5fe628	0.21865141
10	0x3e101266	0.14069518
11	0x3d209dce	0.039212994
12	0x3dee3a9a	0.11632271
13	0x3dc1b9d0	0.09459269
14	0xbdbe69ba	-0.092975095
15	0x3c5b6619	0.013391041
16	0xbcaff3d3	-0.02147857
17	0xbcfa6f2f	-0.030570595
18	0x3e6b932e	0.23005363
19	0x3e97a791	0.2962003
20	0xbe2c4907	-0.16824733
21	0xbc35b3a8	-0.011090197
22	0xbe25b549	-0.16182436
23	0x3eadaa0b	0.33918795
24	0xbc77a674	-0.015115369
25	0xbebb4f2e	-0.36583847
26	0xbbdda55a	-0.006764096
27	0xbcb959cf	-0.022625832
28	0x3caf544c	0.0214025
29	0x3e687b23	0.22703223
30	0xbe366363	-0.1781135
31	0x3d6c5c5d	0.057705272
32	0x3dbb6d27	0.091516785
33	0x3e9b561b	0.3033913
34	0xbe0d8457	-0.13820015
35	0xbc97a2fb	-0.018510332
36	0x3ea9cda2	0.33164698
37	0x3dfe8f22	0.12429644
38	0xbebd24ff	-0.36942288
39	0x3e04d0ea	0.1297032
40	0x3e87e56f	0.2654223
41	0xbe7879f1	-0.24265267
42	0xbe968fad	-0.2940649
43	0x3b2157fc	0.0024619093
44	0xbe0adc7b	-0.13560669
45	0xbeb35bdd	-0.35031024
46	0x3e88f169	0.2674668
47	0xbd51ecab	-0.051251095
48	0xbe4e3834	-0.20138627
49	0xbe45560d	-0.19271107
50	0xbd4aac92	-0.049480982
51	0xbe544975	-0.20731147
52	0xbe974852	-0.29547364
53	0x3e142b0a	0.14469543
54	0xbdc84705	-0.09779171
55	0xbeaa797c	-0.3329581
56	0x3dd3a14d	0.103335
57	0xbc38f85b	-0.011289681
58	0x3da20d52	0.07912697
59	0x3dbdf1d9	0.092746444
60	0xbc9392a2	-0.018014256
61	0xbe5c821d	-0.2153401
62	0xbe92244f	-0.28543326
63	0x3e505114	0.20343429

gat.gat2.bias f4 [64]
0	0x3d9d4cf2	0.07680692
1	0xbc537295	-0.012905736
2	0xbdade933	-0.08491745
3	0xbd5d8783	-0.054084312
4	0xbd7dbc55	-0.061947186
5	0x3b37dedf	0.0028056426
6	0x3d3b5bd5	0.045741875
7	0x3ccd3e0d	0.025054002
8	0x3cc6f5b4	0.024287082
9	0x3cf2f83b	0.029659381
10	0xbd18ef39	-0.037337516
11	0x3ca51dd7	0.02015583
12	0xbccb1c25	-0.024793694
13	0x3d3aaa63	0.04557265
14	0x3d119849	0.03554562
15	0x3bc7e0f7	0.006099816
16	0x3c90be29	0.0176688
17	0x3ceff244	0.029290326
18	0x3d99bba1	0.075064905
19	0x3d6c7823	0.05773176
20	0xbd646de2	-0.055768855
21	0xbd1ba951	-0.03800327
22	0xbd901a36	-0.07036249
23	0x3d96964d	0.07352886
24	0xbd6705b0	-0.05640191
25	0xbcd52b62	-0.026021663
26	0x3b8d0b6e	0.004304341
27	0xbca927ba	-0.020648826
28	0x3c9238fa	0.017849434
29	0x3c83e7cd	0.016101742
30	0x3d4724df	0.048619147
31	0x3d6dd996	0.058068834
32	0x3c785d5f	0.01515898
33	0x3ca7f177	0.020500882
34	0x3d04fb95	0.03246649
35	0xbba37a0a	-0.0049889134
36	0x3b88b6ce	0.0041721826
37	0x3d3ca417	0.046054926
38	0xbb71debe	-0.0036906446
39	0x3ac527c7	0.0015041762
40	0x3d2b0ca8	0.041760117
41	0xbcd47154	-0.025932945
42	0xbcc46dba	-0.023978103
43	0x3c42018d	0.01184119
44	0x3b86f6be	0.0041187694
45	0x3c041618	0.008061908
46	0xbce50b28	-0.027959421
47	0x3ce859e2	0.028363172
48	0x3c76dbae	0.015067024
49	0x3be3de93	0.006954023
50	0xbbbd9560	-0.005785629
51	0x3d50070b	0.050787967
52	0x3c643921	0.013929636
53	0xbb995b3a	-0.0046800645
54	0x3cbf7360	0.023370445
55	0x3c999faa	0.018752892
56	0x3c40046d	0.011719805
57	0xbc6d407c	-0.014480706
58	0xbd758e58	-0.059950203
59	0x3d748ac4	0.05970265
60	0xbcaed0b1	-0.021339746
61	0xbc0dc1c6	-0.008652156
62	0x3ad5c87d	0.001631036
63	0x3c42afe1	0.011882753

gat.gat2.lin.weight f4 [64, 64]
0	0x3e6a05b6	0.22853741
1	0x3e0d63bc	0.13807577
2	0x3e4dd235	0.20099719
3	0x3d15ebe4	0.036601916
4	0x3d861383	0.0654669
5	0xbe360e3c	-0.17778867
6	0xbe0ed7a0	-0.13949442
7	0xbb4c62fc	-0.003118693
8	0x3e188fed	0.14898653
9	0x3eca13f7	0.39468357
10	0x3e84d781	0.25945666
11	0xbd84da30	-0.064869285
12	0x3b3acfcc	0.0028505204
13	0x3e08a023	0.13342337
14	0x3dd2fb4b	0.103018366
15	0x3cbc80c8	0.023010626
16	0xbd2b015f	-0.041749354
17	0x3e1b5229	0.1516806
18	0xbe2c150a	-0.16804901
19	0xbe60c108	-0.21948636
20	0x3e2ae806	0.16690072
21	0x3e7e18a8	0.24814093
22	0xbdb2b045	-0.08725027
23	0xbe111d01	-0.1417122
24	0xbdbd64cf	-0.09247743
25	0xbdb0d4bd	-0.086343266
26	0x3e256864	0.16153103
27	0x3e59c817	0.21267734
28	0x3d0dcc33	0.034618568
29	0xbe0a1110	-0.13483071
30	0x3ea0245c	0.3127774
31	0x3e321376	0.17390236
32	0x3ce5f7d6	0.028072279
33	0x3dfbabae	0.12288605
34	0xbdd42375	-0.103583254
35	0x3e253529	0.1613356
36	0xbda22c84	-0.07918647
37	0xbd24e33c	-0.04025577
38	0x3de1ad91	0.11019433
39	0xbe2a2204	-0.16614538
40	0xbe008a13	-0.12552671
41	0x3e564a44	0.20926768
42	0xbddc415c	-0.10754654
43	0xbcce40af	-0.025177328
44	0x3da6512a	0.081209496
45	0xbe572f12	-0.2101405
46	0xbd951386	-0.072791144
47	0xbd5213c4	-0.05128838
48	0xbdcfb9fa	-0.10142894
49	0xbe3a4cdf	-0.18193386
50	0xbd03e4b2	-0.032200523
51	0xbdb10d1f	-0.08645081
52	0xbd988044	-0.0744634
53	0x3e420a60	0.1894927
54	0x3c918af2	0.01776645
55	0x3e62a568	0.2213341
56	0xbdf728ad	-0.12068305
57	0x3e3ec78a	0.18630806
58	0x3e4cfbc7	0.2001792
59	0xbe525be2	-0.20542863
60	0x3d307d5b	0.0430883
61	0xbe5515e7	-0.20809136
62	0xbdc8b9b1	-0.09801043
63	0xbe15115b	-0.14557402
64	0xbe40690c	-0.18790072
65	0x3d9545bb	0.07288691
66	0xbe0021e6	-0.12512931
67	0x3e40a50f	0.18812965
68	0xbe3ad8d8	-0.18246782
69	0x3db14090	0.086548924
70	0x3d68e789	0.056861434
71	0xbd765172	-0.060136266
72	0x3e45a385	0.19300659
73	0x3d1bc883	0.03803302
74	0x3def677d	0.11689661
75	0x3e3177fc	0.17330927
76	0xbe4f39be	-0.2023687
77	0x3e1ff8f2	0.15622309
78	0xbda0d77c	-0.078536004
79	0x3d3a0fe4	0.04542531
80	0x3e4c15cd	0.19930191
81	0xbd5e6e79	-0.054304574
82	0xbd63efa2	-0.055648454
83	0x3c369562	0.011144014
84	0x3c9bf4d2	0.019037638
85	0xbdb28d6d	-0.08718381
86	0x3ba4117d	0.0050069676
87	0xbe27b4b9	-0.16377534
88	0xbdf57b72	-0.11986436
89	0xbddacf6e	-0.10684095
90	0xbd2d1266	-0.042253874
91	0x3c6e08e6	0.014528489
92	0xbe6b8061	-0.22998191
93	0x3c35f520	0.011105806
94	0x3c780ab6	0.015139272
95	0x3d1907fb	0.037361126
96	0xbe460e37	-0.1934136
97	0xbe37ca4b	-0.17948262
98	0x3d5a9be7	0.053371336
99	0x3e420175	0.18945868
100	0xbe27d74a	-0.1639072
101	0x3e167f65	0.14697035
102	0xbd114531	-0.035466377
103	0xbd1a20cd	-0.037628938
104	0x3e107df5	0.14110549
105	0x3df3b5e5	0.11899928
106	0x3d84d616	0.06486146
107	0xbe3beb8b	-0.18351571
108	0xbddcea6b	-0.10786899
109	0x3e3e4ae3	0.18583255
110	0xbd999d6a	-0.075007275
111	0xbe178ad5	-0.14799054
112	0x3e508917	0.20364796
113	0xbda00b9e	-0.07814716
114	0xbd2a1f46	-0.04153373
115	0xbe3cc094	-0.18432838
116	0x3e353095	0.17694314
117	0xbda174db	-0.078836165
118	0x3d6dedee	0.058088236
119	0xbe1876ba	-0.1488904
120	0x3e2d56fa	0.1692771
121	0x3dde6774	0.10859576
122	0xbc140590	-0.009034529
123	0x3d63541c	0.055500135
124	0xbe00b29c	-0.12568134
125	0x3dc1caa2	0.09462477
126	0x3d4d0bd1	0.050060097
127	0x3e284f1a	0.16436425
128	0xbc825f50	-0.01591459
129	0x3d62229f	0.0552088
130	0x3d04b710	0.032401145
131	0x3cd69136	0.026192289
132	0x3dee56f3	0.11637678
133	0x3dd75ea3	0.105160974
134	0x3e05863d	0.13039489
135	0xbd94ff3a	-0.07275243
136	0x3e0847c1	0.13308622
137	0xbe08bcdf	-0.13353299
138	0x3dc1a2f5	0.0945491
139	0x3cd90831	0.026493164
140	0xbd9e75f7	-0.07737344
141	0xbc6e3090	-0.014537945
142	0xbdc41188	-0.09573656
143	0x3e071b17	0.13193928
144	0xbda577b6	-0.08079474
145	0xbe872c63	-0.26401052
146	0xbd71f1a0	-0.059068322
147	0x3cf844de	0.030306276
148	0xbcf26365	-0.02958841
149	0xbe8ab823	-0.2709361
150	0xbe5b5457	-0.21418892
151	0x3e40a44b	0.18812673
152	0x3db114d6	0.08646552
153	0xbe3440ae	-0.17602798
154	0xbe412c82	-0.18864635
155	0xbe241154	-0.16022235
156	0xbdb644bb	-0.08899828
157	0x3ca5f928	0.020260409
158	0xbe1c7ec4	-0.15282732
159	0xbad7140e	-0.0016409175
160	0x3d44d492	0.048054285
161	0x3e6759b7	0.22592817
162	0xbdde3355	-0.108496346
163	0xbe2b1def	-0.16710638
164	0x3b84fe83	0.0040586605
165	0xbdde14f4	-0.1084384
166	0xbe4f45cc	-0.20241469
167	0x3d183aa7	0.03716531
168	0xbd2fe8a8	-0.042946488
169	0xbe2f87e5	-0.17141683
170	0x3e231657	0.1592649
171	0x3de0ec55	0.10982577
172	0xbd0e1be9	-0.034694586
173	0xbddca840	-0.10774279
174	0xbe3bc79a	-0.1833786
175	0xbd30c588	-0.04315713
176	0x3cb08388	0.021547094
177	0xbe3280ad	-0.17431898
178	0xbc306587	-0.0107663935
179	0x3e0e8ffd	0.13922115
180	0x3deaae02	0.114589706
181	0xbe0941a6	-0.13403949
182	0xbbefbb9a	-0.007316065
183	0x3e118790	0.14211869
184	0x3db8ea0b	0.09029015
185	0x3dd5b164	0.10434225
186	0x3cb6c130	0.022308916
187	0x3c912600	0.017718315
188	0x3e195712	0.14974621
189	0xbe410859	-0.1885084
190	0xbe0178f1	-0.12643792
191	0xbe1051b7	-0.14093672
192	0xbdf00049	-0.117188044
193	0xbe0a6c16	-0.13517794
194	0x3d963de2	0.07336022
195	0xbe5b67ba	-0.21426287
196	0xbe189507	-0.149006
197	0xb9da3b26	-0.0004162427
198	0xbe1ad0dc	-0.15118736
199	0xbddc0bdf	-0.10744452
200	0x3d9f82b8	0.077886045
201	0xbed21161	-0.41028884
202	0xbd12a092	-0.035797663
203	0x3dbe6389	0.092963286
204	0x3d95e425	0.07318906
205	0xbe327bec	-0.17430085
206	0xbea9ea07	-0.3318636
207	0x3e486a53	0.1957181
208	0xbe1d992b	-0.1539046
209	0xbd52d3d2	-0.05147154
210	0x3da2471e	0.07923721
211	0x3e1d6084	0.15368849
212	0xbc801e63	-0.01563949
213	0xbe72ca05	-0.23709877
214	0x3e5d12b6	0.21589169
215	0x3e324e64	0.17412716
216	0x3e502ad7	0.20328842
217	0xbe4a2e74	-0.19744283
218	0x3ca7590f	0.020428209
219	0x3c9fc1be	0.019501563
220	0xbe324c16	-0.17411837
221	0x3e1590c7	0.1460601
222	0xbea4bba1	-0.321744
223	0x3e263164	0.16229779
224	0xbe167f40	-0.1469698
225	0x3d7ee9ae	0.062234573
226	0x3dc204c2	0.09473564
227	0x3e077a93	0.13230352
228	0x3e151474	0.14558583
229	0xbddf24fd	-0.10895727
230	0x3dba40cc	0.0909439
231	0x3e341d25	0.17589243
232	0xbb9fbe8a	-0.004875009
233	0xbe10efe0	-0.14154005
234	0x3cefb4fc	0.029261105
235	0xbd025c6d	-0.031826425
236	0x3e2847d7	0.16433655
237	0xbe0cdcca	-0.137561
238	0x3e3513cb	0.17683332
239	0x3de687ae	0.112563476
240	0x3e13638f	0.14393447
241	0x3e1eb1af	0.15497468
242	0xbd23ebd6	-0.040019833
243	0x3d95c044	0.073120624
244	0xbcd4b418	-0.025964782
245	0x3e3fa16a	0.18713918
246	0xbcc906e2	-0.024539415
247	0xbdc3341b	-0.09531423
248	0xbd3d16b6	-0.046164237
249	0x3e229e52	0.15880707
250	0xbc465ba0	-0.012106806
251	0x3e0d6f63	0.13812022
252	0xbd680934	-0.0566494
253	0xbd12bc50	-0.03582412
254	0x3dd76c8e	0.10518752
255	0x3db56aa1	0.088582285

vae.fc1.weight f4 [128, 64]
0	0xbb1c9d74	-0.002389756
1	0xbd3752ba	-0.04475663
2	0x3d6eae18	0.058271497
3	0xbd74c0d5	-0.05975421
4	0xbc8ebcbd	-0.017423982
5	0xbdc39f77	-0.095519
6	0x3d151bbc	0.036403403
7	0xbde56d48	-0.11202484
8	0xbc9fa000	-0.019485474
9	0x3da5a61a	0.08088322
10	0xbdb6c85c	-0.08924934
11	0x3b148a95	0.002266561
12	0xbdc4222f	-0.095768325
13	0x3ce1ca4c	0.027562283
14	0x3e051fd0	0.13000417
15	0x3e50da49	0.20395769
16	0x3d6b4d81	0.05744696
17	0xbd9c4642	-0.07630588
18	0x3d660c7f	0.05616426
19	0xbda72605	-0.081615485
20	0xbc67fcda	-0.014159406
21	0xbda3ab01	-0.07991601
22	0xbd8ba65a	-0.068188384
23	0xbd1c25ae	-0.03812187
24	0x3ce5e687	0.028064026
25	0xbe258a83	-0.1616612
26	0x3de25a21	0.11052347
27	0xbe01b8fe	-0.12668225
28	0x3e016022	0.12634328
29	0x3d9ddf2c	0.07708582
30	0x3dace3d2	0.08441891
31	0x3c661b97	0.014044664
32	0x3b36c094	0.0027885782
33	0x3d1e9eda	0.03872571
34	0xbd645739	-0.055747245
35	0x3ccbc400	0.024873734
36	0x3c060b91	0.008181469
37	0xbb8f4301	-0.004372001
38	0xbcaafa79	-0.020871388
39	0x3c89a585	0.016802559
40	0x3dd00e7f	0.10159015
41	0xbd3481e2	-0.04406918
42	0xbd0a783b	-0.033806067
43	0xbc8e89e7	-0.017399741
44	0xbc94e5f6	-0.01817606
45	0xbd8c6d6a	-0.068568066
46	0x3dc7ebc5	0.09761766
47	0x3d8acd6d	0.06777463
48	0x3d719bd7	0.05898651
49	0xbd868d7a	-0.06569953
50	0xbd045670	-0.032308996
51	0x3e2c29ea	0.16812864
52	0xbd9634c9	-0.07334287
53	0x3dc00ac3	0.09377053
54	0xbcc6c476	-0.024263602
55	0x3bc92879	0.006138858
56	0x3b819372	0.0039543444
57	0xbd3b1019	-0.04566965
58	0xbc86bb0a	-0.016446609
59	0x3e0d1c44	0.13780314
60	0x3e1c8746	0.15285978
61	0x3de45d18	0.11150569
62	0xbc62df95	-0.013847251
63	0xbde4a85a	-0.11164923
64	0x3d544025	0.051818985
65	0xbe097cdb	-0.13426535
66	0xbdbee83e	-0.093216404
67	0x3d1d0384	0.03833343
68	0x3decaaea	0.11556037
69	0xbd7f0b67	-0.062266733
70	0xbd61b106	-0.055100463
71	0xbd96ab32	-0.07356872
72	0xba58005a	-0.00082397985
73	0x3d865949	0.065599985
74	0xbe067fd4	-0.131347
75	0x3d4c919f	0.049943563
76	0xbe4458d7	-0.19174515
77	0x3d870967	0.0659359
78	0xbdd39524	-0.10331181
79	0x3d1c7c23	0.038204324
80	0xbac8727b	-0.0015292907
81	0x3dc57d26	0.09643011
82	0x3d8c7314	0.06857887
83	0xbe091334	-0.13386232
84	0xbcc4a8dc	-0.0240063
85	0x3dbc7f84	0.09204009
86	0xbd00903c	-0.031387553
87	0x3e27f882	0.16403392
88	0x3de65dbc	0.11248347
89	0xbdeb3120	-0.11483979
90	0xbd53b83a	-0.051689364
91	0x3be676cb	0.007033204
92	0xbce9e5fd	-0.02855205
93	0xbdf21212	-0.11819853
94	0xbd147b6a	-0.03625051
95	0xbc815771	-0.015788766
96	0xbdf5d788	-0.12004
97	0xbe0ec0c0	-0.13940716
98	0x3d48a578	0.04898593
99	0x3dcad7a1	0.09904409
100	0x3d8936a8	0.06699878
101	0x3caf2d41	0.021383883
102	0x3bdae4d5	0.006680111
103	0x3e196b38	0.14982307
104	0x3de330c8	0.11093289
105	0xbe10fb5a	-0.14158383
106	0xbcf23c57	-0.029569788
107	0x3dc7e663	0.0976074
108	0x3da7dd5c	0.08196518
109	0xbcd0f807	-0.025508894
110	0x3c3695f5	0.011144151
111	0x3d0620bd	0.032746065
112	0xbe0a17e2	-0.13485673
113	0x3d81cd88	0.0633803
114	0x3d665c81	0.056240562
115	0x3cbd5d56	0.023115795
116	0xbdcce629	-0.10004837
117	0x3dcc245f	0.09967875
118	0xbe1d090c	-0.15335482
119	0xbdd0b66a	-0.10191043
120	0x3da43f93	0.08019938
121	0x3bc2ab03	0.0059407963
122	0xbd89324a	-0.06699045
123	0x3e560fea	0.20904508
124	0x3d1409b8	0.03614208
125	0xbd3cc143	-0.046082746
126	0xbcda13be	-0.026620742
127	0xbde55a2c	-0.111988395
128	0x3c52f628	0.012876071
129	0x3de24bc0	0.110496044
130	0x3e077174	0.13226873
131	0xbd5f8d68	-0.054578215
132	0xbd83b26f	-0.06430518
133	0xbd836281	-0.064152725
134	0x3d1011bf	0.035173174
135	0xbd8d035a	-0.06885405
136	0xbc3bbcab	-0.011458556
137	0x3d4dc851	0.050239865
138	0xbdadd071	-0.08487023
139	0x3dd37f36	0.10326998
140	0x3cc6cf4b	0.024268767
141	0xbcbca694	-0.02302865
142	0x3a8522b4	0.0010157437
143	0xbb8f13e2	-0.004366384
144	0x3e21496c	0.15750664
145	0xbd251dc8	-0.040311605
146	0x3d91158c	0.07084188
147	0xbce7a018	-0.02827458
148	0x3c97f9a8	0.018551663
149	0xbb0fa7e9	-0.002192015
150	0xbd4ed885	-0.050499458
151	0x3de74df8	0.11294168
152	0x3d93038a	0.071784094
153	0xbc9dc12a	-0.019257147
154	0xbd26a87f	-0.040688034
155	0x3c5d7f0d	0.013519061
156	0x3b8ad15f	0.0042363848
157	0x3e102543	0.14076714
158	0x3e338337	0.17530523
159	0xbd9d24c0	-0.07673025
160	0x3e419cea	0.18907514
161	0x3e17f373	0.14838962
162	0x3c24c907	0.010057694
163	0x3ccadb7f	0.024762867
164	0x3c92d073	0.017921662
165	0xbe1ea3d9	-0.1549219
166	0x3d323c1e	0.043514363
167	0x3daa1039	0.083038755
168	0xbe0f1520	-0.13972902
169	0xbd238691	-0.039923254
170	0x3cfbe38d	0.030748153
171	0x3e7d4bc4	0.24735934
172	0xbdde048e	-0.108407125
173	0x3d1f0b03	0.03882886
174	0x3d8f22f5	0.069890894
175	0x3cab7194	0.020928182
176	0x3dd927b2	0.106032744
177	0xbd9693d4	-0.07352415
178	0x3d06ea9f	0.032938596
179	0x3e158024	0.14599663
180	0xba8b7f52	-0.0010642803
181	0x3da02ed6	0.07821433
182	0x3d5e5541	0.054280523
183	0x3d9d869b	0.076916896
184	0x3daf0871	0.08546532
185	0xbdd7df70	-0.10540664
186	0xbdecc03c	-0.11560103
187	0xbc1a0480	-0.009400487
188	0x3d620015	0.05517586
189	0x3e050ee3	0.1299396
190	0xbdcaee39	-0.099087186
191	0xbc540744	-0.012941185
192	0xbcee6b0b	-0.029103776
193	0xbda4f9fb	-0.080554925
194	0x3d8d65b9	0.06904168
195	0x3ca17048	0.01970686
196	0x3d0d853e	0.034550898
197	0xbd2b384b	-0.041801732
198	0xbdc0a8a9	-0.09407169
199	0xbab24b7c	-0.0013602818
200	0x3d1fefaa	0.03904692
201	0xbdd37584	-0.10325149
202	0x3ddba976	0.107256815
203	0xbe142daa	-0.14470544
204	0x3c66c8f3	0.014085996
205	0xbde93b4c	-0.11388263
206	0xbd459d62	-0.048245795
207	0xbd9a5449	-0.07535607
208	0x3e00da22	0.12583211
209	0xbd860c06	-0.06545262
210	0x3cf6c4c7	0.030123128
211	0x3d80d2cd	0.06290207
212	0xbc089c67	-0.0083380705
213	0xbd2e799a	-0.042596437
214	0xbc12aeee	-0.008952839
215	0xbb8b2ee1	-0.0042475318
216	0x3da3273a	0.07966466
217	0x3c18b15c	0.0093196295
218	0xbd1871b1	-0.0372178
219	0x3da786d6	0.08180015
220	0xbc8fccb9	-0.017553674
221	0x3d93062c	0.071789116
222	0xbdc2aa9b	-0.09505197
223	0xbda43ce0	-0.080194235
224	0x3c804a79	0.015660511
225	0x3d800f03	0.06252863
226	0x3d99fbce	0.07518731
227	0xbdda27a8	-0.10652095
228	0xbd12d7c1	-0.03585029
229	0x3ca94eb8	0.020667419
230	0xbc64e9ef	-0.01397179
231	0xbe30c590	-0.17262864
232	0x3d3b7e1d	0.045774568
233	0x3d036af8	0.032084435
234	0x3dfe1574	0.124064356
235	0xbdef6132	-0.116884604
236	0x3dcdae7e	0.10043047
237	0x3a64f670	0.0008734232
238	0x3c2e511a	0.010639453
239	0x3a929bb4	0.0011185319
240	0xbdbaf61c	-0.09128973
241	0xbdf236ef	-0.11826884
242	0xbcae0bd4	-0.021245874
243	0xbc5c7919	-0.013456606
244	0xbd8b48c5	-0.06800989
245	0x3d0b3df9	0.03399465
246	0x3e298ff4	0.1655882
247	0x3daa0d43	0.08303311
248	0xbdcd53e7	-0.10025769
249	0x3c534dcc	0.012896966
250	0x3d2fb11a	0.042893507
251	0xbd54eb38	-0.051982135
252	0x3da0b67c	0.07847306
253	0xbe090e90	-0.13384461
254	0xbda22566	-0.079172894
255	0x3d870fe3	0.06594827

vae.fc1.bias f4 [128]
0	0xbe44b8c7	-0.19211112
1	0xbe459b46	-0.19297513
2	0xbdf97ffb	-0.121826135
3	0x3c5b1f3a	0.013374144
4	0xbe14530b	-0.14484803
5	0x3d502c4b	0.05082349
6	0xbdaef415	-0.08542649
7	0xbdc692c2	-0.096959606
8	0xbe4eed3d	-0.20207687
9	0xbd747ce0	-0.059689403
10	0x3c2d9977	0.010595671
11	0x3be1be3c	0.006889133
12	0xbddd1fb8	-0.107970655
13	0xbda44380	-0.08020687
14	0xbe7a35fb	-0.24434654
15	0xbe06f7b4	-0.13180429
16	0xbd91001e	-0.070801005
17	0x3d143cd0	0.036190808
18	0x3d825479	0.06363768
19	0xbe2583b2	-0.16163519
20	0xbbd8e833	-0.006619477
21	0xbdad581a	-0.0846407
22	0x3b9d8580	0.004807174
23	0xbdb4f961	-0.08836628
24	0x3e1cf266	0.15326843
25	0x3cb3749a	0.021906186
26	0xbe261204	-0.1621781
27	0xbd9ea68a	-0.077466086
28	0xbe21302d	-0.15741034
29	0xbd91855a	-0.07105513
30	0xbdce5754	-0.1007525
31	0xbdf8f773	-0.12156572
32	0xbe0fb30d	-0.14033146
33	0xbd9c1dda	-0.07622881
34	0xbe6be3bd	-0.23036094
35	0x3d37a1c4	0.044832006
36	0xbdb6b79d	-0.0892174
37	0xbcd7480c	-0.026279472
38	0xbda55742	-0.08073284
39	0xbe514dd3	-0.20439844
40	0xbe6d1a43	-0.2315455
41	0xbc4a090e	-0.01233126
42	0xbddcb4a9	-0.10776646
43	0x3c2088bf	0.009798228
44	0x3e13d243	0.14435677
45	0xbc86f6c5	-0.01647509
46	0x3dcfb2e4	0.101415426
47	0x3e6e2c37	0.23259054
48	0xbe1d5a8d	-0.15366574
49	0x3cfa57cc	0.030559443
50	0x3c56efe9	0.0131187225
51	0x3e12f278	0.14350307
52	0xbd67ceca	-0.056593694
53	0x3da86a7c	0.08223435
54	0xbcc530b0	-0.024071068
55	0x3e49475b	0.19656126
56	0x3dc2c2c1	0.095098026
57	0xbe10581c	-0.14096111
58	0xbd82a879	-0.0637979
59	0x3cfb3626	0.030665468
60	0xbcf50d17	-0.029913468
61	0xbe83c1c5	-0.25733772
62	0xbc356271	-0.011070834
63	0xbcb92fd1	-0.022605808
64	0xbe2c6bc2	-0.16837981
65	0xbe973cd4	-0.29538596
66	0xbe2ea4ef	-0.17055105
67	0xbde031a9	-0.10946972
68	0xbda340fe	-0.07971381
69	0x3d3c28db	0.0459374
70	0xbe251982	-0.16123012
71	0xbdb96e89	-0.09054286
72	0xbd96d6ce	-0.073651895
73	0xbd728818	-0.05921182
74	0xbdfab40f	-0.12241375
75	0xbd8e0d5f	-0.06936144
76	0xbddb2b5e	-0.10701631
77	0xbe53009d	-0.20605703
78	0xbced8fb8	-0.028999195
79	0x3e7af4e8	0.24507487
80	0x3dfd1c97	0.12358969
81	0xbded2872	-0.1157998
82	0xbd1b0c20	-0.03785336
83	0xbe79bf47	-0.24389373
84	0xbd85b91d	-0.06529448
85	0xbd0a8ffb	-0.033828717
86	0x3e30d811	0.17269923
87	0xbe926a01	-0.285965
88	0x3e4920ca	0.19641414
89	0xbde4be0b	-0.1116906
90	0xbe16edc3	-0.14739136
91	0x3e1ca4ce	0.15297243
92	0xbc105549	-0.008809396
93	0xbd840791	-0.06446756
94	0xbe0b6237	-0.13611685
95	0xbe502973	-0.20328312
96	0xbd8b08a0	-0.067887545
97	0x3eb19eec	0.3469156
98	0xbe0cb71e	-0.13741729
99	0xbdae3b96	-0.08507459
100	0xbe5930dc	-0.21210045
101	0xbe003716	-0.12521014
102	0xbe00caa6	-0.12577304
103	0x38f6ba19	0.000117648575
104	0xbd25c326	-0.04046931
105	0xbdd1a809	-0.10237128
106	0x3e0d3811	0.13790919
107	0xbe2cc0a0	-0.16870356
108	0xbd766456	-0.06015428
109	0x3e08b1c5	0.13349064
110	0xbca97e43	-0.02069009
111	0x3dce4e97	0.100735836
112	0xbe064051	-0.13110472
113	0xbd36bbea	-0.044612803
114	0x3ad70a72	0.0016406311
115	0xbe31f113	-0.17377119
116	0x3d7dabf9	0.061931584
117	0xbcb24caf	-0.021765081
118	0x3d796fc2	0.060897596
119	0xbe3317c9	-0.17489542
120	0xbdbb0df6	-0.09133522
121	0xbd08ee79	-0.03343055
122	0xbdc14751	-0.09437431
123	0xbdaefd00	-0.0854435
124	0x3c3b96a8	0.0114494935
125	0xbdd3af4f	-0.10336172
126	0xbd07baad	-0.033137012
127	0xbd13f3a6	-0.036121033

vae.fc_mu.weight f4 [16, 128]
0	0x3d40d4f1	0.047078077
1	0x3d27f95e	0.0410093
2	0x3cf2ae33	0.02962408
3	0xbcdd7fad	-0.02703842
4	0xbda1ea40	-0.07906008
5	0xbd267c8f	-0.040646132
6	0xbe0e7167	-0.13910447
7	0xbb0ca89e	-0.0021462808
8	0xbd010c00	-0.031505585
9	0xbc55dba1	-0.013052852
10	0x3d0d695e	0.034524314
11	0xbca2791e	-0.019833144
12	0x3d41bb8a	0.04729799
13	0xbdaeb84e	-0.08531247
14	0xbc99c19f	-0.018769084
15	0x3d4b64ae	0.049656563
16	0x3c36a951	0.011148767
17	0xbcdfa677	-0.027301056
18	0xbd9705f8	-0.07374185
19	0x3d2ba7a5	0.041907925
20	0x3cd67948	0.026180878
21	0xbc205087	-0.009784824
22	0x3c97c908	0.018528476
23	0x3c43bce5	0.011946891
24	0xbdc4e616	-0.09614198
25	0x3dc5042c	0.09619936
26	0x3d379c5e	0.044826858
27	0xbbcfd4da	-0.0063425126
28	0x3c12bdac	0.008956354
29	0x3ceb4405	0.028718958
30	0x3ab5f1ef	0.0013881306
31	0x3d232bd7	0.03983673
32	0x3cac95d6	0.021067541
33	0xbbc6433e	-0.0060504964
34	0xbc93e427	-0.018053127
35	0xbcfa375f	-0.030543981
36	0xbd1ac9a1	-0.037789945
37	0x3da0787c	0.078354806
38	0x3d8609fa	0.06544872
39	0x3d34f0a2	0.044174798
40	0xbd687f36	-0.056761943
41	0xbe110796	-0.1416305
42	0x3da936ca	0.08262403
43	0xbd82f78b	-0.06394871
44	0xbd8b33b7	-0.06796973
45	0x3d3109b5	0.043222148
46	0x3da24397	0.07923048
47	0x3d84d1ae	0.06485306
48	0x3da398a2	0.07988097
49	0xbd81b94c	-0.06334171
50	0x3bdaf841	0.006682426
51	0xbbb7336b	-0.0055908463
52	0x3c8a3638	0.016871557
53	0x3da20560	0.079111814
54	0x3db30c40	0.08742571
55	0x3c682649	0.014169284
56	0x3de8c500	0.113657
57	0x3de14088	0.109986365
58	0xbd59c9c5	-0.053170938
59	0x3c17762a	0.009244481
60	0xbcb7b506	-0.022425186
61	0xbd40c280	-0.04706049
62	0xbdac5d91	-0.08416284
63	0xbdcc3d1a	-0.09972592
64	0x3d92f5c6	0.07175784
65	0xbd66dd97	-0.05636367
66	0xbc131c35	-0.008978893
67	0x3d636e5c	0.05552517
68	0xbcf1891b	-0.029484322
69	0x3d8f39ff	0.06993484
70	0x3cc4c067	0.024017526
71	0xbd8ca70a	-0.06867798
72	0xbd816ac4	-0.06319192
73	0x3ca2a9f1	0.019856425
74	0x3dc9656c	0.09833798
75	0x3c87c58e	0.016573694
76	0x3d7c9208	0.061662704
77	0x3da06d2e	0.078333244
78	0xbbdfd40a	-0.006830697
79	0xbd22d699	-0.039755438
80	0xbd81c76d	-0.063368656
81	0xbd422e3f	-0.047407385
82	0xbd32b1dd	-0.043626655
83	0xbc72762d	-0.014798683
84	0x3c694a6b	0.014238934
85	0x3a4b7c5f	0.0007762368
86	0x3b89fded	0.0042111785
87	0x3d90edc3	0.070765994
88	0x3d8e5aab	0.06950887
89	0x3c506092	0.012718337
90	0xbcd62910	-0.026142627
91	0x3d3f6db3	0.046735477
92	0x3bbdfbad	0.0057978244
93	0x3d1873e7	0.037219908
94	0xbc41981d	-0.011816052
95	0x3d7bb9ea	0.0614566
96	0xbd2ee89b	-0.0427023
97	0x3c14662a	0.009057561
98	0x3c7deee4	0.0154988505
99	0xbd0ca3eb	-0.03433601
100	0x3bd4e882	0.0064974437
101	0xbd147728	-0.03624645
102	0xbd7fe16b	-0.062470835
103	0xbdc917a0	-0.09818959
104	0x3daacf15	0.08340279
105	0xbd76d26b	-0.060259264
106	0x3d5f33d6	0.054492794
107	0xbd5129fd	-0.051065434
108	0xbcc9d234	-0.024636365
109	0x3d92761a	0.07151432
110	0x3be4d7e9	0.0069837463
111	0x3c309756	0.010778269
112	0x3db113d0	0.08646357
113	0xbd246d2e	-0.040143184
114	0x3d832710	0.06403935
115	0x3dc4a746	0.096022174
116	0x3d349fdc	0.044097766
117	0xbd1b54e7	-0.037922766
118	0xbc3272e0	-0.010891646
119	0xbd4f5132	-0.050614543
120	0xbd6a4e46	-0.057203554
121	0xbcde3a19	-0.027127312
122	0xbbb6d2fe	-0.0055793514
123	0x3cc608f0	0.024174184
124	0xbd9c42a4	-0.07629898
125	0xbdc66766	-0.096876904
126	0xbd246200	-0.040132523
127	0x3d255fa7	0.040374424
128	0x3b7d1436	0.0038616783
129	0x3dae0731	0.084974654
130	0xbd7f8a6f	-0.06238788
131	0x3ce87ada	0.028378893
132	0x3c273379	0.010205143
133	0xbda3759f	-0.07981419
134	0xbcff57bb	-0.031169763
135	0x3cbab993	0.022793567
136	0xbd8a956f	-0.067667834
137	0xbd4f45d2	-0.050603695
138	0x3c284be5	0.010272001
139	0xbc52ecb5	-0.012873818
140	0x3daba38e	0.08380805
141	0x3d8d21c0	0.06891203
142	0xbd821bf8	-0.06352991
143	0xbd183d5e	-0.0371679
144	0x3d2c3c0b	0.04204945
145	0x3c62de3d	0.013846931
146	0x3d04806d	0.03234904
147	0xbd9461ea	-0.07245238
148	0xbd2a7e5a	-0.041624404
149	0x3d9a9f23	0.07549884
150	0xbd67f982	-0.056634434
151	0x3cd794e6	0.026316117
152	0x3d199861	0.037498835
153	0xbd91be78	-0.07116407
154	0xbdd46b11	-0.10371984
155	0x3d0b1c04	0.033962265
156	0xbcf66386	-0.030076753
157	0xbdbb2546	-0.09137969
158	0xbd54b57f	-0.0519309
159	0xbd296378	-0.041354626
160	0x3d38fe09	0.04516414
161	0x3da7a8f6	0.081865236
162	0xbcd75819	-0.026287125
163	0x3c8421f5	0.016129473
164	0xbb3ed123	-0.0029116354
165	0xbdb4e3a3	-0.08832481
166	0xbcb346bd	-0.021884317
167	0xbcd077d3	-0.025447762
168	0xbd2865b3	-0.041112613
169	0xbbc97ee7	-0.006149161
170	0x3ccb3db4	0.024809696
171	0x3cbc0500	0.022951603
172	0x3d80dfc3	0.06292679
173	0xbd11d753	-0.03560574
174	0xbd5b314d	-0.053513814
175	0x3ce98679	0.028506504
176	0xbd54d62b	-0.05196206
177	0xbc47a995	-0.012186428
178	0x3e09b2df	0.1344714
179	0xbc82c31e	-0.01596218
180	0xbdbc864b	-0.09205302
181	0x3d6a30b5	0.057175357
182	0x3cccea76	0.025014143
183	0x3d1c24a6	0.03812089
184	0xbd4a81c8	-0.049440175
185	0xbc8ec1e3	-0.017426437
186	0x3dad9c45	0.08477072
187	0xbd427193	-0.047471594
188	0x3ca65835	0.020305732
189	0xbe37606b	-0.17907874
190	0x3d8645e9	0.06556303
191	0xbc3183f4	-0.010834683
192	0xbd222793	-0.039588522
193	0x3ceb3cea	0.02871557
194	0x3d334d93	0.043775152
195	0x3d22b013	0.0397187
196	0xbd2a08f1	-0.041512433
197	0xbdcb5c3f	-0.09929704
198	0x3d2709d6	0.040780865
199	0x3da110e4	0.0786455
200	0x3d9041b5	0.070437826
201	0xbc5331d9	-0.012890303
202	0x3d9d2b28	0.07674247
203	0xbd167918	-0.036736578
204	0x3cf6d1fc	0.030129425
205	0x3ba72571	0.005100899
206	0xbb82598e	-0.003977961
207	0x3d1f6f5f	0.03892457
208	0x3d5dcd23	0.05415071
209	0x3caacd43	0.02084983
210	0x3d8b198b	0.06791981
211	0x3cbc3c5b	0.022977998
212	0xbd59e248	-0.053194314
213	0x3dd80403	0.1054764
214	0xbd930fd5	-0.07180754
215	0x3d48f125	0.0490581
216	0xbc8c68f1	-0.017139884
217	0x3bed1bb1	0.007235967
218	0x3ca0ffd3	0.019653236
219	0x3d566797	0.052344885
220	0xbc60bd51	-0.013717012
221	0xbc096103	-0.008384946
222	0xbc8a5eb4	-0.016890861
223	0x3da17631	0.07883871
224	0xbbe2f5df	-0.006926283
225	0xb9203453	-0.00015278281
226	0x3d5d9a60	0.0541023
227	0xbcd3a8ba	-0.025837291
228	0xbdc13aa8	-0.09435016
229	0x3ca80ccd	0.020513916
230	0xbc490ae0	-0.012270659
231	0xbd9c3bd7	-0.07628601
232	0xbcb1e666	-0.021716308
233	0x3c1c1f82	0.009528996
234	0x3d7e5307	0.0620909
235	0x3d04fc4c	0.03246717
236	0x3d067eb4	0.032835677
237	0xbd69dcea	-0.057095446
238	0xbe10ee22	-0.1415334
239	0x3db0816d	0.08618436
240	0x3d887d45	0.06664518
241	0xbc08581d	-0.008321789
242	0xbda5c3c2	-0.080939785
243	0xbd6b656e	-0.057469778
244	0x3d9b4b76	0.075827524
245	0xbd87e32c	-0.066351265
246	0x3d9566aa	0.07294972
247	0xbd2f1d86	-0.042752765
248	0x3d91e53c	0.07123801
249	0xbd905b66	-0.07048683
250	0xbd362edb	-0.04447828
251	0xbda08623	-0.078380845
252	0x3d7dd9b5	0.0619752
253	0xbd293918	-0.041314214
254	0xbdc03958	-0.093859375
255	0x3cfa2ca0	0.030538857

vae.fc_mu.bias f4 [16]
0	0x3dc8dfe7	0.09808331
1	0x3dc28993	0.094988964
2	0xbd38fa1a	-0.04516039
3	0x3d394707	0.045233753
4	0x3d25ecce	0.040509038
5	0x3d978413	0.07398238
6	0x3d80513d	0.06265495
7	0x3d12bf47	0.035826948
8	0x3dd1b0eb	0.102388225
9	0xbd8e9357	-0.069616966
10	0xbd7a605f	-0.061127063
11	0xbe1c8ee4	-0.15288883
12	0x3dc52d92	0.096278325
13	0xbc0735b4	-0.00825255
14	0xbddb974c	-0.10722217
15	0xbbaaeeb9	-0.0052164462

vae.fc_logvar.weight f4 [16, 128]
0	0x3d825c4a	0.06365259
1	0xba2a57da	-0.0006498076
2	0xbdbc9ceb	-0.09209617
3	0x3ca09539	0.019602405
4	0x3d42a298	0.047518343
5	0x3ce11cc6	0.02747954
6	0x3d4d796d	0.05016463
7	0xbc7f529b	-0.0155836595
8	0x3daf9cda	0.08574839
9	0x3c1a1f38	0.009406857
10	0xbe111915	-0.14169724
11	0xbc3ee6ae	-0.011651678
12	0xbc9a9151	-0.01886812
13	0xbd629636	-0.055319034
14	0x3d0d7c07	0.03454211
15	0xbd712786	-0.058875583
16	0xbc63abf0	-0.013895974
17	0xbdd2c472	-0.10291375
18	0xbd75caac	-0.060007736
19	0x3c8135eb	0.01577278
20	0xbc7940a3	-0.0152131645
21	0xbc9595f9	-0.01825999
22	0xbd32baea	-0.043635286
23	0x3dd941bd	0.10608242
24	0xbdabcab5	-0.08388273
25	0x3cbf4c8d	0.023351932
26	0xbcc64dc2	-0.024207
27	0xbda48a17	-0.08034151
28	0x3d5f166f	0.054464754
29	0xbac21550	-0.0014807377
30	0xbd924e67	-0.0714386
31	0xbdaca2bc	-0.084294766
32	0x3daeaaf5	0.08528701
33	0xbd27424a	-0.040834703
34	0x3d54bea7	0.051939633
35	0xbd95bffe	-0.0731201
36	0x3d08c8f4	0.03339477
37	0x3c14bade	0.009077756
38	0x3d04a2ca	0.03238181
39	0x3b52f77e	0.0032190974
40	0x3d0ec4ab	0.034855526
41	0xbda08b21	-0.07839037
42	0xbd873b6e	-0.06603132
43	0x3c3bbaa8	0.011458077
44	0xbd9ed28b	-0.07755002
45	0xbce89e58	-0.028395817
46	0xbdeec457	-0.116585426
47	0xbdc248d5	-0.09486548
48	0x3bc8a51b	0.0061231977
49	0xbe00fd8d	-0.12596722
50	0xbd5c895c	-0.053841934
51	0x3b027760	0.0019907579
52	0x38fb2934	0.00011976287
53	0x3d6d8fb4	0.057998374
54	0xbdeac8dd	-0.11464093
55	0xbd8fbd51	-0.07018531
56	0xbcf08451	-0.029359968
57	0xbd342732	-0.043982692
58	0xbd6d0564	-0.05786647
59	0xbd9883d8	-0.07447022
60	0xbd3f74e2	-0.046742328
61	0xbd173c2f	-0.03692263
62	0xbc446540	-0.0119870305
63	0x3cb1266c	0.021624766
64	0x3d27a959	0.040932987
65	0xbd65022e	-0.05591028
66	0xbd80fc78	-0.062981546
67	0xbd87e54b	-0.06635531
68	0xbce01bda	-0.02735703
69	0x3d6e3bad	0.05816238
70	0xba52a01d	-0.0008034723
71	0x3d48bc98	0.049007982
72	0x3cf7f45e	0.03026789
73	0xbdae2252	-0.0850264
74	0xbd59a11b	-0.053132158
75	0xbdfea4cb	-0.124337755
76	0x3cd2e944	0.025745995
77	0xbd576922	-0.052590497
78	0x3b2f2690	0.0026725866
79	0xbcf10fc3	-0.029426461
80	0xbdb31d89	-0.08745868
81	0xbc004fb2	-0.007831501
82	0xbd8635f7	-0.06553262
83	0x3c943173	0.018089985
84	0xbdd3a3aa	-0.10333951
85	0xbdef61e3	-0.11688592
86	0xbcea61e5	-0.028611133
87	0xbd528d0e	-0.05140405
88	0xbda6de3d	-0.08147857
89	0xbd906c70	-0.07051933
90	0xbd9c6241	-0.07635928
91	0x3c0e3a0d	0.008680833
92	0x3cbf3274	0.023339488
93	0x3d296874	0.04135938
94	0xbd08e525	-0.033421654
95	0x3d8951a0	0.06705022
96	0xbd483cf7	-0.048886266
97	0xbdc898fe	-0.09794806
98	0x3de4dc42	0.11174823
99	0x3d644acf	0.055735406
100	0x3d175dc2	0.03695465
101	0xb8e597b1	-0.00010947826
102	0xbe16a23a	-0.14710322
103	0xbdb4394c	-0.08799991
104	0x3d493609	0.049123798
105	0xbde07664	-0.10960081
106	0xbde3e534	-0.111277014
107	0xbd28df43	-0.041228544
108	0xbc7c76bd	-0.015409169
109	0x3d622193	0.0552078
110	0x3c8205b4	0.01587186
111	0xbbec9203	-0.0072195544
112	0xbd8a5c9e	-0.067559466
113	0x3db9a1f1	0.09064091
114	0x3d2f75f3	0.042837095
115	0xbc8ef5de	-0.017451223
116	0xbbc7f037	-0.006101634
117	0x3d82d271	0.06387795
118	0xbdd11d88	-0.10210711
119	0x3cb8f4d4	0.02257768
120	0xbcc814d0	-0.024423987
121	0xbc4f0949	-0.012636491
122	0xbd2663c7	-0.0406225
123	0x3b768e4b	0.0037621434
124	0xbdc81b3e	-0.09770821
125	0xbd504495	-0.050846655
126	0xbc9cf3f7	-0.0191593
127	0x3c37d362	0.011219831
128	0xbdb31734	-0.0874466
129	0x3d15cd2a	0.036572613
130	0xbd201a1c	-0.0390874
131	0xbe1608b6	-0.1465176
132	0xbd834c25	-0.06411008
133	0xbe050bfb	-0.12992851
134	0xbd9c650d	-0.076364614
135	0xbd59fdc9	-0.053220544
136	0xbdbbef7d	-0.09176538
137	0x3d794f4a	0.06086663
138	0xbdc2631f	-0.09491562
139	0x3c55ef63	0.0130575625
140	0xbcf4dacf	-0.029889492
141	0x3cc49b3a	0.023999799
142	0x3d4d3dcf	0.050107773
143	0xbd44d91b	-0.04805861
144	0xbda9d18e	-0.082919225
145	0xbd337aeb	-0.043818396
146	0xbd21f479	-0.039539788
147	0x3c7195d5	0.014745195
148	0xbc5dc68e	-0.013536109
149	0xbd2990d6	-0.041397892
150	0xbbae1c28	-0.005313415
151	0x3cd5115e	0.026009258
152	0xbdc1c8a0	-0.09462094
153	0xbc44ced2	-0.0120122
154	0xbdc48535	-0.0959572
155	0xbd944bb5	-0.072410025
156	0x3d154bd5	0.036449272
157	0x3c2ad47c	0.010426637
158	0xbd889422	-0.06668879
159	0xbddfed99	-0.1093399
160	0xbb4b1885	-0.0030989957
161	0x3ce93e6f	0.028472153
162	0x3d01bd26	0.031674527
163	0x3ca24303	0.019807344
164	0xbcaaf19c	-0.020867161
165	0xbd01ccab	-0.031689327
166	0xbc149269	-0.00906811
167	0x3d84c1e0	0.06482291
168	0x3d80c0d0	0.06286776
169	0xbc462abe	-0.0120951515
170	0xbda0908b	-0.078400694
171	0x3bcb6e12	0.0062081898
172	0xbb1d1780	-0.0023970306
173	0xbc4b006f	-0.01239024
174	0x3d4d20bf	0.050080057
175	0xbd77e171	-0.060517732
176	0x3cc689e0	0.024235666
177	0xbcfa5a91	-0.030560764
178	0xb94748c3	-0.00019005225
179	0xbd8e4ec9	-0.06948621
180	0xbcf611c1	-0.030037763
181	0xbde72a91	-0.11287416
182	0x3c58733f	0.013211071
183	0xbd900060	-0.070313215
184	0xbe06eabd	-0.13175483
185	0x3c3dc59e	0.01158276
186	0x3d16fefe	0.036864273
187	0xbdb241cc	-0.08703956
188	0xbda660b1	-0.08123911
189	0xbd3b247f	-0.045689102
190	0xbd89ff02	-0.06738092
191	0xbe02921e	-0.12751052
192	0x3d41acee	0.04728406
193	0xbcb5722b	-0.022149166
194	0x3d0fd78e	0.03511768
195	0xbddcb593	-0.1077682
196	0xbd70eb3b	-0.058818083
197	0xbcefeeb5	-0.02928863
198	0x3bff4f3d	0.0077914284
199	0x39877937	0.0002583952
200	0x3d3a8240	0.045534372
201	0x3ddd0991	0.1079284
202	0xbd6220e2	-0.05520714
203	0xbd016988	-0.031594783
204	0x3d6102a5	0.054934163
205	0x3c655ae5	0.013998722
206	0xbcbe11e6	-0.023201894
207	0x3cfe2307	0.031022562
208	0xbdc193f7	-0.0945205
209	0x3c5720c3	0.01313037
210	0x3d792170	0.060822904
211	0x3ceedd88	0.029158369
212	0x3d4b0cf8	0.049572915
213	0xbd86ea84	-0.06587699
214	0xbd5d5471	-0.054035608
215	0xbdb6d6fe	-0.08927725
216	0x3d022007	0.031768825
217	0xbcd6f0dc	-0.026237898
218	0x3d2e797f	0.042596336
219	0xbd78e717	-0.06076726
220	0xbde9e6e6	-0.114209935
221	0xbc10b741	-0.008832754
222	0xbdd74267	-0.10510712
223	0xbdb4fbe5	-0.088371076
224	0x3d0435f0	0.032278
225	0x3d736ece	0.059431843
226	0x3dafe1a6	0.08587961
227	0xbd084598	-0.033269495
228	0xbc82d568	-0.0159709
229	0xbb239fca	-0.0024967068
230	0xbda11c7c	-0.07866761
231	0xbd453ed8	-0.048155636
232	0x3c704324	0.014664445
233	0xbd384305	-0.04498579
234	0x3cbdaeb4	0.023154594
235	0xbd541af7	-0.05178353
236	0xbda6f860	-0.081528425
237	0xbd8d6863	-0.06904676
238	0x3cb9f5bf	0.022700189
239	0xbcab903b	-0.020942798
240	0xbdc8c59d	-0.09803317
241	0xbde1998f	-0.11015617
242	0xbe07c3da	-0.13258305
243	0xbd98f91f	-0.07469391
244	0xbda0d714	-0.07853523
245	0x3d928e24	0.071560174
246	0xbdaaefdc	-0.08346531
247	0x3d0c07cf	0.034187134
248	0xbda03dad	-0.07824264
249	0xbce8e3cf	-0.02842894
250	0xbdc33adc	-0.09532711
251	0xbc573467	-0.013135052
252	0xbcde7d05	-0.027159223
253	0x3d51c873	0.051216554
254	0x3d24c732	0.04022903
255	0xbdce754e	-0.10080968

vae.fc_logvar.bias f4 [16]
0	0xbd91cecd	-0.07119522
1	0xbd876736	-0.06611483
2	0xbdacb4df	-0.08432936
3	0x3d71d0be	0.059036963
4	0xbd43084e	-0.04761534
5	0xbca5ee11	-0.02025512
6	0xbe0b8cd3	-0.13627939
7	0xbd2d6d8e	-0.042340808
8	0x3db9735f	0.090552084
9	0x3d12de50	0.035856545
10	0xbd20013c	-0.039063677
11	0x3d6768dd	0.05649649
12	0xbdc72499	-0.09723777
13	0x3d28aecc	0.041182324
14	0xbd154f02	-0.0364523
15	0xbd554a6d	-0.05207293
