save_model/gat_vae_model(excellent_performance2).pth (torch, 359302 bytes, 54 tensors)

gat.gat1.att_src f4 [1, 2, 32]
00000000: 732a 16be 5054 dd3d f810 00bf b173 823d
00000010: af40 9c3b b1f3 e23e 2c33 983d 07e8 0bbe
00000020: 283a 68be fc60 8b3e 1c47 93be 969c be3e
00000030: 6e62 cbbb e317 b4be 2735 41bd aeed b4be
00000040: 92c0 a1be 5463 e43d 6b18 cdbe 08b4 65be
00000050: 77bc 35be 7c48 c63e 8223 c83d fc78 debb
00000060: 7a66 fc3e 4bb5 153f 4349 03bf aa15 113f
00000070: 7fe6 5ebd fc82 fdbd 6ae3 cf3c 9777 7bbe
00000080: 3787 9f3e ba8d 663e 8d31 c4be 1e03 41be
00000090: da80 7b3e 3406 9dbd 4264 cabd c9a4 0ebf
000000a0: d58d efbc b32a b63d 3d36 da3d 7b98 a83d
000000b0: 3e7e cf3e 0b29 c23c 8adb dcbe 495f ca3e
000000c0: c2be 973e bfaa dc3e dfa8 e23d 7e3c dbbe
000000d0: fa2c e0be 146f a6be 8a84 e63e bb16 dbbd
000000e0: 4c08 3f3e ae53 4e3e 8cd1 773e 7494 dc3d
000000f0: 45ac 1abe ba53 40be 03bb 023f edce 293e
-0.1466463 0.10807097 -0.5002589 0.06369723 0.004768453 0.44326547 0.07431635 -0.1366273
-0.22678435 0.2722243 -0.2876519 0.3722884 -0.006206802 -0.35174474 -0.04716983 -0.35337585
-0.31592232 0.11151758 -0.40057692 -0.22431958 -0.17747675 0.38727176 0.097723976 -0.006789325
0.49296933 0.58479756 -0.51283664 0.5667368 -0.054419037 -0.12378499 0.025376994 -0.24557339
0.31157848 0.22515002 -0.38319054 -0.18848845 0.24560872 -0.07667199 -0.09882404 -0.5572019
-0.029242435 0.08894863 0.106548764 0.08232208 0.40526003 0.023701211 -0.43136245 0.39525822
0.29637724 0.4309902 0.11067366 -0.4281959 -0.43784314 -0.3250662 0.45022994 -0.10697695
0.18655509 0.20149109 0.2420103 0.10770503 -0.15104778 -0.18781939 0.5106661 0.16582842

gat.gat1.att_dst f4 [1, 2, 32]
00000000: b7cc 4b3e c385 6b3e 9faf d9bd 1db3 0a3f
00000010: 2991 963e f752 72be 7df3 81be 84fd 77bd
00000020: 34e2 113f 7161 b9bd bb29 c9be 3d6a 2e3e
00000030: 7640 9cbe 5b66 963e d7df 843e 9408 6c3c
00000040: cd30 3bbe 8b16 a03e 2e75 7d3e 4d18 8fbd
00000050: a0fa 533e df91 613e 11b3 9e3e 9f4d 513e
00000060: 77ad 763e 5098 ba3e 326f 9ebe 5d2b 39be
00000070: 845a dcbd 99fa 01bf ab8c 4e3e 1485 f63e
00000080: 37c5 ab3e cbf4 d1bd 58c7 f03c 78ba 473e
00000090: b105 c73c 01e8 0e3f 28c3 58be b9dc 4c3e
000000a0: dea9 0bbf 21ab 06bf 8be8 e7be bd44 873e
000000b0: eb67 a93e 1c7b 43bd 43f7 a3bd 9491 e13d
000000c0: 858a 0c3c 07a3 63be 6071 083f 719b bdbe
000000d0: 9c85 283e 7ef7 443d c824 a33e 86f4 b63d
000000e0: d909 cd3e fbb7 f2be 1695 803e f463 3dbe
000000f0: d1df d9bd fbad e43e 4bca 0fbe bf5f d93d
0.19902311 0.23000245 -0.106292 0.54179555 0.29407623 -0.23664461 -0.2538108 -0.060544506
0.56985784 -0.090517886 -0.3928965 0.17032714 -0.3051793 0.29374966 0.25952026 0.014406342
-0.18280335 0.312672 0.24751732 -0.06987057 0.20701075 0.22028302 0.30995992 0.20439766
0.24089609 0.3644433 -0.3094421 -0.18082948 -0.10759452 -0.50773007 0.20170848 0.48148406
0.335489 -0.10251769 0.02939193 0.19504726 0.024294706 0.5582276 -0.21168196 0.20006074
-0.5455607 -0.5260487 -0.45294604 0.2641963 0.33087096 -0.047724828 -0.08006146 0.11014095
0.0085779475 -0.22230159 0.53297997 -0.37032655 0.16457218 0.04808759 0.31864 0.08933358
0.40046576 -0.4740599 0.25113744 -0.1849516 -0.10638393 0.44663987 -0.14042012 0.10613965

gat.gat1.bias f4 [64]
00000000: 0000 0000 0000 0000 969b 95be 83f9 d93d
00000010: e038 57be 0000 0000 2e24 c73c 70a1 afbe
00000020: 0abc 653d 0fb2 bebe 6c0f 1dbd ebaa 99be
00000030: f555 e4bd fb99 38be 0963 acbd ab04 263d
00000040: 7324 8cbe f97c 55bd 7339 823d f73d 8a3c
00000050: a1a2 93be 0000 0000 b217 1cbe 0000 0000
00000060: 510d 0fbd 0000 0000 df0b c5be a35a 20bf
00000070: 7b1c b23d ed00 76bd 0000 0000 0000 0000
00000080: 3ab4 78be b8ba a9bd 1ec7 81bd 9d05 77bd
00000090: 8ebc 5fbe 0000 0000 0000 0000 2c8c b83d
000000a0: fcdb 0fbe 0851 edbe 7ee3 6d3c e0fd 3dbe
000000b0: 1087 edbe ed40 87bd 4e55 79be 338a 61be
000000c0: 390a 9abe 76b1 00bf c6a8 cfbd 7f23 9abe
000000d0: ee1f 993c 9487 81bd ab14 b6be 347c b33d
000000e0: fe55 57be af08 b43d c56a b1be cfe6 aabe
000000f0: d98f 9fbd 2212 11be 6d6c f4be 05bc 303c
0.0 0.0 -0.29220265 0.10643294 -0.2101779 0.0 0.024309244 -0.34302855
0.05608753 -0.37245223 -0.038344786 -0.30013213 -0.111492075 -0.18027489 -0.08417327 0.040531795
-0.2737156 -0.052121136 0.06358614 0.01687525 -0.28835014 0.0 -0.15243414 0.0
-0.03492481 0.0 -0.3848562 -0.626383 0.086968385 -0.060059477 0.0 0.0
-0.24287501 -0.08287567 -0.06336807 -0.060308088 -0.21849272 0.0 0.0 0.09011111
-0.14048761 -0.46350884 0.01451957 -0.18553877 -0.46392107 -0.066041805 -0.24348947 -0.22025375
-0.30085924 -0.50270784 -0.10139613 -0.30105206 0.018691983 -0.063246876 -0.35562643 0.08763924
-0.21028897 0.08790719 -0.3465177 -0.33379218 -0.07791109 -0.14167073 -0.47738972 0.010787015

gat.gat1.lin.weight f4 [64, 12]
00000000: 68ce 07be b9b2 ab3e c8cc 773e d1a4 953e
00000010: 9023 bf3d 9b00 14be 2a74 903e 439a fa3c
00000020: 5a19 373e 9ef2 80be 9037 f2bd d112 a5bd
00000030: 745c 8bbe c9d6 983d 4ede bebd fe54 093d
00000040: 8c50 68be 7727 223e efbe 4ebe 39a8 263e
00000050: 0328 14be ae79 29be e622 a4be 07b1 bdbd
00000060: de67 b3bb 21cf b63d 5c5f bebe c877 333e
00000070: 1f74 9abe 78d5 5dbe 4288 8abe 12d7 c8bd
00000080: ebcb edbd 586d 7bbe ffe2 5bbe 4d15 e6bd
00000090: d57e 9abe 3579 57bd 1d5a e5bd bf4d 4ebe
000000a0: eb75 63be f3b9 113d ee87 033e fe13 263e
000000b0: 51c5 91be 942b 49be 407f 313e 8aef ae3e
000000c0: 417d 52bb dfce e5be a581 f9bd 4c99 143d
000000d0: a6f6 b7be 6696 bebe 14a9 f6bd c147 9fbe
000000e0: 5a98 60bc fd84 2abe aa91 55be dff9 bcbd
000000f0: 706f 8ebe 7fea d23d f8e1 41be 1320 c2bc
00000100: 29fe 61bd 4a00 603e b188 16bd 2f2b 08be
00000110: 22b1 87bd f33f 3a3c f9be f8bd 8cc9 73be
00000120: 218a 2ebb fb82 dcbe 10c0 153e b57f 16be
00000130: 2232 7fbe 2901 ca3d 9e79 6a3c 51e7 7bbe
00000140: 4c40 73be 878e b7bd 7751 7f3d 84dc 793e
00000150: c3b7 44bb 1985 72be 063c 95be 19c2 adbe
00000160: 765d c7be fc0d 22bf 164f 19bf c5ce 43be
00000170: 81b8 54be d22e 15be 7971 3abe 3025 3abe
00000180: 0566 8fbe f3c1 ff3d e2bd 31be b8c9 69be
00000190: 98d9 723e 563f 803e 880c 25be 0c9d 1cbd
000001a0: c93e 8abe 97e2 213e 5892 26be c97e 8fbd
000001b0: c117 c6bb 2177 0dbe ac68 eabd 9608 85be
000001c0: 0f27 b6be 2809 fcbd 4895 debe 54a0 2dbe
000001d0: cc18 e73a 46e4 51be ba5e aebe 9945 e8bc
000001e0: 6caf 20bb 31e2 3b3b 23da 8cbe efbb b5bd
000001f0: 9666 933b 6fab 3d3e bfbf 2fbd 9c40 39be
00000200: 4582 fdbd 6d43 52bc 29bc 33bd fe58 cf3c
00000210: eb5c bcbe 3e77 923c 6732 9abe d14b a9bd
00000220: a4f8 cfbc 0799 65be b956 213c cc99 a0bd
00000230: 7d68 36be 7c7d cabd e507 b93d af1b c83d
00000240: 25f8 39bd 4ff6 d53c 709d 033d a2c8 95be
00000250: ad8c b33c 6dbd 293e df13 cbbd 2e96 7fbe
00000260: a0bb 13be 64a4 073e 4518 2ebe 85e6 5e3e
00000270: 90d7 43bc bf57 373d 2882 8dbe 65f5 60bd
00000280: db13 c33d ca3e 9b3d 091b 0c3e 3d5c 1dbe
00000290: 4c84 2c3e 2bcc 4dbd 3091 87bd e5ca 25be
000002a0: 158b 80bb 05ce 013e f9d6 adbe 1567 a8be
000002b0: 0f63 23be 421e a7be 0edd 8bbe 20e9 d63d
000002c0: e995 36be 3333 0e3c ac74 2bbd f555 9dbc
000002d0: 1cc0 bfbb da3c c23e b1cb 5bbe 24ba 90bd
000002e0: 814e 393e a07f 53bc f5e2 613e 516c 743e
000002f0: 3682 40bd bac9 1d3d 1c88 aebd d69c 11be
00000300: ba26 62bb 3402 703e 72e7 8ebd 8972 a7be
00000310: b7a1 2abd 2d31 72be de4b 7ebd 9e23 a9be
00000320: 6cd8 2f3d a332 53be 1d2c afbe 7dd8 febe
00000330: e64a 27bc 1799 9fbd 0987 06be 6f1a 023e
00000340: 4a3d 263e d235 5d3d 13e2 493e 267c e9bd
00000350: 6ea1 1abd 6cf0 c03d 4a74 10be 9765 493d
00000360: 8a42 a4ba db0c 2fbd 94a5 28bd 32f8 7f3d
00000370: 6fb1 33be fcfa 3dbb 1923 a83e ef5d 97bc
00000380: a384 073e 9884 39bd e843 9cbd 0f8d 43bd
00000390: e566 e8bc fbd8 2c3e b5ca c23d b320 86be
000003a0: b0bf 0cbb 9830 5a3e 9e15 45bc bc06 adbd
000003b0: 82d7 a7bd 1d26 ce3d 4d8e 01be 71a1 e6bd
000003c0: 1341 f2bc 1920 4bbc a5fb 32be 204d 653e
000003d0: 43aa ee3d 396c 123e e0a6 cf3d 2aef b2be
000003e0: e07d 7cbe c9e6 0e3e b9ef 20be 9ee0 453e
000003f0: 440c dfbe e65a 00be 2050 8fbe 8a3e 3ebc
-0.13262331 0.33534792 0.24199212 0.29227307 0.09332955 -0.14453356 0.28213626 0.030591136
0.17880765 -0.25185102 -0.11827004 -0.080602296 -0.27218974 0.07462842 -0.09319745 0.03352832
-0.22686976 0.15835367 -0.20190023 0.1627511 -0.14468388 -0.16550323 -0.32057875 -0.09262281
-0.0054750284 0.089262255 -0.37182128 0.17526162 -0.30166718 -0.21663463 -0.2705708 -0.098066464
-0.1161116 -0.2455343 -0.21473311 -0.112345316 -0.3017489 -0.052605826 -0.11198828 -0.20146845
-0.22212951 0.035577726 0.12844822 0.16218564 -0.28470853 -0.1964553 0.17333698 0.3416713
-0.0032118114 -0.44884393 -0.12182931 0.036279008 -0.35930365 -0.3722412 -0.12043968 -0.3110943
-0.013708198 -0.16652294 -0.20856348 -0.09227347 -0.27819395 0.10298633 -0.18933856 -0.023696935
-0.055174027 0.2187511 -0.036751453 -0.13297723 -0.06625582 0.011367786 -0.121458 -0.23807353
-0.0026632624 -0.4306868 0.14624047 -0.14697154 -0.24921468 0.098635025 0.014311222 -0.24599959
-0.23754996 -0.08962732 0.06233355 0.24400526 -0.0030016757 -0.23683585 -0.29147357 -0.33937147
-0.38938493 -0.6330259 -0.598863 -0.19121845 -0.20773508 -0.14568642 -0.18207349 -0.18178248
-0.28007522 0.12488165 -0.17357591 -0.22830856 0.23715818 0.2504832 -0.16118062 -0.03823571
-0.27001026 0.15809093 -0.16266763 -0.07006604 -0.006045312 -0.13814975 -0.11445746 -0.25983113
-0.35576674 -0.12306434 -0.43473268 -0.16955692 0.0017631291 -0.20497236 -0.34056646 -0.0283535
-0.0024518622 0.0028668756 -0.27510175 -0.08873736 0.004498313 0.18522428 -0.042907473 -0.18091053
-0.123783626 -0.012833458 -0.043880615 0.02531099 -0.3678964 0.017879125 -0.3011658 -0.08266414
-0.025387116 -0.22421657 0.009847336 -0.078418344 -0.17813297 -0.098872155 0.09034709 0.09770905
-0.045402665 0.026118426 0.032132566 -0.29254633 0.021917665 0.16576166 -0.099158995 -0.24959633
-0.14427042 0.13246304 -0.17001446 0.21767624 -0.01195325 0.044761416 -0.27638364 -0.054921526
0.095252715 0.075803354 0.13682188 -0.15367217 0.16847342 -0.050243538 -0.06619489 -0.1619068
-0.00392283 0.12676246 -0.33953074 -0.32891145 -0.15955757 -0.32640272 -0.2731709 0.10493684
-0.17830624 0.008679199 -0.041859314 -0.019206027 -0.0058517586 0.3793705 -0.21464421 -0.070667535
0.18096353 -0.012908846 0.22059233 0.23869444 -0.04699918 0.03852246 -0.085220546 -0.14219984
-0.0034507946 0.2343834 -0.069777384 -0.3270457 -0.04165813 -0.23651572 -0.06208407 -0.33034986
0.042931005 -0.20624785 -0.34213343 -0.49774542 -0.010210728 -0.077928714 -0.1313745 0.12705396
0.16234317 0.054006405 0.19715147 -0.114006326 -0.037751608 0.09420857 -0.14106861 0.04916915
-0.0012532037 -0.04273687 -0.041173533 0.062492557 -0.17548154 -0.002898871 0.32839277 -0.018477408
0.1323419 -0.045292467 -0.076301396 -0.047741946 -0.028369376 0.16879646 0.095113195 -0.26196823
-0.002147656 0.213076 -0.01202908 -0.0844855 -0.08195402 0.10065863 -0.1265194 -0.11261261
-0.029572045 -0.012397789 -0.17478807 0.22392702 0.116535686 0.14299096 0.10139251 -0.34948093
-0.24657393 0.13955225 -0.15716447 0.19323966 -0.43564045 -0.12534675 -0.27990818 -0.01161159

gat.gat2.att_src f4 [1, 1, 64]
00000000: 61a2 44be 188a 1dbd 5242 823e 4c9d a6bd
00000010: 2b7a 23b9 cbad e6bd 65bb 153e 056a 3e3d
00000020: 12fe 313e b1b3 f63c 4bea 263d 5627 853e
00000030: 2599 3c3e 6d4b b73d 9349 3dbe b604 02bd
00000040: a64a 37be fca4 b33e e85f 653e f196 b8bd
00000050: 45bc 463e ac2b 173e d945 233d ad85 733e
00000060: 7be8 933e 508e 6d3e d290 e5bd d953 b2be
00000070: 4dd1 d9be 5a50 243e 7d41 17be 2dd2 32bd
00000080: 53cc 26be 5641 debd 47d3 093e 7d03 11be
00000090: a0cd b03e 20c3 a9be 2cc2 e33d 6507 473e
000000a0: 54ed 69be 9608 943c 9f63 71be cb3c e4bd
000000b0: 638c a83d 5826 33be 474b be3c d525 87be
000000c0: 1029 c23e 2778 b43d 1638 8a3e 2b92 e33d
000000d0: 6847 a43d 21a5 fc3c 8875 4f3e e488 25be
000000e0: 7884 18be 093c 973e 4409 823d 55eb 323c
000000f0: b14c 37be 5150 2cbe dc30 edbe 46bb 90be
-0.19202568 -0.038461775 0.25441223 -0.08135471 -0.00015590402 -0.11263617 0.14622267 0.046487827
0.17382076 0.03011498 0.040750783 0.26006573 0.18417795 0.08949933 -0.18485098 -0.031742774
-0.1789957 0.3508681 0.22399867 -0.09013165 0.19407757 0.14762753 0.039861534 0.23781462
0.28888306 0.23198819 -0.11209263 -0.34829596 -0.42542496 0.16046277 -0.14771076 -0.04365747
-0.16288881 -0.108523056 0.13459502 -0.14161487 0.3453188 -0.3315668 0.1112102 0.19436415
-0.2284444 0.0180705 -0.23573159 -0.11144408 0.08229902 -0.17495096 0.023229254 -0.2639605
0.37921953 0.0881198 0.26995915 0.11111864 0.08021432 0.030840458 0.20259678 -0.16165501
-0.14894283 0.2953799 0.063494235 0.010920365 -0.17900349 -0.16827513 -0.4632634 -0.28267878

gat.gat2.att_dst f4 [1, 1, 64]
00000000: 4f61 593d cf4c c13d 582e 1fbd 4ed8 bfbd
00000010: 5539 0f3d 97e4 57be ed57 563e dee1 823e
00000020: c2c8 963c 5f6d 4b3e 4ebd 7b3e b4c9 0d3e
00000030: 130a 51be c52f f5bd 7651 52be 4419 6e3e
00000040: 39cd 683e dd1c 963e bd28 eb3b 042a 963d
00000050: de1e 6bbe cfd6 c6bd 879d d6bd fd38 48be
00000060: f2cd fdbc 4eee 16be 3612 393e 2b20 dabd
00000070: 4d60 31be 20e4 553e 108f 343e 8977 7abe
00000080: 6c5a 06bd 6aeb 79be 18e1 4dbe e4b3 923e
00000090: 52b8 ef3e 98ea 58be ac0e 073e 2560 883e
000000a0: d27e 263e 8a8e 7abc b716 b1bd 9096 adbe
000000b0: 713a 6dbe 1309 8bbe d7bc 43bd ab93 4c3e
000000c0: 3f98 8a3e 6c1f a2bd 452a 083e 7286 81be
000000d0: 303a 81be a179 af3e e2b4 28be a7b7 94bd
000000e0: 8f8d 78be da33 993d f655 ff3d 7d85 70be
000000f0: 418e 333e a99c 47be abce 60be 274d 623d
0.053071316 0.09438478 -0.038862556 -0.09367429 0.034966785 -0.21083294 0.20931979 0.25562948
0.018406276 0.1986594 0.24583933 0.13846475 -0.20414 -0.11972002 -0.20538887 0.23251826
0.22734536 0.29318896 0.0071764872 0.073322326 -0.22960994 -0.0970894 -0.10479265 -0.1955299
-0.030981991 -0.14739344 0.18073353 -0.10650667 -0.17321892 0.20887804 0.17632699 -0.24459662
-0.032801077 -0.2440621 -0.20105398 0.2865287 0.46820313 -0.2118324 0.1318919 0.26635852
0.16259316 -0.015292773 -0.08646911 -0.33903933 -0.23166825 -0.2715536 -0.047787514 0.19978206
0.2706928 -0.079161495 0.13297375 -0.25297886 -0.25239706 0.34272483 -0.16475251 -0.072615914
-0.2427275 0.07480593 0.124675676 -0.23488422 0.17534734 -0.19493355 -0.21953838 0.05524936

gat.gat2.bias f4 [64]
00000000: fc02 bf3d 0461 23bc bd4f 723e 966b fb3e
00000010: da58 823e 4997 f9be a4db ec3c 0851 f3bc
00000020: c11b 55be 0c90 e93e 1a15 aabe 808d ea3e
00000030: 712f c4bc e556 8f3e ac9b 3c3e a346 cd3c
00000040: 421d 373e 0506 e13e 0125 aa3c d8e3 d53e
00000050: 4f32 a03b 9801 d7be 526e a0be 44ef 18be
00000060: 5210 5c3e bdd4 43be 67f0 66be 277d 0abf
00000070: 4a38 3cbe 8c3e 74bd 6041 07bf dfd3 3abc
00000080: c3de 11be 8048 2cbe 1186 843e c49a 033e
00000090: 2acd e03e 571e 48be 0094 fe3d 82c7 b13c
000000a0: a5a2 5dbe 3e15 81be fe53 173e b39f 67be
000000b0: 606f 943e 5cff 36be d8ba e33e 5ae2 9a3d
000000c0: 3cd2 74bd c293 0fbe 00ab 4dbe ffe5 b83c
000000d0: a229 e0bd d7c2 893d e86f 473c 2598 a63e
000000e0: be7c 0fbe 2158 43bc 0758 d63e 7ce1 e4bd
000000f0: a232 b23e 6baa ba3e 5154 8abe 4bd6 c8be
0.09326741 -0.009971861 0.2366323 0.4910552 0.25458413 -0.48748234 0.028913327 -0.029701725
-0.20811369 0.45617712 -0.33219224 0.4581108 -0.023948403 0.27995983 0.18418759 0.025058096
0.17882255 0.43949905 0.020769598 0.41775393 0.0048888098 -0.41993403 -0.31334168 -0.14935023
0.214906 -0.19124122 -0.22552644 -0.5409722 -0.18380848 -0.05962996 -0.5283413 -0.011403053
-0.14245133 -0.16824532 0.25883535 0.12852007 0.43906528 -0.19542824 0.124305725 0.021701578
-0.21644075 -0.2521152 0.14778134 -0.22619514 0.28991222 -0.1787085 0.44478488 0.075627044
-0.059770808 -0.14021209 -0.20084763 0.022570608 -0.10945441 0.06726616 0.012172677 0.32537952
-0.14012429 -0.011922867 0.41864035 -0.1117582 0.34804255 0.36458144 -0.27017453 -0.39225993

gat.gat2.lin.weight f4 [64, 64]
00000000: 2c9a 403d 98f7 d93c c468 5f3d 8ce8 4f3e
00000010: 01bf 54bb 66fe d63d 64e8 d1be 41b8 a0bd
00000020: c03c fdbc f3d9 1d3e 100f 91bd bb08 22be
00000030: 9a70 68bd 5601 013e 473b 76bd 8de9 44be
00000040: a70a 20be 66b9 f63c c85e 4c3c e79f 2cbe
00000050: a6d9 75bd 257b edbd 89f5 903d 606e 50bd
00000060: 784b 7c3e 2679 2fbe b243 7ebd 2779 dd3d
00000070: 4fe1 bd3d e133 fc3d c0bd c33b c81f 5cbd
00000080: 68f4 dc3d 9a34 243d cd47 bf3c 2a47 063e
00000090: 09ff 61be a602 9c3d bc2e 3c3d d219 1d3e
000000a0: 66e2 75bc 3194 9a3d 27b2 61bd 8f77 0e3d
000000b0: 3d26 ee3c e406 81bd 6bc9 7e3d c9a6 40be
000000c0: 27c2 cbbd 4115 39bd fab6 b1bd 9711 22be
000000d0: 99d2 d5bd 39f6 193e 4175 433d 2f17 8f3e
000000e0: 8cc4 84ba 7a15 023e 272f 4c3c 0f94 86bd
000000f0: 37d7 47bd 9c29 a3bc cdde dd3c 0a39 403c
00000100: e429 e6bd 2315 053e cdc5 013e 967d fbbd
00000110: c2c0 36be ba22 fd3d 728f 73bd 0563 123e
00000120: a453 d53d 6232 123d c36f ff3d 4845 8b3d
00000130: 177f df3d dccb adbd 1ed5 babd f501 3dbc
00000140: ecc5 3fbd 7ece 093e fe7d 18be d6db 443d
00000150: 630a d63d 1c84 5a3d ac9a 1d3e fb96 133e
00000160: 7a8b fbbb dbc7 f5bd 26b5 a03d acd1 f0bb
00000170: 4730 08be ce52 183e 0c86 5d3d aed0 98bd
00000180: e697 a63d fcc7 8c3d 5964 83bd f0c1 073e
00000190: dd46 333d b133 363e d032 0abd e9e1 85bd
000001a0: 1e80 59be 817e 083d 4a88 24be 8bd4 b4bd
000001b0: 1be4 853d b36e 113c ba3e e4bd 20b8 48be
000001c0: 9071 e1bd ea60 763b e962 8a3d 6a04 363d
000001d0: d001 29be 2e32 013e ba86 02be e2ed 403e
000001e0: 8f12 0a3e 1742 03be 80bb 79bc 0607 6bbd
000001f0: f9d4 b0bc bc00 a9bd a95d 81bd 0ec7 793d
00000200: 9d70 54be 5ed0 2fbe cc82 5b3e 93ea a0bc
00000210: bbbb 823d d799 163e 7ff3 abbd 94f0 943d
00000220: e2d2 c43d 6efd 02bc 4f2b 213e 9f78 b53c
00000230: 736a da3c 32ba 02bd 9739 c63c 037a c63d
00000240: b529 23bd 05ad 283e b27d f13d 805c 1d3d
00000250: 7089 b8bd f51f 383e 9174 d93d 28e0 82bc
00000260: 1d64 9b3d a5e7 533e 6571 fdbd 53e5 3c3d
00000270: d1bb c6bd 5fe8 c1ba cc86 f0bd bce8 1bbd
00000280: 8af3 36be a0c5 0e3e de9e 653d ef4b 54be
00000290: 5639 263d 5e98 3bbe b587 1b3e 9409 003d
000002a0: 035d f8bc 24c6 b3bd 6b6f 1a3e b4bc 9c3d
000002b0: ab99 cb3c 56c0 babd 59da 1f3d b45e 283d
000002c0: 2ec6 1b3d c98b 07be 2e62 8d3c 29d4 38be
000002d0: ceef 02be 1dd8 9d3d 8415 b1bd 83ac 8ebe
000002e0: 3cfd 483e 4e75 2a3c f69f 0dbe 6880 5b3d
000002f0: c975 a83b 4777 a73c 3d79 0dbd 832d 823d
00000300: 470c 54be 899d 1c3e fa58 193d c679 35bd
00000310: 2daf 23be d3b8 3f3e 2bfa 0f3e 9d7e 8bbd
00000320: 33aa 58bc 71bf 58bd 79e3 283e f532 c4bd
00000330: 1cad 78be 58d7 97bd 02c0 8ebd 6432 4f3c
00000340: d061 d8bd 5a3e 0c3e 3c5f b13d 02e2 3abe
00000350: ad62 babd a898 34be a865 14bd d349 163e
00000360: 6952 9ebd a9df 103e 16d5 0fbe e33f 5ebb
00000370: 297c 283d f860 123d 1479 25be 0eab 94bd
00000380: c0fc c6bd 2c7e f53c 4d88 12be 1659 813d
00000390: 3d65 a7bd 5391 363e 989b fdbc 069f 4e3e
000003a0: c1b9 583e 00c2 aebd ca43 ed3d 76f9 e63d
000003b0: 2d33 55bd 9c4e 75be 807b c43d 9575 c43d
000003c0: c646 663d ee06 bb3c f77b 31bd 6de9 2b3e
000003d0: 181b afbc 7455 a33d 753e 1a3e 0d0b 2dbe
000003e0: 29cb 19be 2c88 c43d 6236 903d f6df b9bc
000003f0: a1c9 5bbe 4aa4 fa3d 5806 1f3e f7e3 93bd
0.04702203 0.02660732 0.05454327 0.20303553 -0.003246248 0.104977414 -0.40997612 -0.07847644
-0.030912757 0.15415172 -0.07082951 -0.15823643 -0.05674801 0.12598166 -0.060115125 -0.19229718
-0.15629064 0.030117702 0.0124737695 -0.16857873 -0.06002202 -0.115957536 0.07078082 -0.05088651
0.24638164 -0.17136058 -0.062076278 0.108141236 0.0927149 0.123145826 0.0059735477 -0.053741246
0.10788804 0.040089227 0.023349667 0.13113084 -0.22069944 0.07617693 0.045943007 0.15341881
-0.015007591 0.075477965 -0.05510154 0.03478199 0.029070968 -0.063001424 0.062203806 -0.18813623
-0.09949141 -0.045186285 -0.08677478 -0.15827022 -0.10440559 0.15035333 0.047719244 0.27947375
-0.0010129376 0.12703505 0.012462414 -0.06571209 -0.04878923 -0.019917302 0.027083779 0.011732349
-0.11238459 0.12996344 0.12673111 -0.12279813 -0.17846969 0.12360139 -0.059462972 0.14295585
0.10416344 0.03569258 0.12472489 0.06800324 0.10912912 -0.08486149 -0.0912268 -0.011536111
-0.046819612 0.13457677 -0.14891812 0.048061214 0.104512 0.053348646 0.15391034 0.14413063
-0.007676539 -0.1200101 0.07847051 -0.0073492136 -0.13299666 0.14875337 0.054082915 -0.074616775
0.08134441 0.068740815 -0.06415624 0.13257575 0.043768752 0.17793156 -0.033739865 -0.065372296
-0.21240279 0.03332377 -0.16067615 -0.08829602 0.06537648 0.00887649 -0.11144777 -0.19601488
-0.110079885 0.0037594386 0.06757147 0.044437803 -0.16504598 0.12616798 -0.12746707 0.18840745
0.13483642 -0.1281818 -0.015242457 -0.057379745 -0.021585928 -0.08252093 -0.063166924 0.06098085
-0.20746084 -0.1716933 0.21436614 -0.019643104 0.06383463 0.14707123 -0.083960526 0.07272449
0.09610535 -0.007994993 0.15739177 0.022152243 0.026662087 -0.03191585 0.024197383 0.09691241
-0.039834697 0.16472252 0.117915526 0.038418293 -0.09010589 0.1798094 0.106179364 -0.015976027
0.075874545 0.20693834 -0.12375144 0.046117138 -0.09703792 -0.0014793983 -0.117444605 -0.03806375
-0.1786634 0.13942575 0.05605971 -0.20732091 0.040582024 -0.18319842 0.15188487 0.031259134
-0.030317789 -0.08778027 0.15081565 0.0765318 0.024853548 -0.091187164 0.039026592 0.04110594
0.038030796 -0.13236918 0.01725873 -0.18049683 -0.1278679 0.07707236 -0.08646682 -0.2786599
0.19627851 0.010403944 -0.13830552 0.053589255 0.005140994 0.020442618 -0.03453945 0.06356337
-0.20707808 0.1529447 0.03743837 -0.044305585 -0.15984793 0.18722849 0.14060275 -0.06811259
-0.013224172 -0.052916948 0.16493024 -0.09580032 -0.24284786 -0.074141204 -0.06970216 0.012646291
-0.10565531 0.1369566 0.08660743 -0.18250278 -0.09100852 -0.17636359 -0.03622976 0.14676599
-0.07730562 0.1414782 -0.1404613 -0.0033912591 0.041134033 0.035737008 -0.16159469 -0.072591886
-0.09716177 0.02996739 -0.14309807 0.0631582 -0.081736065 0.17828874 -0.030957982 0.2017785
0.2116461 -0.08533096 0.11585195 0.1127805 -0.05205076 -0.23955768 0.09593868 0.095927395
0.05621984 0.022830453 -0.043331113 0.16788264 -0.021375224 0.07975283 0.15062888 -0.16898747
-0.15018906 0.09596285 0.07041623 -0.0226898 -0.21463634 0.12238367 0.15529764 -0.07221215

vae.fc1.weight f4 [128, 64]
00000000: 0128 543c e7e4 1e3d 4601 093e 5279 18bd
00000010: 264e b2bd a360 67be 1a3d 353e b706 e53d
00000020: e196 b0bd be83 de3d 63a6 34bd 60fc 413c
00000030: 41d8 2c3d 4257 d1bc 78ca a2bd 45dd ef3c
00000040: 510b d73c 5451 053d 8211 503d 4bf6 7f3d
00000050: 742b b03d 6e43 76be 9c7a df3b 4e6b d7bd
00000060: e4e2 083e 7838 df3d e94d 62bd 43bc 493d
00000070: 452b 38be 47f3 1dbd 686e 43bb 97e9 e73d
00000080: 54dc 023c 2885 d7bd 4f2b 56bd 3d87 3b3e
00000090: cbd2 f93d b661 cdbc 8e46 ceba 439d ca3d
000000a0: da1d 223d 14f7 10bd 1844 8dbd 8199 b2bd
000000b0: 03ec dd3d 56bd 2e3c e498 253e 8aef 8f3d
000000c0: 940a 833d a8a8 d63c fc73 813d d7b1 67be
000000d0: 2ca1 e9bd da9d 70bd 2f90 34bd 881a c93c
000000e0: 4564 c7bd b26c f73c e565 74bc e515 06be
000000f0: c842 863d 7052 57bd 68d1 0dbe 9c41 17be
00000100: fda3 b03c 5b8d 43be c900 bebd 73b1 883d
00000110: e24e 0abe 9370 92bb a9e7 403d 16f4 d33d
00000120: dafc 18be a4da 7bbd 72b0 29bd 8168 aebd
00000130: 41cf ae3c 2e12 25bc 8036 163e 1ffb 0a3d
00000140: b71e 9abd f717 533d d348 0dbe c688 0b3d
00000150: 176c fabb 5787 ea3d afa3 72bd ba6f 443d
00000160: 7169 b53c fa85 14bd 75cf babd 6dbd 9fbc
00000170: da93 563c c004 8bbd 5955 03be 6b68 9f3d
00000180: d1ac fbbd b96b babd a78c 15bd 127c 333d
00000190: 88d3 443d 6d4e 99bd 6d20 0d3d 605c ef3d
000001a0: 433c 343c 2ed4 c7bd 6774 cf3d b229 bf3c
000001b0: eafc 45bd 19ef 80bd e1d6 48bd 7884 16bd
000001c0: 0b81 06be d5a2 f93d f97e ccbd 2eac 933d
000001d0: 1fa8 5cbd b54a f3bd 9a38 39be 63da c93c
000001e0: 412c fe3d bc61 c4bb fcd3 a2bd 02b0 073e
000001f0: e3bb 8abe 41cf 45bd b502 89bd 1b4b 193e
00000200: 0b32 123d d13a c53d 3136 0c3d 79f5 043d
00000210: ef1c b33d 9cca b53c ac5b 003e d0aa b63d
00000220: 4e4d 103d 7f04 95bc c80c 9f3c df2c 8e3d
00000230: e82f 7e3d 0637 223d 17e7 ce3d 0fb5 833d
00000240: eb93 753d 5d67 f83b f23f fc3d 5ae3 863b
00000250: 5816 143d abb4 21be bca8 863d 071a cfbc
00000260: 91bc e3bd e4d4 e9bd 8463 183d 8268 ef3c
00000270: 5bab 18bd e9a6 0a3b 012d 04bd 7429 a93d
00000280: ff3b 8f3c ee6a 96bc 0e27 8b3c 6d18 8bbc
00000290: b106 dd3c d439 29be a075 313e be7c b93c
000002a0: 20a8 383d 4c87 b53d 56fd 63bd 10d1 b33d
000002b0: d5d3 993d 0d44 863d 778b 133e 756c f83d
000002c0: b1ce e33d fa46 93bc 985a 36bd d50b abbd
000002d0: 6177 c3bd 3035 02bd 0489 06be d01a a43d
000002e0: b450 35be 762b f3bd 8143 263e 9f09 b0bd
000002f0: c9a1 b03d 6f08 813d d92d fbbd 5562 e5bc
00000300: 49fb b23c 4841 ab3d 5695 643e c915 013d
00000310: 75c9 dd3d cf01 143d 5a12 a63d 8bb5 febc
00000320: 944a 393d c8f7 38bd ad7d 6f3d 8dd8 63bd
00000330: c277 b9bb 11ce dd3c fa71 10be 19a4 033e
00000340: 4cfe 0a3d 1566 dfbc 4741 c43d e72c 95bb
00000350: 2fac 1b3e 4041 31be ecf2 7abd 4245 973d
00000360: c372 1ebe 4785 bebd 6935 dd3d a55d 40be
00000370: 8cc0 01be caf3 8f3c 9e67 90be b2c7 c93b
00000380: d666 923d e3e5 cf3a f2e7 0e3e 3d4c 813b
00000390: b44a 04be 98cd 3fbd 1182 8e3d e3a2 43bd
000003a0: 8bbb 16bd c8df 95bd a5b7 17be 25eb e5bd
000003b0: c38a 153e 62f3 aabc 18ed 473e 1ca7 32bb
000003c0: 0ace 3d3d 2566 8c3d fa7e 933d 9752 f0bb
000003d0: 5e62 81bc f328 82bd f1f2 a23d c25c e9bc
000003e0: 3605 c53d 9e54 afbd 902f 633d b08a 8bbd
000003f0: b112 69be 8a5e ae3d aaeb 25bb 0985 893d
0.012948991 0.038792517 0.13379392 -0.037225075 -0.08706312 -0.22595458 0.1769909 0.111829214
-0.08622528 0.108649716 -0.04410399 0.011839956 0.042198423 -0.025554303 -0.07948774 0.029280314
0.026250513 0.032548264 0.050797947 0.062490743 0.08602038 -0.2404916 0.006820036 -0.105185136
0.13367802 0.108994424 -0.055250082 0.049251806 -0.17985256 -0.038562085 -0.0029820446 0.113238506
0.007987101 -0.105234444 -0.052287396 0.18313308 0.12198409 -0.025071006 -0.001573758 0.098932765
0.03957925 -0.035391882 -0.068977535 -0.08720685 0.10836031 0.010665258 0.16171604 0.0702811
0.06398502 0.026203468 0.063209504 -0.22626434 -0.11407694 -0.05874429 -0.044082817 0.024548784
-0.09735922 0.030203197 -0.014916872 -0.1309429 0.06555706 -0.052568853 -0.13849413 -0.14771122
0.02156257 -0.19096892 -0.092774935 0.06674471 -0.13506654 -0.0044689863 0.04709593 0.1034929
-0.14940205 -0.06148781 -0.041428037 -0.08516026 0.02133906 -0.010075135 0.14669228 0.033930894
-0.0752539 0.051536527 -0.13797311 0.034065984 -0.00764228 0.11451595 -0.059238132 0.047958113
0.022145005 -0.036260583 -0.091216005 -0.019499505 0.013096774 -0.06788015 -0.12825526 0.07783588
-0.122888215 -0.09102578 -0.03651109 0.043819495 0.048053294 -0.07485662 0.03445475 0.11687541
0.011000696 -0.09757267 0.10129624 0.023335312 -0.0483369 -0.06295604 -0.04903305 -0.036747426
-0.13135163 0.12189261 -0.099851556 0.07210575 -0.05387127 -0.118794836 -0.18087998 0.024640268
0.124107845 -0.005993096 -0.07950589 0.13250735 -0.2709647 -0.048293356 -0.066899695 0.14970057
0.035692256 0.09630359 0.03423137 0.032460663 0.08745753 0.022191338 0.1253497 0.08919299
0.035229973 -0.01819062 0.019415274 0.06942152 0.062057406 0.039603256 0.10102671 0.064310186
0.05995552 0.0075806812 0.12316884 0.004116458 0.03615412 -0.15791576 0.06575152 -0.025280965
-0.111199506 -0.11417559 0.03720428 0.029224638 -0.037272792 0.0021156615 -0.03226948 0.0825986
0.017484663 -0.018361535 0.016986396 -0.01697942 0.02698073 -0.16525966 0.17330027 0.02264249
0.04508221 0.088636965 -0.05566152 0.0878011 0.07511107 0.065559484 0.1440867 0.121300615
0.11123408 -0.01797818 -0.04451999 -0.08351866 -0.09544254 -0.031789005 -0.13138205 0.080129266
-0.17706567 -0.11873524 0.16236688 -0.08595585 0.08624608 0.06300437 -0.12264604 -0.02800099
0.021848338 0.08362061 0.22322592 0.031514917 0.108294405 0.036134537 0.08108969 -0.031092426
0.04523714 -0.045158178 0.058469463 -0.05562644 -0.005660028 0.0270758 -0.14105979 0.12855567
0.033933923 -0.027270356 0.09582763 -0.004552472 0.15202402 -0.17310047 -0.061266825 0.07386257
-0.15473466 -0.093027644 0.10801203 -0.18785723 -0.12671107 0.017572302 -0.28204054 0.0061578387
0.07148521 0.0015861358 0.13955668 0.003945856 -0.12919122 -0.04682693 0.06958402 -0.047762763
-0.03679995 -0.073180735 -0.14816149 -0.11226491 0.14603715 -0.020868007 0.19524038 -0.002726025
0.046339072 0.0685542 0.07201953 -0.007334064 -0.015793975 -0.06355467 0.07956494 -0.028486613
0.096201345 -0.08561061 0.05546528 -0.06813562 -0.22761036 0.08514126 -0.0025317469 0.067148276

vae.fc1.bias f4 [128]
00000000: 4bcd 2cbf 987b 8c3e 5325 bbbe 8265 be3e
00000010: 2a4d aa3e 82d7 673c 7d24 87bd 392b 27bf
00000020: 0ea2 2f3e 54dc 153e 02a4 8cbe 24db 03bf
00000030: 3d8f ccbe c299 0a3d 80d2 eb3e 841d 22bf
00000040: 29a7 153e ec91 c4be 94b7 303e b233 ba3c
00000050: a56c 093e 5bd5 21bf 45fa c0be 2e6f b1bd
00000060: 3dd8 49be 0800 823c 57cb 7dbd 4887 7dbf
00000070: aa5e f73d 46a9 4e3e 6121 2e3e 4976 203e
00000080: 77ef 77be 20c3 e43e dd4b b23e 6e4c d83e
00000090: ae26 84be c10b 9b3e d9ec cb3e ef08 41bf
000000a0: 5ac6 a73e b04e 39be 4749 01bf 3bcc cabd
000000b0: b627 563d 5b6b 8d3f 51eb ff3e e9be 46bf
000000c0: d825 9d3e 6506 2e3f 3e89 c03d aa6e 813f
000000d0: 6028 ffbe ba74 3fbb ac9e ca3d 9b52 b9be
000000e0: 1bec 863e bfa1 b23e cb8a d4be 77d1 28bf
000000f0: 1b20 893e b802 af3d 6106 e5be d43a 123e
00000100: a2cf 08be 933f 2cbf 5e60 42bc 6015 4abe
00000110: 4e1d 41be 4451 903b 35eb 14bf eb08 ba3e
00000120: 2f8d dbbe 4d71 da3e 02b3 873e 1583 533e
00000130: 6885 81be 3ebd 103e e916 1ebf 9f7d 453e
00000140: d87c 1cbd e6ce 81bd df7f bebd 2eb6 08bf
00000150: 33d1 ffbd 661c 193f 5942 0e3e 8fba afbb
00000160: 1cc1 4bbe a489 333f 86f2 f73c c527 5c3e
00000170: ea26 823d 77ab 8f3e 5007 d3be 8f7b 34bf
00000180: a1d2 29bf 5bc3 f1be 11f8 ffbe 6374 883b
00000190: 3d6f 01be d704 09bf 19d9 8b3e 031b 81be
000001a0: 850d d33e edc8 923d a848 30bd b885 6f3e
000001b0: 8c2d 5fbe 3d5a a0bd 1255 cebd 56ee 09be
000001c0: eba2 e4bd 7cff 6c3e 8628 1bbf 3b9c 053f
000001d0: 8147 d13e 02cd ca3d 33be 8dbe f4da 45bd
000001e0: 6397 f6be 2b58 94be 1338 3ebe bbd8 a0bd
000001f0: ed55 933d c772 08bf ca97 d7be 9e82 643e
-0.6750075 0.27438045 -0.36551914 0.3718682 0.33261997 0.014150502 -0.065987565 -0.6530033
0.17151663 0.1463483 -0.27468878 -0.5150626 -0.39953032 0.03383804 0.46059036 -0.6332629
0.14614548 -0.3839258 0.1725753 0.022729728 0.13420351 -0.6321618 -0.3769094 -0.08663784
-0.19711395 0.015869156 -0.061961498 -0.9903455 0.120786026 0.2018176 0.1700492 0.15670122
-0.24212442 0.4468012 0.34823504 0.4224581 -0.2581076 0.30282405 0.39829138 -0.75404257
0.32768518 -0.18096423 -0.5050244 -0.09902235 0.052283965 1.1048387 0.4998422 -0.77635056
0.30692935 0.6797851 0.09401177 1.0111897 -0.4983549 -0.0029213862 0.098935455 -0.36195835
0.2635201 0.34889027 -0.4151214 -0.6594462 0.26782307 0.085454404 -0.4473143 0.14280254
-0.13360456 -0.67284507 -0.011863796 -0.19734716 -0.18858835 0.004404219 -0.581714 0.3633493
-0.42881152 0.42664567 0.2650376 0.20655473 -0.25297093 0.1413469 -0.6175371 0.19286202
-0.038204998 -0.06338291 -0.09301733 -0.53402984 -0.124910735 0.5980896 0.13892497 -0.0053628157
-0.19897884 0.701319 0.030267011 0.21499546 0.063550785 0.28060505 -0.41216516 -0.70501035
-0.6633702 -0.47219357 -0.49993947 0.004164265 -0.1264009 -0.5352301 0.2731407 -0.2521592
0.41221252 0.0716723 -0.04303804 0.23390853 -0.21794719 -0.078297116 -0.100748196 -0.13469824
-0.11163887 0.23144335 -0.6060871 0.52191514 0.40874866 0.099023834 -0.27684173 -0.048304513
-0.48162374 -0.28973517 -0.18576078 -0.07853838 0.071941234 -0.53300136 -0.42107993 0.22315452

vae.fc_mu.weight f4 [16, 128]
00000000: 45ec 80bd 6601 b23d b0c8 01bd 6bae 9cbc
00000010: 2bd4 27bd ff57 313d 42a7 bcbd 4ba9 a9bd
00000020: f579 d3bc 3199 ffbc 5053 01bd 774f 593d
00000030: 5572 e93b 9999 4f3c 82c2 a43c 222b a63d
00000040: 31f4 8cbb fb46 dbbc a0d7 023e 4e20 9f3d
00000050: 6f89 d03d 38c3 48bc 8c32 473d f30b 6f3c
00000060: be5f 2bbd 112f 673d e35a 823d 7d8a 863d
00000070: f1ea 94bc 8642 1f3d 9bf4 a8bc 25bb b13d
00000080: ea99 d63c d2a1 4c3e 4434 933d 5bbe 62ba
00000090: 4d0e a7bc 4ba2 11bd 31e1 2c3d e7cc 7f3d
000000a0: e617 323d ddcb 483d 9317 c7bd c8c2 aa3c
000000b0: 2ebb 7b3d d4a2 45bc cf3c b53d 7dcf dd3d
000000c0: c602 843d 8fb7 d0bc be0f 3bbd e996 bfbd
000000d0: feae afbc 5c76 793d 839a c7bb 2d70 c0bd
000000e0: e7c0 b5bd 9283 80bd 8ae9 413c aff0 993d
000000f0: f272 5cbe 68c5 d13d fd5c 96bd 19ac 7cbd
00000100: d558 403c e88a c6bd 7379 49bd 240d 0b3c
00000110: a516 ebbb d764 febc 11b0 513b 0c09 1a3d
00000120: 4cee cc3d f89c bcbb 1f56 193d 7030 e43d
00000130: 8930 1f3b 1851 dabd c267 cabc 8290 6bbd
00000140: 3e27 e03d 369e 473d e6c6 fdbb 6167 67bc
00000150: 2f0d 5a3b 4f90 fabd 69d2 893d 08b2 a33d
00000160: 062c 13bd 93fb a93d d3a5 493d 600e 7f3d
00000170: d307 28be 0527 733d 02f0 303c 2c06 56bd
00000180: 36fe 25bd 8dd8 983d 9597 993d 6450 a13d
00000190: 01cb 603c 8aa7 36be 82c9 a83d f080 603d
000001a0: 2c99 a1bb 9a7f dabc 6860 0b3c f242 313e
000001b0: 733c c63c dd3a cd3c 339f 443d 1a76 2a3d
000001c0: 5306 923d dd60 f9bd 98d0 48bd 80c0 4f3d
000001d0: 8eb6 10bc 287e cebc ef68 96bd e423 5a3e
000001e0: a8a7 05bc f354 0c3e 9d95 623d fb74 183c
000001f0: 7644 b43b d00c ea3d 2a89 84bd f8bb 42bc
00000200: 73ba 90bd c232 233d 4e92 8abd 7842 6fbd
00000210: b888 8e3d 28d6 e5bd 77bc 69bd ba18 353d
00000220: 5b52 bbbc d514 e83d 936a 7cbc 7bdc ec3c
00000230: 05ed 8b3c 795a 25bc 4965 e13d b0b1 74bd
00000240: 4e3e 5f3d a2db c3bd ffa8 453d f5aa 3e3d
00000250: f6c5 debd 6836 a3bd df62 783d 242a 83bd
00000260: 494e 993d 93f2 153d 5ad9 853c 0088 45bd
00000270: 2c24 e53b 4a16 5bbc 2a04 a8bd 4bd0 b3bc
00000280: 6c53 f0bd d2eb 40bd c8d7 de3c 54a5 05bb
00000290: 8c2a f33d 6201 52bd db15 e83c 5dc5 e0bd
000002a0: f926 b63d da8a 9bbc b8ad ef3d 7182 313d
000002b0: 5539 c2bd 29d7 d03d 6d71 7abd d179 0e3d
000002c0: 5270 0abc d95f ad3c fc00 d5bd e39c 86bc
000002d0: 9018 95bb 5074 c8bd 36c5 a7bb 45e9 c73d
000002e0: e6ef b13d a72f c23c c1fa 90bd 91c9 cebd
000002f0: a5f2 823c 2b9d 35bd aec1 053d 509a ba3c
00000300: 1d02 59bd 80f3 e0bd 876b 003d 8459 f53b
00000310: bc15 b4bd 4206 4fbc 0b1d 9bbc f2f5 d63d
00000320: 58a3 69bd a1a3 c53d 069c 0f3e 83ee 27be
00000330: c479 82bd f32c e7bd 95bc c93d 0747 29bc
00000340: 450b a1bd 6a81 d5bd 84fa 9cbc d671 e23b
00000350: 83ad 61bd b770 c2bd ecf4 c73d 87fb 9cbd
00000360: 831a ff3d d329 d8b8 9325 823d eb55 d53d
00000370: 7703 a0bd a839 23be 6733 603c fe93 a33b
00000380: c93b 5cbe 21c7 083e dc8e 14bc fe16 793a
00000390: 73e2 0ebc ace3 a03d a4c4 d7bc 274e b4bd
000003a0: d710 5abc b781 843d 59b5 e2bd 0688 3cbd
000003b0: 6c79 f2bd e193 10be 3741 a2bd 226f 823d
000003c0: b225 89bd c084 6cbd b0c4 b6bd 6b12 1cbb
000003d0: 3e0f cabb a5aa e53c 76bb 9dbc 4fbc 883d
000003e0: d3ae 0c3e 21dd a13d f926 443d ba6c a3bc
000003f0: 8455 47bd 0cfd 38bc d033 82bd 4814 b5bd
-0.06295065 0.08691673 -0.03168553 -0.019126138 -0.040973824 0.04329681 -0.092115894 -0.08284243
-0.02581499 -0.031200977 -0.031573594 0.0530543 0.007124225 0.012670898 0.02011228 0.08113696
-0.004301571 -0.026767245 0.12777567 0.077698335 0.101824634 -0.012253575 0.04863219 0.014590251
-0.041839354 0.05644137 0.063649915 0.06569383 -0.018178435 0.0388818 -0.02062445 0.08678273
0.026196439 0.19983605 0.07187703 -0.0008649581 -0.020392561 -0.035555165 0.042206947 0.06245127
0.043479823 0.049022544 -0.09721293 0.020844832 0.061457805 -0.012062747 0.08849489 0.10830591
0.064458415 -0.025478153 -0.04566931 -0.09354956 -0.021445747 0.060903892 -0.0060914173 -0.09396396
-0.08874684 -0.06275095 0.011835465 0.0751661 -0.21528223 0.102427304 -0.07341955 -0.061687563
0.011739929 -0.09694463 -0.04918809 0.00848702 -0.0071743303 -0.031053944 0.0031995813 0.037606284
0.10006389 -0.005756017 0.037435647 0.11142051 0.0024290404 -0.10659999 -0.024707679 -0.05751086
0.10944985 0.048734866 -0.007744658 -0.014123769 0.0033272018 -0.12234556 0.06729586 0.07992941
-0.035930656 0.08299937 0.049230408 0.06226957 -0.16409235 0.059363384 0.01079941 -0.05225198
-0.040525638 0.07463179 0.07499615 0.078766614 0.013720275 -0.17837349 0.082415596 0.054810464
-0.0049315896 -0.026672173 0.008506872 0.17310694 0.024198746 0.025052482 0.048003387 0.041616537
0.071301125 -0.12176678 -0.049027056 0.05072069 -0.008832587 -0.02520664 -0.07344233 0.21302754
-0.008157648 0.1370428 0.055318464 0.009305234 0.0055013252 0.11428225 -0.064714745 -0.011885636
-0.07066812 0.03984333 -0.06766187 -0.058413 0.06959671 -0.11222488 -0.0570645 0.044213034
-0.022866419 0.113320984 -0.015406269 0.028913727 0.017080793 -0.010092371 0.11005647 -0.05973977
0.054502778 -0.09563376 0.04825687 0.046549756 -0.10877602 -0.079693615 0.060641166 -0.06404522
0.07485635 0.03660829 0.016338993 -0.048225403 0.0069928374 -0.013372013 -0.08203919 -0.021949908
-0.117346615 -0.047099896 0.027202502 -0.0020392733 0.118733495 -0.05127085 0.028330734 -0.10975144
0.08894152 -0.018987108 0.11703056 0.04333729 -0.094835915 0.101972885 -0.061143328 0.034784142
-0.008449631 0.021163868 -0.104005784 -0.016432231 -0.004550047 -0.0978781 -0.005119945 0.097612895
0.08688335 0.023704363 -0.070790775 -0.100970395 0.015984843 -0.04433934 0.03265541 0.02277866
-0.05298053 -0.10983944 0.031352546 0.0074874777 -0.08793208 -0.012635769 -0.018934747 0.10496129
-0.057040542 0.0965035 0.14024362 -0.16399579 -0.06370881 -0.1128787 0.09850422 -0.010331876
-0.078634776 -0.104250744 -0.019162424 0.006910543 -0.055097114 -0.09494155 0.09763512 -0.076651625
0.124562286 -0.00010307473 0.06354823 0.10416778 -0.07813161 -0.15939963 0.01368413 0.0049920073
-0.21507181 0.13357212 -0.009067263 0.00095020223 -0.008720982 0.07855925 -0.026338883 -0.08803969
-0.013309679 0.06470054 -0.110697456 -0.04602816 -0.11839566 -0.14118911 -0.07922595 0.06368853
-0.06696643 -0.057743788 -0.08924234 -0.002381469 -0.006166368 0.028035471 -0.019254427 0.06676542
0.13738565 0.07903505 0.04788873 -0.019949306 -0.04866554 -0.0112908 -0.06357539 -0.08841759

vae.fc_mu.bias f4 [16]
00000000: 9446 61be e69f babc 279c 30be 0b26 9abe
00000010: 35b0 8fbd f34c 57be 36ec d03d 77f5 993e
00000020: cf69 90bd 417f bfbe 69c7 263d de1d cd3e
00000030: ea5b 77be 0de7 4dbd a9ef a4bd 0cd7 6fbe
-0.2199958 -0.022781324 -0.17247067 -0.3010715 -0.07016031 -0.21025448 0.10201304 0.30070087
-0.070514314 -0.37401775 0.040717516 0.4006185 -0.24156156 -0.050269175 -0.08053524 -0.23421878

vae.fc_logvar.weight f4 [16, 128]
00000000: a197 abbd 87c5 dabc 6eeb 43bd 4ffa 81bd
00000010: 169e d23d 2bc4 62be cdbf d1bd 8f48 57bd
00000020: 1b46 c13d 1c14 bd3d 026b 06be 6966 d83d
00000030: ce63 72bd ea0e 1abe 5f65 bb3f 1ce6 d7bc
00000040: 79fd 6f3e 11b6 5ebf 3bc6 05bc 54ef 41bd
00000050: 666f cebd 6aeb b8bc c075 e13d b0b3 ab3d
00000060: 62ee fcbd cf76 74bd 1e50 cb3d c15c dabf
00000070: 691d ca3c 346b 943d 7619 573d 28a8 a0be
00000080: 5610 9e3c f6f4 943f b181 f93d 8887 83bf
00000090: 8391 053e 4712 063d e8d1 873c 688d d3bb
000000a0: d950 66bd 0f7c 653d e9f4 e73d fdfe 24bb
000000b0: e346 95be 248b 14be 5129 95bf 1739 44bd
000000c0: 9b45 07be 9e60 2bbe af75 9e3d 8d85 febd
000000d0: 416a 4bbd 7615 0dbe 0c38 b8be 0da2 acbd
000000e0: db53 02be 0396 54be 11a6 c33d 3e73 573e
000000f0: f0f8 073e 26ec ccbc ae51 81bd fbbd e6bc
00000100: ae2d 85bc 7262 8cbd 0fa4 42bd a210 bd3c
00000110: 8b58 d9bd 8324 523f 1f9b fa3c 6cbb 373d
00000120: ea42 7a3d bbd4 24bd 18ec 013e 875c 1c3e
00000130: 0944 5f3e 4ccb e6bd d21a e0bd 7469 4abf
00000140: 0c5e babe 786e 473d 6447 8d3e b0c5 e33c
00000150: 7f01 bd3d f637 42bd baa3 6b3f 210d 843e
00000160: 31c6 1ebe 8cc7 9bbc e622 8cbe c1bf b83b
00000170: a97a aa3c 43c2 85be 7ad7 04bc 7f73 bc3c
00000180: 0c3b aabd 02ca a43a 5750 5abd 9507 ccbd
00000190: 432d 8ebd 35ea e63d 05c4 89be ca47 bdbd
000001a0: 9a1b ca39 50dd 253d 2d75 dbbb 9054 96bc
000001b0: f8d2 d93d 473c ea3b 9d86 5dbd f1e6 ffbb
000001c0: 889d 223e 2be6 763c 2d6f c3bd 2bd1 e0bd
000001d0: 2299 04be 1459 483e 166a 5fbd dccd bd3d
000001e0: e270 b23c d810 9dbd 64ee 533d e16c 063d
000001f0: df09 88bd 67d2 0abe f727 cdbd a502 0ebe
00000200: 32e3 8b3d 91f3 24be 9e02 813c 3992 85be
00000210: 0ad0 7b3f fbf5 953d 8a54 db3c 04a7 303e
00000220: 6d30 aabc a92e b33c 1496 fbbe c00a 153e
00000230: 98ff 683d c1e2 5fbe b16f 0c3e 9ebd 7f3d
00000240: f2ef 57bd 1f5f 87bd 30bb 83bd 2c77 cbbd
00000250: 9402 16be 0885 a7bd e120 323d d380 6b3b
00000260: b2c0 a83e 5938 613d d92b 0b3e 6450 b0bf
00000270: 1a7d 3abb 5561 c73c 1d25 383f 92f9 2fbf
00000280: 3f7a 62bd cb9b f0bd 36b2 4a3d a069 903c
00000290: 76e2 be3d 2e11 febc c699 ebbd 652e 833d
000002a0: 0367 be3d 0a39 fdbb 1127 013e 25c9 02be
000002b0: 4335 1fbe 0a54 0fbf 9075 79be 450a 253e
000002c0: 2709 4e3d b01b 1dbe fecc 06bd d93d 3c3c
000002d0: 5ad3 e23d f3c8 83bd d07f a1bb 77b7 13bc
000002e0: f38a 833b 01dc 81bf 3639 ea3c 43a3 643c
000002f0: 970d a5bd 9c93 a93d a164 0bbd b953 c53d
00000300: bdb9 90bb 011a 7d3c 73d8 c03c 3425 85bd
00000310: cc47 dc3c 9555 533d 52de 0bbd 5670 0a3d
00000320: 856a b6bc 252d 03be 9221 01be 3910 b03d
00000330: d154 1cbd e659 953e 6a68 2ebe 056e 4cbf
00000340: 4864 3abf c517 703d 7cf3 5739 8a26 91b9
00000350: 65f5 a6bd 6611 d0bc e52c 54be d4cb 243e
00000360: e39e 63be fe3a 6fba 3ee8 8ebd 3b5f bbbc
00000370: 4fb1 14bd 4c81 95bd ecdf 783d 5c6d 793c
00000380: 8193 debb 8936 79bc 2e21 893c 8b85 1dbd
00000390: af1f bd3d c979 8a3d 3d38 71be ac7b ecbd
000003a0: b27b 073e d9d7 9dbd 2267 a43d 3c5b cdbd
000003b0: 2387 273c 2a74 2b3f 265f 203c 27ad 1fbc
000003c0: 9e8a ffbd 0a6b fbbd fb61 683d cca9 0c3f
000003d0: 66c6 edbd 90f5 cc3d 3379 713b 4421 903b
000003e0: 6e75 033e 7502 fdbb 1737 123e d422 85bd
000003f0: 256f bdbd 7263 55be fa42 d23d 17ab 7fbe
-0.0837853 -0.026705517 -0.047831945 -0.06346571 0.10284059 -0.22145145 -0.10241661 -0.05255943
0.094372 0.09232351 -0.13126758 0.10566408 -0.059177212 -0.15044752 1.4640311 -0.026354842
0.23436536 -0.8699656 -0.008164938 -0.04734738 -0.10079841 -0.022573192 0.11008787 0.08383882
-0.123501554 -0.059683617 0.099273905 -1.7059556 0.024672227 0.0724701 0.052514516 -0.31378293
0.019294899 1.1637256 0.1218294 -1.0275736 0.1304379 0.032732274 0.016579583 -0.006456066
-0.056229446 0.056026515 0.1132601 -0.00251764 -0.29155645 -0.14506203 -1.1653234 -0.047906008
-0.13210146 -0.16736075 0.0773729 -0.124278165 -0.04966188 -0.13777718 -0.3598026 -0.08429346
-0.12727301 -0.2076035 0.09553159 0.21040055 0.13278556 -0.025014948 -0.06314407 -0.028166762
-0.016257133 -0.068547145 -0.04751974 0.02307922 -0.10612591 0.8208696 0.030591546 0.044856474
0.06109897 -0.040241938 0.12687719 0.15269671 0.21803297 -0.112692446 -0.109426156 -0.7906716
-0.36399877 0.048689336 0.2759353 0.027804226 0.09228801 -0.04741665 0.920467 0.25791267
-0.15505292 -0.01901605 -0.27370375 0.005638093 0.020810442 -0.26124772 -0.008108014 0.023004292
-0.083120435 0.001257241 -0.053299274 -0.09962384 -0.06942227 0.1127514 -0.26907364 -0.09242208
0.00038549007 0.040494263 -0.006697318 -0.01835087 0.10635942 0.007148299 -0.054083455 -0.007809513
0.15880406 0.015069525 -0.095426895 -0.109773956 -0.1294904 0.1956523 -0.05454453 0.0926778
0.021782342 -0.07669228 0.05174102 0.03281868 -0.06642508 -0.13556825 -0.10017388 -0.13868196
0.068304434 -0.16108538 0.015748318 -0.26088122 0.9836432 0.07322308 0.02677371 0.17251211
-0.020775044 0.021872835 -0.49137938 0.14554882 0.05688438 -0.21863844 0.13714482 0.062436692
-0.052719064 -0.0660994 -0.064321876 -0.099348396 -0.14649421 -0.081796706 0.043488387 0.003593494
0.32959515 0.054985378 0.13590945 -1.3774533 -0.0028455914 0.024338404 0.7193163 -0.6874019
-0.055292364 -0.11748465 0.04948636 0.01762849 0.09320538 -0.031014051 -0.11503939 0.064053334
0.09296992 -0.007727747 0.12612559 -0.12772043 -0.15547661 -0.5598761 -0.24361253 0.16117199
0.050301697 -0.15342593 -0.03291034 0.011489355 0.11075468 -0.064348124 -0.0049285665 -0.009015909
0.004014367 -1.0145265 0.028591733 0.01395494 -0.08059233 0.082801074 -0.034031514 0.096351095
-0.004416673 0.015448094 0.023540711 -0.065012366 0.026889704 0.05159529 -0.034147568 0.03379854
-0.02226759 -0.1281019 -0.12610462 0.08596844 -0.038166825 0.2917015 -0.17032018 -0.79855376
-0.7280927 0.05861642 0.00020594703 -0.0002768527 -0.08152274 -0.025398921 -0.20720251 0.1609338
-0.22228579 -0.0009125917 -0.069778904 -0.022872558 -0.036301907 -0.07300052 0.060760424 0.015223827
-0.006792486 -0.015210756 0.016739454 -0.038457435 0.09234559 0.0676151 -0.2355661 -0.11547026
0.1323078 -0.07707185 0.080274835 -0.10027167 0.01022509 0.6697413 0.00978831 -0.009745873
-0.12477611 -0.122762755 0.056734066 0.5494659 -0.11610107 0.10007775 0.0036845922 0.004398497
0.12837765 -0.00772124 0.14278828 -0.065007836 -0.09249715 -0.20838717 0.10266681 -0.2496761

vae.fc_logvar.bias f4 [16]
00000000: 4bda b4be 4a18 2e3b 2d1e 05bf c911 85be
00000010: ed30 a9bd 3d3b 55bf 1a8f 12bf 173f d7bd
00000020: 3458 70bd 6124 babc c9f1 6abe fa2d 76bf
00000030: e9b7 00be b77b 20be e4f4 44be 0b9e 06bf
-0.35322794 0.002656477 -0.5199917 -0.25990131 -0.08261285 -0.83293515 -0.57249606 -0.1051008
-0.058677867 -0.022722425 -0.22943796 -0.96163905 -0.12570156 -0.15672193 -0.19234043 -0.52584904
